TFLite_trained_models/FC 1 x 10_Iris.tflite (tflite, 1532 bytes, 4 tensors)

sequential_47/dense_238/BiasAdd/ReadVariableOp f4 [10]
0	0xbce6a87f	-0.028156517
1	0x3d17e274	0.037081197
2	0xbd20381c	-0.03911601
3	0x3d0159b3	0.031579684
4	0x3d1f8aed	0.03895085
5	0xbd078383	-0.033084404
6	0xbd1d28ef	-0.038369115
7	0xbd1ef4f6	-0.03880783
8	0x3d1f1b6b	0.038844507
9	0x3d21253f	0.03934216

sequential_47/dense_239/BiasAdd/ReadVariableOp f4 [3]
0	0x3d186111	0.037201945
1	0xbd22625d	-0.039644588
2	0x3d19cdb5	0.037549693

sequential_47/dense_238/MatMul f4 [10, 4]
0	0xbdc0c072	-0.09411706
1	0x3e541ced	0.2071416
2	0xbdcdd54d	-0.100504495
3	0xbe6208cf	-0.22073673
4	0xbe21debe	-0.15807626
5	0x3f1455a7	0.57943195
6	0x3ec09d96	0.3762023
7	0x3f25024b	0.64456624
8	0x3e645fa6	0.22302112
9	0xbf022621	-0.5083943
10	0x3ee30687	0.44340917
11	0xbe52103d	-0.20514007
12	0xbee2432e	-0.4419188
13	0x3e839770	0.25701475
14	0xbe2061d3	-0.15662317
15	0xbedae9cd	-0.427565
16	0xbd9b9c69	-0.07598192
17	0xbd20b1d4	-0.03923209
18	0xbe1c6042	-0.15271094
19	0x3da1e5ea	0.07905181
20	0xbe8ef590	-0.27921724
21	0x3f11c0ac	0.5693462
22	0x3ed9075c	0.42388427
23	0xbedf41a5	-0.4360477
24	0xbe3f5fe7	-0.18688928
25	0x3e1b58d7	0.15170608
26	0xbbbfff4b	-0.0058592907
27	0x3e45c1f7	0.19312273
28	0x3e219ea0	0.15783167
29	0xbe310097	-0.17285381
30	0xbe926a81	-0.2859688
31	0x3f0c38d4	0.5477421
32	0xbed27e49	-0.41111973
33	0x3d0b9f04	0.034087196
34	0x3f0efac3	0.5585138
35	0x3ed0c84b	0.4077781
36	0xbeb21ed0	-0.34789133
37	0xbf070e59	-0.5275627
38	0xbe7fdc17	-0.24986301
39	0x3ea8cf9d	0.32970896

sequential_47/dense_239/MatMul f4 [3, 10]
0	0xbe0f7563	-0.14009623
1	0xbd7b2b09	-0.06132034
2	0xbf0725df	-0.5279216
3	0xbdc66f05	-0.09689144
4	0x3e20c4c2	0.15700057
5	0x3e505245	0.20343883
6	0xbecbaf88	-0.39782357
7	0xbe7b9be1	-0.24571182
8	0x3ec07c57	0.37594864
9	0x3f0b9338	0.54521513
10	0xbe8e61c2	-0.27808958
11	0xbd28c957	-0.041207638
12	0xbdbcebc4	-0.09224656
13	0x3db4dd31	0.088312514
14	0xbf1c4a51	-0.610509
15	0x3d554c9b	0.05207501
16	0x3e1ed584	0.15511137
17	0x3ced4718	0.028964564
18	0xbeb2ba82	-0.3490792
19	0xbec94244	-0.3930837
20	0xbf2de83b	-0.6793248
21	0x3f235f85	0.63817626
22	0xbf1d8514	-0.61531186
23	0x3f00812c	0.501971
24	0xbe201f75	-0.15637
25	0xbeb4be15	-0.3530127
26	0x3d48977c	0.04897259
27	0xbe89960d	-0.26872292
28	0xbcefc682	-0.02926946
29	0x3f122687	0.5709004
