TFLite_trained_models/FC 1 x 10_Wine.tflite (tflite, 1892 bytes, 4 tensors)

sequential_48/dense_240/BiasAdd/ReadVariableOp f4 [10]
000000 e7 ee 04 3d c6 44 3e bd 43 f8 25 bd 75 00 3d bd
       0.032454398 -0.046452306 -0.040519964 -0.046143014
000010 91 34 2c 3d fa 9d 2d 3d 64 f8 31 bd 79 c4 29 3d
       0.04204232 0.042386986 -0.043449774 0.041447137
000020 23 e5 31 3d 52 b6 31 3d
       0.043431412 0.043386765

sequential_48/dense_241/BiasAdd/ReadVariableOp f4 [3]
000000 0b 0a 36 bd 24 15 30 3d e4 06 2f 3d
       -0.04444317 0.04298891 0.04273118

sequential_48/dense_240/MatMul f4 [10, 13]
000000 31 00 de be 28 e0 ed bd 8b d6 e3 3d 47 83 ff 3e
       -0.4335952 -0.1161502 0.11124905 0.49904844
000010 db 1a c9 be df cc 6b 3e cc d6 a8 3e c7 08 85 be
       -0.39278302 0.23027371 0.32976377 -0.2598326
000020 2c 37 ec bd 29 ed 86 be f0 09 ac 3d 3d 5b 46 3e
       -0.11533961 -0.26352814 0.08400333 0.19370742
000030 e5 89 3a be e4 d0 e6 be 34 4a 32 3e 79 92 9b 3e
       -0.18216665 -0.45081246 0.17411119 0.30385187
000040 82 0b a5 bd 24 94 42 bd 72 a1 02 bf b8 ec 96 3e
       -0.080588356 -0.04750456 -0.51027596 0.29477477
000050 7c 5f c3 3e 48 20 0b be ae 8e 5a be 1f 03 5c be
       0.38158786 -0.13586533 -0.2134349 -0.21485566
000060 5b c2 ad be 32 8c ba be 45 ea d6 3e ca 58 48 3d
       -0.33937344 -0.36435086 0.41975608 0.0489128
000070 44 79 06 bf d1 c5 a8 3e ad 69 e9 bd 4c bf 97 be
       -0.52528787 0.32963422 -0.11397109 -0.29638135
000080 e3 79 1a 3e 8b 15 a1 3e c1 3b a0 bd aa dc 8a 3c
       0.15085559 0.31461748 -0.07823897 0.016950924
000090 f9 b6 0b be b4 af 9d bc 45 c0 d4 3d 79 ab b8 3e
       -0.13644017 -0.01924882 0.10388235 0.36068323
0000a0 20 61 7b 39 7b 0b 33 be 62 a3 ed be 57 ee e9 be
       0.00023973407 -0.17484848 -0.46413714 -0.4568965
0000b0 bb cb 39 3d 8d 31 0d bf f3 f8 f4 3c 7e 4b 8f bc
       0.04536031 -0.55153733 0.029903864 -0.017492052
0000c0 f4 4c fb bd ec 80 df be 56 83 06 3e 6c d2 26 be
       -0.12270537 -0.43653047 0.13136038 -0.16291207
0000d0 47 bc a0 be 59 16 de bd 81 83 21 3e c9 40 fe 3c
       -0.31393644 -0.10844106 0.15772821 0.031036751
0000e0 83 6f 8e 3e 91 64 10 be d6 14 9a be 4a 1e 9e be
       0.27819452 -0.14100863 -0.30094022 -0.30882484
0000f0 35 c4 56 3e 1c 7e b9 be 44 01 bc 3e 12 38 d6 3e
       0.20973285 -0.36229026 0.36719716 0.41839653
000100 1c a5 e2 3e 16 f5 cc 3e 09 e4 c3 3e 56 8e ab be
       0.44266593 0.40030736 0.38259915 -0.3350703
000110 50 46 52 3d ce 3a b0 be 39 e2 a0 be c0 f0 5e 3e
       0.051336586 -0.34419864 -0.31422594 0.21771526
000120 2f 1f 66 3d 08 42 b7 bd 4b f3 62 be 8f f0 e6 be
       0.056182083 -0.08948141 -0.22163121 -0.45105407
000130 1d 74 d1 3e c6 85 d9 bd ed 09 4c 3d 4a 12 9e 3e
       0.409089 -0.106212184 0.049814153 0.30873328
000140 c9 39 15 3d 4d b4 eb be 52 b5 70 be 25 99 13 bd
       0.03643206 -0.46035996 -0.23506668 -0.036034722
000150 50 0d 13 b8 0d b6 0d bf 49 86 b5 3d 1a 3e 56 3e
       -3.505993e-05 -0.5535591 0.088635035 0.20922127
000160 41 94 49 3e 4d ba 30 3d 26 33 b0 3e 40 cc 87 3d
       0.1968546 0.04314642 0.34414023 0.066307545
000170 9d dc ad 3e 4f e3 c8 3e a2 fd 12 be 01 65 01 3f
       0.33957377 0.39235923 -0.14354566 0.50544745
000180 25 3f 81 3e 16 d0 41 3d 8a c2 9a 3e 9b 14 5a 3e
       0.25243488 0.047317587 0.30226547 0.21296923
000190 1b 9a 05 3f 7f b7 4b 3e 68 df 95 be a0 f9 aa be
       0.5218827 0.19894217 -0.29272008 -0.33393574
0001a0 5f fa 8f 3e fa e7 8b 3e e5 09 88 3e 9c f0 09 3f
       0.28120705 0.27325422 0.2657005 0.53882766
0001b0 76 05 08 3f 33 b1 0c 3e 69 e9 0f be dd 04 7c 3e
       0.5313333 0.13739471 -0.14053883 0.2461123
0001c0 67 32 db be 1c 67 a5 be 9f 59 02 3f aa d6 c4 be
       -0.4281189 -0.3230523 0.50918 -0.38445026
0001d0 b0 c1 92 be 14 fd 88 3e fe ca c7 3e a8 0d 6e be
       -0.28663397 0.26755583 0.39022058 -0.23247397
0001e0 19 52 a7 be 6a bb 64 be d9 a3 c2 3c db 75 06 3f
       -0.32679823 -0.22337118 0.02375977 0.52523583
0001f0 ac 8f d5 3d ca 9f 18 3e 7e 72 ee be e8 ce ac 3e
       0.10427794 0.14904705 -0.46571726 0.33751607
000200 0a a5 a1 3d 2d 38 cc bd
       0.07892807 -0.09971652

sequential_48/dense_241/MatMul f4 [3, 10]
000000 5a 60 09 bd f8 ba 7a b9 4a 2b f1 3e e9 f8 43 be
       -0.033539154 -0.00023911509 0.4710334 -0.1913792
000010 bc 0f ec be 27 cd 17 bf ee c4 06 3f 49 87 34 bd
       -0.46105754 -0.5929741 0.5264424 -0.04407433
000020 ff 03 82 be 13 2e 16 bf 90 8c d1 3e 76 20 8b be
       -0.25393674 -0.58664054 0.40927553 -0.27173203
000030 60 6b 0d 3f 3a 0a c4 be c8 a4 0c be 2b af 0f bf
       0.55241966 -0.38289052 -0.13734734 -0.5612666
000040 54 26 80 3e e5 7f 06 3f 5f 3a a8 3e eb 93 ab be
       0.25029242 0.525389 0.32857034 -0.3351129
000050 a8 2c e1 be 65 7b 7e be 3b f9 4e bd 8d 70 17 bf
       -0.43979383 -0.24851759 -0.050530653 -0.59156114
000060 81 8d 05 bf c4 d2 1c 3e cf 33 b1 bd 00 0f 16 be
       -0.5216904 0.15314776 -0.0865246 -0.1465416
000070 e6 79 8c 3d a4 54 19 3f
       0.06859188 0.59894776
