TFLite_trained_models/FC 1 x 10_Digits.tflite (tflite, 4240 bytes, 4 tensors)

sequential_50/dense_244/BiasAdd/ReadVariableOp f4 [10]
-0.0072078803 -0.033852153 0.023293687 0.033344876 0.016716667 0.032100685 0.04837169 -0.057371836
0.007638191 0.018572304
00000000: 1530 ecbb 8ea8 0abd 67d2 be3c a394 083d
00000010: 64f1 883c 027c 033d 6521 463d bbfe 6abd
00000020: ca49 fa3b f224 983c

sequential_50/dense_245/BiasAdd/ReadVariableOp f4 [10]
0.078053184 -0.037959404 0.036518194 -0.0639369 0.07361314 -0.024413928 0.034077015 -0.03797262
0.017489348 0.028654804
00000000: 59da 9f3d 527b 1bbd 1a94 153d 59f1 82bd
00000010: 7cc2 963d b8ff c7bc 5794 0b3d 2e89 1bbd
00000020: d245 8f3c 7bbd ea3c

sequential_50/dense_244/MatMul f4 [10, 64]
-0.020584226 0.11736892 0.15567774 -0.16746515 -0.17966305 0.13830225 -0.15201005 -0.08898405
0.15538922 -0.27109453 -0.03797017 0.069251254 0.03320916 -0.17928784 -0.001660182 -0.17497572
0.01765307 0.20064598 -0.05079709 -0.12550005 -0.055308226 -0.14272517 0.1508303 -0.0062010605
-0.12375695 0.14654833 0.055045042 0.32055697 -0.19934632 -0.008414262 0.061234277 0.007131557
0.1014888 -0.08232542 0.084537156 0.107213505 0.036601517 -0.03388898 0.078171484 0.17673922
0.16609533 0.19923621 0.18004732 -0.029496243 0.18195784 0.048685394 -0.12474889 0.23538662
-0.13382311 0.08849515 0.049757164 0.15457042 -0.30875134 0.0007392479 -0.16212012 -0.2985268
-0.21102941 -0.25167298 -0.18819676 0.029892849 -0.056472965 -0.005132355 -0.24516448 -0.08887544
0.14883801 -0.15425257 0.15739861 0.13905075 0.06336486 -0.1976801 -0.019204345 0.04305335
0.26874736 0.18002029 0.015754443 0.1732331 0.060258884 -0.11832139 -0.08467828 -0.15961224
0.13351023 0.10663259 -0.018594531 -0.3260396 0.13687287 0.29894748 -0.021839062 0.0018172293
-0.15174794 0.0996818 0.10885602 0.087692894 0.051759932 0.19771178 -0.08858279 -0.19298856
0.03420964 0.13446628 -0.29921 -0.09862548 0.13050681 -0.07813476 0.26111156 -0.14020443
0.070643745 -0.14523247 -0.16629027 0.29550043 -0.16350356 -0.12416403 -0.08756605 0.16514069
-0.15060231 -0.21123227 -0.20973738 -0.17455961 0.11294283 -0.18894236 0.029224314 -0.20929316
0.10900079 -0.11116003 -0.09303997 0.18777837 0.14472014 -0.0818461 -0.20524137 -0.06084853
-0.20322505 0.22655337 -0.1577518 0.2806007 -0.18508658 -0.047111794 -0.3250876 -0.234752
0.27609047 -0.020909408 0.1645942 0.25194517 0.16094312 0.19089265 0.10241038 -0.070651054
-0.019936018 -0.1351185 -0.13671127 -0.1186384 -0.005682027 -0.073780775 -0.09770138 0.18562275
0.14131643 0.21453494 -0.050987463 -0.057601135 -0.04105648 -0.22708283 -0.07813777 -0.1344696
0.2481139 0.19768961 -0.13185456 0.1489342 0.08870835 -0.3153157 0.17623265 0.16885898
0.06265768 -0.088249415 0.0024000276 0.13742599 0.06739747 -0.17526907 -0.21681868 -0.17198157
-0.30332828 0.12891239 -0.06086103 0.008947867 -0.1502213 0.19598533 0.1544001 0.068463124
0.21865529 0.1075603 -0.06080469 -0.18956362 0.15343748 -0.06818875 0.12062488 0.19805273
-0.2663235 -0.1780872 0.030252216 -0.054416385 0.113577604 -0.12091286 0.20215902 0.13719673
0.044070207 -0.20026022 -0.086354434 -0.025924573 0.08654842 -0.16924882 0.1175577 0.25092658
-0.096649736 0.08807893 0.085650295 -0.13419203 -0.26352373 0.110408075 0.16928752 -0.08276027
0.04745685 -0.040785972 -0.22776571 -0.07259327 -0.021895513 -0.12515578 0.10297392 0.13758215
0.16185948 -0.011874488 0.25313783 -0.13166167 0.00022056498 -0.12501843 0.07832685 0.18584442
-0.17069186 -0.10265275 -0.13819192 0.018393535 0.022760699 0.15733731 0.16104142 0.14399204
-0.03565457 0.3014776 0.15835363 0.010219189 -0.086426936 0.09277605 -0.035607148 0.23014446
0.08039074 0.15159531 0.29219642 0.1090636 -0.19552648 -0.092030115 0.03698554 -0.02634036
00000000: 40a0 a8bc 1e5f f03d fc69 1f3e fc7b 2bbe
00000010: 97f9 37be 1b9f 0d3e 86a8 1bbe 453d b6bd
00000020: 5a1e 1f3e e7cc 8abe 9c86 1bbd 9ad3 8d3d
00000030: 5406 083d 3b97 37be 779a d9ba d62c 33be
00000040: 2c9d 903c 2476 4d3e 9c10 50bd 1683 00be
00000050: e18a 62bd 8c26 12be 4273 1a3e 4432 cbbb
00000060: 4974 fdbd c410 163e e976 613d 0b20 a43e
00000070: 7121 4cbe f9db 09bc cbd0 7a3d d6af e93b
00000080: 5cd9 cf3d 3b9a a8bd d121 ad3d c192 db3d
00000090: 79eb 153d 2ccf 0abd 5f18 a03d 20fb 343e
000000a0: e514 2a3e 9404 4c3e 535e 383e 1ba2 f1bc
000000b0: 2853 3a3e 566a 473d 597c ffbd 3109 713e
000000c0: ed08 09be f23c b53d 2bce 4b3d b547 1e3e
000000d0: a814 9ebe 16ca 413a d102 26be 81d8 98be
000000e0: 1818 58be 48db 80be a7b6 40be d9e1 f43c
000000f0: 3250 67bd 502d a8bb 660c 7bbe 5404 b6bd
00000100: fe68 183e 63f4 1dbe 1a2d 213e 5263 0e3e
00000110: 70c5 813d a76c 4abe 6e52 9dbc b658 303d
00000120: 4199 893e 3d57 383e 760f 813c 0564 313e
00000130: 05d2 763d 7c52 f2bd ce6b adbd 6471 23be
00000140: e8b6 083e 3062 da3d 8f53 98bc aaee a6be
00000150: 6728 0c3e a50f 993e d5e7 b2bc 1930 ee3a
00000160: d063 1bbe f925 cc3d e8ef de3d 5598 b33d
00000170: 3902 543d f574 4a3e e56a b5bd cb9e 45be
00000180: 681f 0c3d 87b1 093e 0e32 99be 28fc c9bd
00000190: 94a3 053e 1e05 a0bd 6ab0 853e c091 0fbe
000001a0: abad 903d d2b7 14be ff47 2abe d54b 973e
000001b0: 7a6d 27be b649 febd d455 b3bd a41a 293e
000001c0: 7e37 1abe 464d 58be 65c5 56be c1bf 32be
000001d0: 924e e73d 1b7a 41be d467 ef3c f250 56be
000001e0: ce3b df3d dfa7 e3bd bd8b bebd f948 403e
000001f0: 8431 143e ee9e a7bd cb2a 52be 4f3c 79bd
00000200: 3a1a 50be 9bfd 673e b089 21be e5aa 8f3e
00000210: 5687 3dbe 4cf8 40bd e271 a6be d462 70be
00000220: bb5b 8d3e 354a abbc 628b 283e f5fe 803e
00000230: 46ce 243e 5d79 433e 89bc d13d 80b1 90bd
00000240: dc50 a3bc 815c 0abe 0afe 0bbe b1f8 f2bd
00000250: 4c30 babb 601a 97bd a917 c8bd e413 3e3e
00000260: 41b5 103e 0caf 5b3e 3bd8 50bd 2bef 6bbd
00000270: d72a 28bd 6788 68be b206 a0bd 66b2 09be
00000280: 9211 7e3e 256f 4a3e e204 07be 3582 183e
00000290: b9ac b53d 0f71 a1be 5576 343e 5ee9 2c3e
000002a0: ab52 803d 1cbc b4bd c849 1d3b 66b9 0c3e
000002b0: af07 8a3d bc79 33be b705 5ebe f01b 30be
000002c0: d84d 9bbe 9c01 043e 6a49 79bd 139a 123c
000002d0: 9dd3 19be 61b0 483e 0f1b 1e3e 6536 8c3d
000002e0: 2ce7 5f3e 9348 dc3d 570e 79bd f71c 42be
000002f0: b71e 1d3e 8ba6 8bbd 2d0a f73d 56ce 4a3e
00000300: 8e5b 88be 7e5c 36be 7fd3 f73c b7e3 5ebd
00000310: 609b e83d 29a1 f7bd c602 4f3e 4d7d 0c3e
00000320: f682 343d 0411 4dbe 98da b0bd c55f d4bc
00000330: 4c40 b13d 904f 2dbe 17c2 f03d 7379 803e
00000340: 4cf0 c5bd ba62 b43d 6c69 af3d a369 09be
00000350: 95ec 86be a11d e23d b559 2d3e 377e a9bd
00000360: 1d62 423d 310f 27bd 6a3b 69be c8ab 94bd
00000370: 385e b3bc d628 00be fee3 d23d 56e2 0c3e
00000380: 7ebe 253e 368d 42bc 489b 813e 51d2 06be
00000390: 7647 6739 d504 00be d469 a03d 004e 3e3e
000003a0: d9c9 2ebe 9b3b d2bd 2f82 0dbe 0aae 963c
000003b0: a574 ba3c 081d 213e 0be8 243e a672 133e
000003c0: 870a 12bd 465b 9a3e 7427 223e 636e 273c
000003d0: 9b00 b1bd 5f01 be3d cdd8 11bd fdaa 6b3e
000003e0: e6a3 a43d cd3b 1b3e c59a 953e bd5c df3d
000003f0: 1838 48be 497a bcbd 267e 173d bdc7 d7bc

sequential_50/dense_245/MatMul f4 [10, 10]
-0.22875924 -0.35960248 0.38735464 0.4345346 0.40629107 -0.087698825 -0.001102475 -0.33115697
0.27451915 -0.19224349 -0.31796148 -0.277455 0.1546965 -0.33280587 0.018729638 -0.50468856
-0.14347649 0.41517106 0.29999572 -0.33014002 -0.4068364 -0.13324939 0.4614603 0.37707904
-0.06262053 -0.15939417 0.4126145 -0.20112413 0.11611181 -0.39359865 -0.32372686 -0.20521832
0.12489203 -0.33617422 0.20071441 0.22225942 -0.2570857 0.28452402 -0.29492363 0.461463
0.43638933 -0.21876837 -0.36764932 0.05596016 -0.1825798 0.34362066 0.41819096 -0.34455392
-0.2990302 -0.23682332 0.3812092 -0.21667287 -0.39677387 0.24644369 -0.34782174 0.23384456
0.46864393 0.23153244 -0.2524084 -0.44191033 0.09573284 -0.4327628 0.07013747 -0.21511053
0.029479774 0.341216 -0.28490978 0.3558593 0.32503513 -0.031191276 0.3627399 0.29236117
-0.08942412 0.47618827 0.031771537 -0.4112479 9.4220464e-05 0.26524413 -0.025684685 -0.50313973
0.12975791 -0.100930005 0.3598081 -0.3215942 0.40817517 -0.17700972 -0.37537047 -0.04807216
0.13728729 -0.13539915 -0.09285325 0.036397055 -0.43296814 -0.44405127 0.07181472 0.11567867
0.19980186 0.41381434 -0.41918534 0.52134657
00000000: dd3f 6abe d11d b8be 5953 c63e 527b de3e
00000010: 6205 d03e 719b b3bd ec80 90ba 688d a9be
00000020: c68d 8c3e 7adb 44be d9cb a2be 950e 8ebe
00000030: c268 1e3e 8865 aabe e66e 993c 4533 01bf
00000040: 80eb 12be 4d91 d43e 0a99 993e 1d08 a9be
00000050: dc4c d0be 8772 08be 8644 ec3e 8110 c13e
00000060: 313f 80bd 3a38 23be 3542 d33e 7cf3 4dbe
00000070: 07cc ed3d c385 c9be 87bf a5be c024 52be
00000080: 65c7 ff3d 071f acbe 1488 4d3e f997 633e
00000090: bda0 83be 22ad 913e 3b00 97be e144 ec3e
000000a0: 6c6e df3e d104 60be 883c bcbe 7b36 653d
000000b0: 33f6 3abe 0cef af3e 201d d63e 5f69 b0be
000000c0: 7d1a 99be d081 72be da2d c33e 7edf 5dbe
000000d0: f225 cbbe bc5b 7c3e b115 b2be f374 6f3e
000000e0: 19f2 ef3e d716 6d3e ac3b 81be 1242 e2be
000000f0: 940f c43d 1693 ddbe 3ca4 8f3d ef45 5cbe
00000100: 917f f13c ddb3 ae3e b2df 91be 3133 b63e
00000110: 016b a63e d984 ffbc 0bb9 b93e 5db0 953e
00000120: fe23 b7bd f3ce f33e df22 023d 168f d2be
00000130: 3a98 c538 14ce 873e b068 d2bc c4cd 00bf
00000140: 42df 043e 64b4 cebd c438 b83e ffa7 a4be
00000150: 56fc d03e 0942 35be 8f30 c0be 50e7 44bd
00000160: 0a95 0c3e 13a6 0abe d829 bebd 1415 153d
00000170: 00ae ddbe b05a e3be 9913 933d f0e8 ec3d
00000180: dc98 4c3e 79df d33e 769f d6be f876 053f
