TFLite_trained_models/FC 10 x 10_Breast cancer.tflite (tflite, 9440 bytes, 22 tensors)

sequential_57/dense_280/BiasAdd/ReadVariableOp f4 [10]
0	0xbd016857	-0.031593647
1	0xbce99303	-0.028512483
2	0x3ca394d8	0.019968435
3	0xbcd195ba	-0.02558409
4	0xbd132262	-0.035921462
5	0x3cee88df	0.029118
6	0x3cc77fe9	0.024352985
7	0xbcdffc53	-0.027341997
8	0x3c4b2e4a	0.012401173
9	0x3ba10671	0.004914098

sequential_57/dense_281/BiasAdd/ReadVariableOp f4 [10]
0	0xbcda5745	-0.026652941
1	0x3d0b07be	0.03394293
2	0x3ccd3424	0.025049277
3	0xbcec0829	-0.028812485
4	0xbcead7a0	-0.028667271
5	0x3cf9434d	0.0304276
6	0xba952d44	-0.0011381288
7	0x3cc273c0	0.023736835
8	0xbcfe610b	-0.031052133
9	0xbce75958	-0.028240845

sequential_57/dense_282/BiasAdd/ReadVariableOp f4 [10]
0	0xbceafb71	-0.02868435
1	0x3ce7d732	0.028300855
2	0xbd060bc1	-0.032726053
3	0x3d046843	0.032325994
4	0xbce5b11d	-0.028038556
5	0xbccb84e4	-0.02484364
6	0x3cf7972d	0.030223453
7	0xbcd1f226	-0.02562816
8	0xbcef4ccd	-0.029211426
9	0x3ce21140	0.027596116

sequential_57/dense_283/BiasAdd/ReadVariableOp f4 [10]
0	0xbd0371b1	-0.032090846
1	0xbce26fda	-0.027641226
2	0x3d01a4ac	0.031651184
3	0xbce8b881	-0.02840829
4	0xbd04d39a	-0.03242836
5	0x3ced8d72	0.02899811
6	0x3ce651ab	0.028115114
7	0x3cf56ac8	0.029958144
8	0x3cdd88d4	0.027042784
9	0xbcf112a0	-0.029427826

sequential_57/dense_284/BiasAdd/ReadVariableOp f4 [10]
0	0x3ce5dcb1	0.028059335
1	0x3ce3dd7a	0.02781557
2	0xbd007bd3	-0.031368088
3	0x3cce6ec1	0.025199296
4	0xbcd8a2ef	-0.02644488
5	0x3cea8bfa	0.0286312
6	0x3cc01a17	0.02344994
7	0x3ceb26ab	0.028704962
8	0xbce3e2e9	-0.02781816
9	0x3cee2ce1	0.029074134

sequential_57/dense_285/BiasAdd/ReadVariableOp f4 [10]
0	0x3ce79101	0.028267385
1	0xbcfd6775	-0.030933121
2	0xbcd8a47f	-0.026445625
3	0xbcfe5c8e	-0.031049993
4	0xbcf177e1	-0.029476108
5	0xbce9d0fe	-0.028542038
6	0xbd07ff3e	-0.033202402
7	0x3ce5d416	0.028055232
8	0x3cea1e2c	0.02857884
9	0xbced147a	-0.028940428

sequential_57/dense_286/BiasAdd/ReadVariableOp f4 [10]
0	0xbcd5e507	-0.026110185
1	0xbceacba4	-0.028661557
2	0x3ce6188c	0.028087877
3	0x3cb59d5f	0.022169767
4	0xbceddfad	-0.029037321
5	0x3cee11b5	0.029061178
6	0x3ced089a	0.028934766
7	0x3cea83c9	0.028627293
8	0xbcd147c6	-0.02554692
9	0xbceb2931	-0.028706165

sequential_57/dense_287/BiasAdd/ReadVariableOp f4 [10]
0	0x3cfde7ad	0.03099426
1	0x3ce623d7	0.028093262
2	0x3ce1d0e3	0.027565425
3	0xbceac7ce	-0.028659727
4	0x3cc6a476	0.024248343
5	0xbceb8f30	-0.0287548
6	0xbcf048c8	-0.02933158
7	0x3ce7a09a	0.028274823
8	0x3cec3700	0.02883482
9	0x3cea1b02	0.028577331

sequential_57/dense_288/BiasAdd/ReadVariableOp f4 [10]
0	0x3cec76d5	0.028865257
1	0x3ceb99d8	0.028759882
2	0xbced3b22	-0.02895886
3	0xbced187d	-0.028942341
4	0xbce3cf21	-0.027808728
5	0x3cf40acc	0.029790305
6	0x3cdd7e48	0.027037755
7	0xbced179e	-0.028941926
8	0x3ceba8f5	0.028767088
9	0x3ce83f53	0.028350508

sequential_57/dense_289/BiasAdd/ReadVariableOp f4 [10]
0	0xbcebaec3	-0.028769856
1	0x3cee0593	0.029055392
2	0x3cedb059	0.029014753
3	0xbced9697	-0.02900247
4	0x3ced1365	0.028939912
5	0x3cedf35d	0.029046709
6	0xbcf02a39	-0.029317008
7	0xbcee23f6	-0.029069882
8	0x3cf04b2c	0.02933272
9	0x3cf450e1	0.029823722

sequential_57/dense_290/BiasAdd/ReadVariableOp f4 [2]
0	0xbcedecb4	-0.029043533
1	0x3cedecb8	0.02904354

sequential_57/dense_280/MatMul f4 [10, 30]
0	0x3de116be	0.10990666
1	0xbebfd5dd	-0.37467852
2	0x3d28b0ff	0.04118442
3	0x3ea9cb26	0.33162802
4	0x3e87719f	0.26453874
5	0x3beccbd9	0.007226449
6	0x3dad9e06	0.08477406
7	0xbeb3d4a2	-0.35123163
8	0xbe5d85ad	-0.21633025
9	0x3ead4e32	0.3384872
10	0x3e83b32e	0.2572264
11	0x3e7f9a0b	0.24961106
12	0x3ce602ab	0.028077444
13	0x3e842430	0.2580886
14	0xbc71f3a9	-0.014767566
15	0xbe2974ae	-0.16548416
16	0xbdbdfaba	-0.09276338
17	0xbe8bf823	-0.2733775
18	0x3e08030c	0.13282412
19	0xbce42a0e	-0.027852084
20	0x3e75955e	0.2398276
21	0x3ae7a3fc	0.0017672773
22	0xbe3f8e69	-0.18706669
23	0xbe17a57f	-0.14809225
24	0x3e76cf52	0.24102524
25	0xbe3d5110	-0.18487954
26	0x3e47277a	0.19448653
27	0x3ea09a88	0.31367898
28	0x3e13478d	0.14382763
29	0x3e57e748	0.2108432
30	0x3dd394d7	0.10331123
31	0xbe889e5c	-0.2668332
32	0x3e504460	0.20338583
33	0x3d8e7b68	0.069571316
34	0xbd5e270a	-0.05423645
35	0xbe0a33bd	-0.13496299
36	0xbe03c3c4	-0.12867647
37	0xbe662085	-0.22473343
38	0x3e14a1d0	0.14514852
39	0x3df98a7d	0.12184618
40	0x3e82944f	0.25503775
41	0x3df031ff	0.11728286
42	0x3ec18b44	0.37801564
43	0xbe751c3c	-0.23936552
44	0xbeab2f2d	-0.3343443
45	0x3db13324	0.086523324
46	0x3e943166	0.28943938
47	0xbe9e81fc	-0.30958545
48	0x3e26d60c	0.1629259
49	0xbe2ee296	-0.17078623
50	0xbd2c16ec	-0.042014048
51	0xbc1ace62	-0.00944862
52	0xbda7bd4c	-0.081904024
53	0x3ec335e9	0.38127068
54	0x3e644d57	0.22295128
55	0xbe8980da	-0.26856118
56	0x3d8ee715	0.06977669
57	0xbd41acff	-0.047284123
58	0x3e39db99	0.18150176
59	0x3dd56f36	0.104216024
60	0x3dac07c4	0.08399919
61	0xbddb74ed	-0.10715661
62	0x3dfe440e	0.12415324
63	0xbd79de0e	-0.061002783
64	0xbe1199a5	-0.14218767
65	0x3e13055f	0.14357518
66	0x3d2ebd60	0.04266107
67	0xbd45770f	-0.048209246
68	0x3e8da7d6	0.2766711
69	0xbe253513	-0.16133527
70	0x3d721955	0.05910619
71	0xbe3b734c	-0.18305701
72	0xbe942938	-0.28937697
73	0x3e298751	0.16555525
74	0xbd8c2257	-0.06842487
75	0x3e78751c	0.24263424
76	0xbcff8b85	-0.031194458
77	0xbe312717	-0.17300068
78	0x3eb099cc	0.34492338
79	0x3e04a507	0.12953578
80	0xbe4338de	-0.19064662
81	0x3e9c8ceb	0.30576262
82	0xbe821f55	-0.2541453
83	0x3e8720d0	0.2639222
84	0x3e7af47e	0.24507329
85	0x3cc5a64b	0.024127146
86	0xbe6b219b	-0.22962038
87	0xbeb7c0bc	-0.35889232
88	0x3d2666f3	0.040625524
89	0x3df505d6	0.11964004
90	0xbe656f83	-0.2240582
91	0xbe517abe	-0.20456979
92	0x3e1f4dee	0.15557072
93	0x3d009d3a	0.031399943
94	0x3e815abc	0.25264537
95	0xbe02909e	-0.1275048
96	0xbd6dc1d2	-0.05804617
97	0xbe17953b	-0.1480302
98	0xbe763afc	-0.24045938
99	0xbec789b5	-0.3897225
100	0x3d224236	0.039613925
101	0xbe8d1349	-0.27553776
102	0x3e4e4526	0.20143566
103	0xbe737d9d	-0.23778386
104	0x3d752d87	0.05985787
105	0x3e6c1e6b	0.23058479
106	0x3ea2aa76	0.31770676
107	0xbeb83d32	-0.35984188
108	0xbeb6d3d4	-0.35708487
109	0xbe2d8e07	-0.1694871
110	0xbcae10ef	-0.021248309
111	0x3e6ff028	0.23431456
112	0xbe29b9f2	-0.16574839
113	0x3d852490	0.06501114
114	0xbdd54373	-0.104132555
115	0x3d3eca70	0.04657978
116	0xbe832853	-0.25616702
117	0xbe419acd	-0.18906708
118	0xbec9f870	-0.39447355
119	0x3e96a391	0.29421666
120	0x3c73f61d	0.014890221
121	0x3e9b51d2	0.3033586
122	0xbd9aa7c7	-0.07551532
123	0xbe5e5774	-0.21713048
124	0x3e11a010	0.14221215
125	0xbdd7fb68	-0.10545999
126	0xbe38d988	-0.18051732
127	0x3e9af33e	0.30263704
128	0xbe37cd0c	-0.17949313
129	0xbecd656e	-0.40116447
130	0x3eb1096f	0.3457751
131	0x3e71c4b1	0.23610188
132	0xbe8914ad	-0.26773587
133	0xbd6ac363	-0.05731524
134	0xbe150a8d	-0.14554806
135	0x3ea964de	0.33084768
136	0x3c2d074e	0.010560824
137	0x3e973360	0.29531384
138	0xbe96cc31	-0.2945266
139	0xbe2d7925	-0.16940744
140	0x3d83b983	0.06431868
141	0x3d98a617	0.07453554
142	0xbeb85ef3	-0.3600994
143	0x3e970121	0.2949305
144	0xbe35b4f6	-0.17744812
145	0xbe9b6100	-0.30347443
146	0x3d2e229c	0.042513475
147	0x3eb19b57	0.34688827
148	0x3c5ee8b9	0.01360529
149	0x3de42303	0.111394905
150	0xbe6b7fad	-0.22997923
151	0xbe87f2f8	-0.26552558
152	0x3e6cde4f	0.23131679
153	0x3e72e967	0.23721848
154	0xbe7d7816	-0.2475284
155	0x3ec230b3	0.3792778
156	0x3e45138d	0.1924574
157	0xbeadfa4c	-0.33980024
158	0x3e89e2f5	0.26930967
159	0x3e61e4b8	0.22059906
160	0xbe5da632	-0.2164543
161	0x3de3a18b	0.11114796
162	0xbd11569c	-0.035482988
163	0x3e50f4ba	0.20405856
164	0xbc770280	-0.01507628
165	0x3e6d069c	0.23147053
166	0x3e86ff0e	0.26366466
167	0xbd53f459	-0.0517467
168	0xbe7b3141	-0.24530508
169	0xbeaecaf6	-0.34139222
170	0xbd8516e4	-0.06498507
171	0x3e8de81f	0.27716157
172	0x3e54edef	0.2079389
173	0x3e4c5f1d	0.19958158
174	0x3e33ff1f	0.1757779
175	0xbae59f36	-0.0017518762
176	0xbe23891f	-0.15970276
177	0x3ea35c43	0.31906328
178	0xbd14bcd0	-0.036312878
179	0x3b382faa	0.0028104582
180	0xbd896b1e	-0.06709884
181	0xbe2a3c91	-0.16624667
182	0xbebd3756	-0.3695628
183	0x3df5568c	0.11979398
184	0xbd1a14e8	-0.037617594
185	0xbdeb4a4d	-0.11488781
186	0x3ea7524e	0.3267998
187	0x3d9c6ebc	0.076383084
188	0x3d5a3aa6	0.053278588
189	0x3e91042d	0.28323498
190	0xbdcc1ed1	-0.09966815
191	0x3ca55084	0.020179994
192	0x3e64a8d9	0.22330035
193	0xbe63bf71	-0.22240998
194	0x3e303a4b	0.17209737
195	0xbeab985c	-0.33514678
196	0xbcd6b04e	-0.026207116
197	0x3c93c6df	0.018039165
198	0xbe8fbd46	-0.28074092
199	0xbe45497f	-0.19266318
200	0x3e5623c2	0.20912078
201	0x3d2051da	0.03914056
202	0x3eca9831	0.39569238
203	0x3c822c7e	0.015890356
204	0xbe79eda8	-0.24407065
205	0x3d00a0bc	0.03140329
206	0x3ea1f227	0.3163006
207	0xbe558a65	-0.20853575
208	0x3ebdbc5d	0.37057772
209	0xbe823453	-0.25430545
210	0x3e9962f0	0.29958296
211	0xbe909544	-0.2823888
212	0xbeb3ba82	-0.35103232
213	0x3e1f9f09	0.15588011
214	0xbeb32338	-0.34987807
215	0x3d2eb2f6	0.04265114
216	0x3d62ab03	0.05533887
217	0x3ebad57b	0.36490998
218	0x3b8ad0d2	0.004236319
219	0xbd0b568b	-0.03401808
220	0xbe99cbd2	-0.30038315
221	0xbe789cb7	-0.24278532
222	0x3e79813c	0.24365705
223	0xbdb187ad	-0.08668456
224	0x3d0cfb9c	0.03441964
225	0xbec0a729	-0.37627533
226	0x3eb334ee	0.3500132
227	0xbe251a20	-0.16123247
228	0xbeb8b70a	-0.36077148
229	0x3d4252fb	0.047442418
230	0xbc01adf9	-0.0079150135
231	0x3d8df512	0.06931509
232	0x3e10fe71	0.14159562
233	0x3ea0d106	0.31409472
234	0x3e5a2d03	0.21306233
235	0xbd26a7d7	-0.04068741
236	0x3e9dcb88	0.30819345
237	0xbeb2beaa	-0.3491109
238	0x3d4a5d64	0.04940547
239	0x3e6d18aa	0.2315394
240	0xbe8f24a9	-0.27957657
241	0xbeb50855	-0.3535792
242	0x3dfd1c18	0.12358874
243	0xbd6f99f3	-0.058496427
244	0x3df25b00	0.11833763
245	0x3ea5890b	0.32331118
246	0x3d4f5c80	0.050625324
247	0x3e9204f7	0.28519413
248	0xbe8b8520	-0.27250004
249	0x3ec43d32	0.38327938
250	0x3e1aaa71	0.1510408
251	0xbda2356f	-0.07920348
252	0xbd79c569	-0.06097928
253	0xbeaf2795	-0.34209886
254	0xbd3e993b	-0.04653285
255	0x3cba6725	0.022754261

sequential_57/dense_281/MatMul f4 [10, 10]
0	0xbde18b6b	-0.1101292
1	0xbe2f4d98	-0.17119443
2	0xbef24efe	-0.4732589
3	0x3e168740	0.14700031
4	0x3e718dd8	0.23589265
5	0xbeddd265	-0.4332458
6	0xbdb02647	-0.08601051
7	0xbb9ce3a4	-0.004787879
8	0xbda040d2	-0.078248635
9	0xbea176ff	-0.315361
10	0xbedfd6ef	-0.4371867
11	0x3ebceeff	0.3690109
12	0x3d8ab3dc	0.06772587
13	0xbd31d6dd	-0.0434178
14	0xbefe47b6	-0.49664086
15	0x3e5507f9	0.20803823
16	0xbee84695	-0.4536635
17	0x3e8091ad	0.25111142
18	0x3e0b32fd	0.13593669
19	0xbec15c34	-0.37765658
20	0x3eaee277	0.34157154
21	0x3ef8c465	0.48587337
22	0xbdcb2b77	-0.099204
23	0x3d3a310a	0.045456924
24	0xbe79dc16	-0.24400362
25	0xbec8d593	-0.39225444
26	0x3eb9e689	0.36308697
27	0xbecd5067	-0.40100405
28	0xbd075fca	-0.033050336
29	0x3e2e7d8a	0.17040077
30	0x3dce50a5	0.100739755
31	0x3e50bb29	0.20383896
32	0x3ec95242	0.3932057
33	0x3eb383be	0.3506145
34	0xbee8878d	-0.45415917
35	0x3dd09c45	0.10186056
36	0xbebc49f8	-0.36775184
37	0x3ebdaab0	0.37044287
38	0xbcde1252	-0.027108345
39	0x3eb7ca71	0.35896638
40	0x3de0df06	0.10980038
41	0xbef0a3a0	-0.46999836
42	0x3e92c772	0.2866779
43	0x3e402038	0.1876229
44	0xbd386b88	-0.045024425
45	0xbf04cdd2	-0.51876557
46	0x3ecc372c	0.39885843
47	0x3e7d2ea3	0.24724822
48	0x3d0385fd	0.032110203
49	0xbe99dbbd	-0.3005046
50	0xbeff6bd1	-0.49886945
51	0xbf073b00	-0.528244
52	0xbdc7c1c1	-0.097537525
53	0x3e93a9fa	0.2884062
54	0xbe240bae	-0.1602008
55	0xbe30f9ea	-0.17282835
56	0x3e808d55	0.25107828
57	0xbed5c586	-0.4175226
58	0xbf0b2cb3	-0.5436508
59	0x3c9e6b3d	0.019338245
60	0xbf091fc9	-0.53564125
61	0xbc6fbe0c	-0.014632713
62	0x3ee268db	0.44220623
63	0x3ed37b2f	0.4130492
64	0x3f0c21c6	0.54739034
65	0xbe85c331	-0.26125482
66	0xbe251642	-0.16121772
67	0xbe79a6d5	-0.24380048
68	0x3eccb2f1	0.3998027
69	0xbec20258	-0.37892413
70	0x3e4ab598	0.19795835
71	0x3d860409	0.065437384
72	0x3e249c25	0.1607519
73	0xbe7a6a4e	-0.24454615
74	0x3ee1c649	0.44096592
75	0x3dcec975	0.10097019
76	0x3e42ea97	0.19034801
77	0x3d8b4b8d	0.068015195
78	0x3cc9fde6	0.024657201
79	0x3e0e39cd	0.13889237
80	0xbe067abc	-0.13132757
81	0x3c243c04	0.010024074
82	0x3ed5f742	0.41790205
83	0xbf0a52b4	-0.54032445
84	0x3eb4579c	0.3522309
85	0x3d1f07f9	0.038825963
86	0x3db54f24	0.088529855
87	0x3e45d508	0.19319546
88	0xbe32ff60	-0.1748023
89	0x3dae04fa	0.08497043
90	0xbdcc2207	-0.09967428
91	0x3eeda5d1	0.4641557
92	0xbde61a69	-0.11235506
93	0x3ed5717e	0.4168815
94	0x3e6bc455	0.23024113
95	0x3dc6b0f3	0.09701719
96	0xbdffbe6a	-0.124874905
97	0xbe857745	-0.26067558
98	0xbec76e31	-0.38951257
99	0x3e90ad71	0.28257325

sequential_57/dense_282/MatMul f4 [10, 10]
0	0xbed23bc7	-0.41061231
1	0xbe20f592	-0.15718678
2	0xbe15e903	-0.14639668
3	0xbe71ca0b	-0.2361223
4	0xbe0b44c1	-0.13600446
5	0xbd53fd5c	-0.051755294
6	0x3ea15fb5	0.3151833
7	0xbe653f60	-0.22387457
8	0x3eaf3941	0.3422337
9	0x3ec1296e	0.3772692
10	0xbf0059cb	-0.50137013
11	0xbeaa8c8e	-0.3331036
12	0xbec8634f	-0.39138266
13	0x3e16f611	0.14742304
14	0x3edb1e04	0.42796338
15	0x3e792c39	0.24333276
16	0xbef1eb2e	-0.4724974
17	0x3e7a4ade	0.24442622
18	0xbe194776	-0.14968666
19	0xbee2682d	-0.44220105
20	0x3ec44787	0.3833582
21	0x3d555f6c	0.052092955
22	0x3ec11679	0.37712458
23	0xbea61b2f	-0.32442614
24	0x3ea4efb3	0.32214126
25	0xbe681da0	-0.22667551
26	0xbdad4ad9	-0.08461542
27	0x3e036510	0.12831521
28	0x3ecb2382	0.39675528
29	0xbda0f249	-0.07858712
30	0x3e58895b	0.21146147
31	0x3e977ab2	0.29585797
32	0xbc9af2c7	-0.018914593
33	0xbe69d86c	-0.22836465
34	0xbee30ecf	-0.44347236
35	0x3dd508e3	0.10402086
36	0xbd6918b3	-0.05690832
37	0xbe761559	-0.24031581
38	0x3eac6397	0.3366973
39	0xbe0ce859	-0.13760509
40	0x3ee73e4f	0.45164725
41	0x3ebfc610	0.37455797
42	0x3e321cae	0.17393753
43	0x3efdbd40	0.4955845
44	0xbb2ab9cb	-0.0026050683
45	0xbea00b23	-0.31258497
46	0x3e6cf8b8	0.23141754
47	0x3ebdf734	0.37102664
48	0x3e4c1858	0.19931161
49	0xbbdca1ae	-0.006733141
50	0x3ea22489	0.316685
51	0x3c6b1209	0.014347562
52	0xbdfbea3a	-0.123005345
53	0x3e4a29eb	0.19742553
54	0x3eb13eeb	0.34618315
55	0x3b9fd24f	0.0048773657
56	0xbf00a4ac	-0.5025127
57	0xbdf75b31	-0.1207794
58	0xbe994f63	-0.2994338
59	0x3e0a0289	0.1347753
60	0xbe1eb50d	-0.15498753
61	0x3ee9c1c8	0.45655656
62	0x3ea9ac4f	0.33139274
63	0xbec8aa45	-0.39192405
64	0xbd00f2bc	-0.03148149
65	0xbc031a23	-0.008001837
66	0x3ee6220e	0.44947857
67	0xbea4ebf1	-0.3221126
68	0x3e589c32	0.21153334
69	0x3e40aa5c	0.18814987
70	0x3f001307	0.50029033
71	0x3e7d6d62	0.24748757
72	0x3daa5855	0.08317629
73	0x3ed701f1	0.4199367
74	0x3ef2aea7	0.47398874
75	0x3e14f117	0.14545093
76	0xbee13145	-0.43982902
77	0xbedc3ae3	-0.43013677
78	0x3f04d869	0.51892716
79	0xbeae2605	-0.34013382
80	0xbea63e70	-0.3246951
81	0xbe04155a	-0.1289877
82	0xbeb7cf75	-0.35900465
83	0x3ef8e65b	0.48613247
84	0x3d1158be	0.03548502
85	0x3d3b78b9	0.045769427
86	0xbeb86566	-0.3601486
87	0xbd9f4a3b	-0.0777783
88	0x3e560f1a	0.20904198
89	0xbeb4135d	-0.35171023
90	0x3cd76116	0.026291411
91	0x3ec87a80	0.3915596
92	0x3eae01b4	0.33985674
93	0x3ef5cdb6	0.48008507
94	0xbe06806a	-0.13134924
95	0xbe316d8d	-0.17326947
96	0x3e0cc6fb	0.1374778
97	0xbdf1aa77	-0.11800092
98	0x3ef90409	0.4863589
99	0x3ea04190	0.3130002

sequential_57/dense_283/MatMul f4 [10, 10]
0	0x3e3a7cd2	0.18211678
1	0xbde6e8f8	-0.11274904
2	0x3efc3ae9	0.49263695
3	0xbf06b46f	-0.5261907
4	0x3e91a888	0.28448892
5	0xbeb9967b	-0.3624762
6	0xbef9fdf3	-0.4882656
7	0x3d904c78	0.07045835
8	0x3edb8212	0.42872673
9	0xbd02e35d	-0.03195511
10	0xbe3e6259	-0.18592204
11	0xbed3720b	-0.41297945
12	0xbd21add3	-0.039472412
13	0x3eb71e4e	0.35765308
14	0x3ea5659a	0.32304078
15	0x3e6e0774	0.2324503
16	0x3ef6c21e	0.48194975
17	0x3ee18f07	0.44054434
18	0x3e7a56ae	0.24447128
19	0x3d8226cc	0.06355056
20	0x3ebb4b2d	0.36580792
21	0xbecc6753	-0.3992258
22	0xbebe2557	-0.37137863
23	0x3e856a53	0.2605768
24	0x3ecd1b3b	0.40059838
25	0x3f0a94ca	0.54133284
26	0x3e851647	0.2599356
27	0xbc379abf	-0.011206328
28	0xbe37bf74	-0.17944127
29	0xbebaf06c	-0.36511552
30	0x3e3dcb02	0.18534473
31	0xbc83e957	-0.016102476
32	0x3e2cd23c	0.16877073
33	0xbe3c06f1	-0.18362023
34	0x3f009437	0.5022616
35	0x3e7df95e	0.24802157
36	0xbf05dc45	-0.5228923
37	0x3d2d9298	0.04237613
38	0xbe87a262	-0.26491076
39	0xbe93c087	-0.28857824
40	0x3ecb907f	0.3975868
41	0xbe7ec11c	-0.24878353
42	0xbd838712	-0.06422247
43	0xbe9a4fd9	-0.30139044
44	0xbe02163e	-0.12703797
45	0x3ed9e054	0.4255396
46	0x3de7c85b	0.11317512
47	0xbe8efb81	-0.27926257
48	0x3d7b31c9	0.061326776
49	0xbea8e4aa	-0.32986957
50	0xbe8ada38	-0.27119613
51	0x3f0385c7	0.51376003
52	0x3daa27cd	0.08308373
53	0x3f026df4	0.50949025
54	0xbd2693ca	-0.040668286
55	0xbd4d3be0	-0.05010593
56	0xbf0091c8	-0.50222445
57	0x3d31f4be	0.043446295
58	0xbe367bbf	-0.17820643
59	0x3e5c6dd8	0.21526277
60	0xbec60da8	-0.38682294
61	0x3f056d6f	0.5212011
62	0x3ed86118	0.42261577
63	0xbe447abb	-0.19187443
64	0x3eff2fac	0.49841058
65	0x3e59ecb4	0.21281701
66	0x3efdbacb	0.49556574
67	0x3e4c200a	0.19934097
68	0xbed6fd51	-0.4199014
69	0x3f03d2f2	0.5149375
70	0x3e35292c	0.17691487
71	0x3d115b28	0.035487324
72	0xbedbe4b9	-0.4294794
73	0x3e42635d	0.18983217
74	0xbdca806c	-0.09887776
75	0xbdb18fee	-0.086700305
76	0xbe5a0a5f	-0.21293019
77	0x3c6eb683	0.014569881
78	0xbcf918ca	-0.030407328
79	0xbec24868	-0.37945867
80	0xbe8a9fab	-0.27074942
81	0x3dde50cd	0.10855255
82	0xbe96aa42	-0.2942677
83	0x3ea151a8	0.3150761
84	0x3e5ff369	0.21870197
85	0xbef679f4	-0.48139918
86	0x3cc55921	0.024090352
87	0x3bd882d7	0.006607394
88	0x3d56554b	0.052327435
89	0x3dc1f260	0.094700575
90	0xbeb5d1a5	-0.3551151
91	0xbea8304d	-0.3284935
92	0xbf0601e0	-0.5234661
93	0x3e620293	0.22071294
94	0x3dd0fda1	0.10204626
95	0xbe6b5396	-0.22981104
96	0xbeddf481	-0.43350604
97	0x3eef3906	0.46723193
98	0xbf02a706	-0.5103611
99	0xbd99d039	-0.075104184

sequential_57/dense_284/MatMul f4 [10, 10]
0	0x3d51e4e8	0.051243693
1	0xbf095446	-0.53644216
2	0x3ec37df6	0.38182038
3	0xbef56070	-0.47925138
4	0x3e3c7d00	0.18407059
5	0xbe012cfe	-0.1261482
6	0x3f03d801	0.5150147
7	0x3eb1b183	0.34705743
8	0x3e7c656e	0.24648067
9	0xbea61298	-0.3243606
10	0xbe07bb73	-0.132551
11	0xbec53a26	-0.38520926
12	0x3eac4318	0.33644938
13	0xbef40db3	-0.47666702
14	0xbeb14dfa	-0.34629804
15	0x3efa5c5f	0.488986
16	0x3ee10577	0.43949482
17	0x3eccd696	0.40007466
18	0x3ed57b3a	0.41695577
19	0x3ef31c13	0.47482356
20	0xbd2a3906	-0.041558288
21	0x3ead66ae	0.338674
22	0xbf019641	-0.50619894
23	0x3eef1540	0.466959
24	0x3ec99253	0.3936945
25	0xbee253de	-0.4420461
26	0x3eb84882	0.3599282
27	0xbf0810ed	-0.53150827
28	0x3e24f8c6	0.16110525
29	0x3dfae809	0.122512884
30	0x3ec3353d	0.38126555
31	0xbe7902f3	-0.24317531
32	0xbeb7ef71	-0.35924867
33	0x3cd3c588	0.025851026
34	0x3d9601c5	0.07324556
35	0x3e01649a	0.12636033
36	0x3f0001ec	0.5000293
37	0x3eea92bd	0.45815077
38	0xbe9834ff	-0.29727933
39	0x3c7ae287	0.015312797
40	0xbe8852a7	-0.2662556
41	0x3e77f1a0	0.24213266
42	0xbecc8d2f	-0.39951465
43	0xbe199466	-0.14998016
44	0xbe602fca	-0.2189323
45	0x3efed3fb	0.49771103
46	0x3d6d2a33	0.057901572
47	0x3e36307f	0.17791937
48	0xbe6f2606	-0.23354349
49	0xbeb9602d	-0.3620619
50	0xbef4edbd	-0.4783763
51	0xbf009bac	-0.50237536
52	0x3e67eaae	0.22648117
53	0xbe0e2641	-0.1388178
54	0xbe2c8bb0	-0.16850162
55	0xbe8d0382	-0.2754174
56	0xbe23afef	-0.15985082
57	0x3ea3b479	0.31973627
58	0x3e4cb8e8	0.19992411
59	0xbd541c0d	-0.051784564
60	0x3ec7526e	0.38930076
61	0x3c3c0a6e	0.011477096
62	0xbe413dad	-0.18871184
63	0x3e85b4be	0.26114458
64	0x3ee062a8	0.4382527
65	0x3e83fc50	0.25778437
66	0xbedc000a	-0.4296878
67	0xbf0a6ea0	-0.5407505
68	0x3ea18f5a	0.3155468
69	0x3e9fa5d6	0.3118121
70	0xbf0972b1	-0.5369063
71	0x3ea05003	0.31311044
72	0xbeb68c04	-0.35653698
73	0x3ea7739a	0.32705384
74	0xbeb6aa2d	-0.3567671
75	0xbe154f85	-0.14581116
76	0x3ef28b9a	0.47372133
77	0xbe6dd164	-0.23224407
78	0x3ec7b727	0.39006922
79	0xbe165a6a	-0.14682928
80	0xbefaa710	-0.48955584
81	0x3ef4b43d	0.4779376
82	0x3ee185ea	0.4404748
83	0x3f085366	0.53252256
84	0xbeb848c9	-0.3599303
85	0xbef8d89e	-0.48602766
86	0x3eba758e	0.36417812
87	0x3ed43d66	0.41453093
88	0xbe797bb9	-0.24363603
89	0x3ec78f30	0.3897643
90	0xbeaf737a	-0.3426779
91	0x3d8cadbd	0.068690754
92	0x3ede7d58	0.43455005
93	0x3d794bea	0.060863413
94	0xbe115f47	-0.14196502
95	0x3c6e6f24	0.014552865
96	0x3ec3f90e	0.3827595
97	0x3ec7aed3	0.39000568
98	0xbee1da7f	-0.44112012
99	0x3ecdeac5	0.40218177

sequential_57/dense_285/MatMul f4 [10, 10]
0	0x3e8dfc2c	0.27731454
1	0x3f0b521a	0.5442215
2	0x3e3934fc	0.18086618
3	0x3e9874d8	0.29776645
4	0xbe992bec	-0.29916322
5	0xbdaf9e6a	-0.08575137
6	0x3e972c87	0.2952616
7	0xbe95ce8a	-0.2925914
8	0xbe9ae37a	-0.30251676
9	0x3dfd33c9	0.12363393
10	0xbd969121	-0.073519
11	0x3f03bf3e	0.5146369
12	0x3eb14f0f	0.3463063
13	0x3e92a4a4	0.28641236
14	0xbd691ad1	-0.05691034
15	0x3d98db6b	0.07463726
16	0x3f0b8ea6	0.5451454
17	0x3d655a23	0.055994164
18	0xbeb096ae	-0.3448996
19	0x3ece8dba	0.40342504
20	0x3eb0eb80	0.34554672
21	0x3e8a8488	0.27054238
22	0xbedf98ce	-0.43671268
23	0xbe204a9b	-0.1565346
24	0x3ebd2b7a	0.36947232
25	0xbe29f4ad	-0.16597243
26	0x3e0c8176	0.1372126
27	0x3de56f29	0.11202843
28	0x3e8687be	0.26275438
29	0xbc9209d4	-0.017826952
30	0x3ea47954	0.32123816
31	0x3e722dde	0.2365031
32	0xbdb2d8a8	-0.0873273
33	0x3f00c2b3	0.5029709
34	0x3edbf7ab	0.42962393
35	0x3ba24a23	0.0049526854
36	0xbead497d	-0.3384513
37	0xbdcaae9d	-0.09896586
38	0x3efb52fe	0.49086756
39	0xbe81fae4	-0.25386727
40	0x3e3be302	0.18348315
41	0xbee22447	-0.44168302
42	0x3ea150af	0.3150687
43	0xbe41c0b9	-0.18921174
44	0x3e0444ec	0.12916917
45	0x3e85df6d	0.26147023
46	0xbd19c941	-0.037545446
47	0xbe9103ec	-0.28323305
48	0xbea81c37	-0.32834026
49	0xbeccd518	-0.40006328
50	0x3d2df71a	0.042471983
51	0x3eb7db3a	0.35909444
52	0xbd1ef001	-0.038803104
53	0xbe1203e3	-0.14259295
54	0xbd711ba4	-0.05886425
55	0xbefc6764	-0.4929763
56	0xbe81b393	-0.25332317
57	0xbf0399af	-0.5140638
58	0xbdb7db90	-0.08977425
59	0xbc1401a9	-0.009033599
60	0xbe417539	-0.18892373
61	0xbd19d510	-0.037556708
62	0x3e8a4dd4	0.27012503
63	0xbb997307	-0.004682902
64	0xbe254931	-0.16141202
65	0xbed91805	-0.42401138
66	0x3ec14435	0.3774735
67	0x3ec66513	0.38748989
68	0xbeb2c778	-0.34917808
69	0xbea6c8fe	-0.3257522
70	0x3ed4d0b1	0.4156547
71	0xbe268e0a	-0.16265121
72	0x3e0d004d	0.13769646
73	0x3eabe437	0.33572552
74	0x3e92c4c3	0.28665742
75	0xbdc51246	-0.09622626
76	0x3f023e95	0.5087674
77	0x3dda481e	0.106582865
78	0xbe83294d	-0.25617447
79	0x3dbf9b24	0.093557626
80	0x3f06174b	0.5237929
81	0x3e374ffd	0.17901607
82	0x3e375201	0.17902376
83	0xbd9dee64	-0.07711485
84	0x3dc80915	0.09767357
85	0x3ec1a160	0.37818432
86	0x3e089e70	0.13341689
87	0x3efdfc82	0.4960671
88	0xbeeeab1c	-0.4661492
89	0x3e67c54c	0.22633857
90	0xbe36b26e	-0.17841503
91	0xbe6a9224	-0.2290731
92	0x3ee196fa	0.44060498
93	0xbbb04e29	-0.005380411
94	0xbe078cc4	-0.13237292
95	0x3de303aa	0.11084683
96	0x3ebf6438	0.37381148
97	0xbeb7725f	-0.35829446
98	0x3e677fc1	0.22607328
99	0xbea429d9	-0.32063177

sequential_57/dense_286/MatMul f4 [10, 10]
0	0xbd68f986	-0.05687859
1	0x3e8ccbe1	0.27499297
2	0xbf072275	-0.5278695
3	0xbe5da90a	-0.21646515
4	0xbea1b3c2	-0.31582457
5	0xbdac9dc3	-0.08428528
6	0x3e1face2	0.15593293
7	0x3e6f7409	0.23384108
8	0x3e462265	0.19349058
9	0x3da1ca55	0.0789992
10	0x3e5d806d	0.21631022
11	0xbf04cc8c	-0.51874614
12	0x3eac3b35	0.3363892
13	0xbebd71ce	-0.3700089
14	0xbefa5e3a	-0.48900014
15	0xbda35116	-0.0797445
16	0xbd009ae7	-0.031397726
17	0xbeb0e3c9	-0.34548786
18	0xbe727854	-0.23678714
19	0xbd16fabf	-0.036860224
20	0x3eb1a7ea	0.3469842
21	0x3e8e4a4b	0.27791056
22	0x3e8a0b12	0.2696157
23	0x3e19bf76	0.15014443
24	0x3deb3c1a	0.11486073
25	0xbe20efc1	-0.15716459
26	0x3ed11249	0.40834263
27	0x3eff0248	0.49806428
28	0xbe2b6489	-0.1673757
29	0xbe9b51c5	-0.30335823
30	0x3ef1703f	0.4715595
31	0x3efd23da	0.49441415
32	0xbf0552de	-0.5207957
33	0x3ef9d996	0.48798817
34	0xbe8062b7	-0.25075313
35	0x3ecb83c9	0.39748982
36	0xbe082f1b	-0.1329922
37	0x3ec7e3c8	0.3904097
38	0xbf06c297	-0.5264067
39	0x3edac3f9	0.4272764
40	0xbea9133e	-0.33022493
41	0x3eadef92	0.3397184
42	0xbe7317f2	-0.23739603
43	0x3f00cd18	0.5031295
44	0x3e65472a	0.22390428
45	0xbe85d6b5	-0.2614037
46	0xbeec19e4	-0.46113503
47	0x3e4e9973	0.20175724
48	0x3e7d6642	0.2474604
49	0x3f02dd1d	0.5111864
50	0x3e09a60f	0.13442253
51	0xbee7dc32	-0.45285183
52	0xbef6e163	-0.4821883
53	0xbeeac4e8	-0.45853353
54	0xbeec1289	-0.4610789
55	0xbef6ba4d	-0.4818901
56	0xbef520c5	-0.47876564
57	0x3e765f30	0.24059749
58	0xbe8c392c	-0.2738737
59	0xbe258926	-0.16165599
60	0x3e025bb0	0.12730289
61	0xbed27d04	-0.41111004
62	0x3ea828f4	0.32843745
63	0xbe884615	-0.26615968
64	0x3e0e04b3	0.1386898
65	0x3e1e54d1	0.15462042
66	0xbede26a9	-0.4338887
67	0xb9ba6258	-0.00035549956
68	0x3f0177b5	0.50573283
69	0xbe4bedd0	-0.19914937
70	0x3eafff73	0.3437458
71	0xbdec7e48	-0.11547524
72	0x3dee5132	0.116365805
73	0x3ee9c4d9	0.45657995
74	0xbedc9c43	-0.43087968
75	0xbe921181	-0.2852898
76	0x3e7d77b1	0.2475269
77	0xbec4dbda	-0.38448983
78	0x3edf3877	0.43597767
79	0xbeaaeaad	-0.33382168
80	0x3d88faf0	0.066884875
81	0xbe933173	-0.28748664
82	0x3f0b18a7	0.5433449
83	0xbee5496d	-0.44782582
84	0xbe8d1ece	-0.27562565
85	0x3ed230d7	0.41052887
86	0xbeee2c09	-0.4651797
87	0x3e664720	0.2248807
88	0xbe49db3f	-0.19712542
89	0x3d587807	0.052848842
90	0xbc4ba3b6	-0.012429168
91	0xbef4ed2d	-0.478372
92	0xbe97bafe	-0.2963485
93	0x3ed3b8e4	0.41351998
94	0x3e75af22	0.23992589
95	0xbdee1647	-0.11625343
96	0xbe85d78e	-0.26141018
97	0x3e787d1c	0.24266475
98	0xbf0521ba	-0.5200459
99	0xbe0714b9	-0.13191499

sequential_57/dense_287/MatMul f4 [10, 10]
0	0xbe9e18b9	-0.30878237
1	0x3ef72bb6	0.48275536
2	0x3efc107f	0.49231336
3	0x3d77fff6	0.060546838
4	0x3e2f2bda	0.17106572
5	0x3eaa7fd7	0.3330066
6	0x3f0261dd	0.5093058
7	0x3e3d0e7a	0.18462554
8	0x3e18d8d4	0.14926463
9	0xbda92a7c	-0.082600564
10	0xbd4a9777	-0.049460854
11	0xbf082a9e	-0.5319003
12	0x3e8a5afe	0.27022547
13	0x3e90621f	0.2819986
14	0xbd965a0c	-0.07341394
15	0x3e656bdf	0.22404431
16	0x3d95cc91	0.073144086
17	0x3d899e91	0.06719697
18	0x3e84ea6c	0.259601
19	0xbde48f22	-0.11160113
20	0xbe9ae462	-0.30252367
21	0x3d87629b	0.066106044
22	0xbc94a50e	-0.01814511
23	0xbe0363d1	-0.12831046
24	0xbd393c00	-0.045223236
25	0x3ecfa73c	0.40557277
26	0x3ec7316f	0.38904902
27	0x3e3441a3	0.17603163
28	0xbee9d6fb	-0.4567183
29	0xbece5c1b	-0.40304646
30	0x3dd86e47	0.10567909
31	0x3d1fde9d	0.03903066
32	0x3dc13f92	0.09435953
33	0x3dfe108d	0.124055006
34	0xbec413d6	-0.38296384
35	0xbee0c42c	-0.43899667
36	0xbed3a2b3	-0.41335067
37	0x3e143077	0.14471613
38	0x3d636c5d	0.055523265
39	0x3eb39407	0.35073873
40	0xbed5aca6	-0.41733283
41	0x3ea1c5ef	0.31596324
42	0x3d06d513	0.032918047
43	0x3f09cc2f	0.53827184
44	0x3dcfdd4e	0.101496324
45	0xbeb28279	-0.34865168
46	0x3e8870fb	0.26648697
47	0xbd0701ca	-0.03296069
48	0xbe756e14	-0.23967773
49	0xbdf9ce75	-0.12197582
50	0xbe626a87	-0.2211095
51	0xbebfb658	-0.37443805
52	0xbef66427	-0.48123285
53	0xbd56cf8e	-0.052444033
54	0x3ee3d4f0	0.44498396
55	0xbeef9e50	-0.4680047
56	0xbe7b8352	-0.24561813
57	0x3b841b00	0.004031539
58	0xbf03473b	-0.51280564
59	0xbdb9e64f	-0.09077131
60	0x3dfe41f6	0.12414925
61	0x3e4cb976	0.19992623
62	0x3eb0263d	0.34404173
63	0xbedc7d1e	-0.43064207
64	0x3d089aac	0.03335063
65	0xbedf872f	-0.43657824
66	0xbe985809	-0.29754665
67	0xbb77d284	-0.0037814686
68	0xbe950080	-0.29101944
69	0x3ecb79fc	0.39741504
70	0x3ee26a8c	0.44221914
71	0xbd6e1f01	-0.058135036
72	0x3e676042	0.22595313
73	0x3e46deda	0.19420949
74	0x3e84061d	0.25785914
75	0x3eb7e76a	0.35918742
76	0xbead2d2f	-0.33823535
77	0x3ed703f6	0.4199521
78	0xbe941288	-0.28920388
79	0x3eb84784	0.35992062
80	0x3d56a602	0.05240441
81	0xbeddd901	-0.43329623
82	0xbe561eb9	-0.20910157
83	0xbeed3eef	-0.46337077
84	0xbe7ac21f	-0.24488114
85	0xbe6b53a1	-0.2298112
86	0x3e882209	0.26588467
87	0x3e704ca3	0.23466735
88	0xbeb2adb3	-0.34898147
89	0x3ed9ae87	0.42515966
90	0xbedb3a41	-0.42817882
91	0xbeb6be24	-0.3569194
92	0x3f022db9	0.5085102
93	0xbdae444f	-0.085091226
94	0xbeaf1cab	-0.3420156
95	0xbecfc417	-0.40579292
96	0xbeca4447	-0.39505216
97	0x3ef31f8d	0.4748501
98	0xbf0157a6	-0.50524366
99	0xbefbf235	-0.49208227

sequential_57/dense_288/MatMul f4 [10, 10]
0	0xbee011f2	-0.4376369
1	0xbdb8ee79	-0.0902986
2	0x3ecedadf	0.4040136
3	0xbeccdcc7	-0.4001219
4	0x3d9fe779	0.07807822
5	0x3f08f2fd	0.5349577
6	0xbe446657	-0.19179665
7	0xbf00fab5	-0.5038255
8	0xbd0fb0d7	-0.035080757
9	0xbe0b818d	-0.13623638
10	0xbed2a823	-0.41143903
11	0x3e7564c3	0.23964219
12	0x3e86dedd	0.26341906
13	0x3e83edd3	0.25767383
14	0x3ed43835	0.41449133
15	0xbeefcbda	-0.46835214
16	0xbdfd7c3e	-0.12377213
17	0x3e23a83b	0.15982144
18	0x3ed5089b	0.41608128
19	0x3f09b1fe	0.5378722
20	0xbee8aa6b	-0.4544252
21	0x3ec7cb56	0.3902232
22	0x3d5c7b84	0.05382873
23	0x3e7e863a	0.24855891
24	0x3e674777	0.22585855
25	0x3ea152ba	0.31508428
26	0x3f048fac	0.51781726
27	0x3edda921	0.43293098
28	0xbf064d19	-0.5246139
29	0x3e5d04d1	0.21583869
30	0x3da53cc1	0.080682285
31	0xbcfb6678	-0.03068851
32	0x3eb590e4	0.35462105
33	0xbdeb4e34	-0.114895254
34	0x3ef739be	0.4828624
35	0x3ed1422a	0.40870792
36	0x3ef00589	0.46879223
37	0xbee0eab5	-0.43929067
38	0x3d74143f	0.05958962
39	0xbe34803c	-0.17627043
40	0xbc418354	-0.011811096
41	0xbe4ba43d	-0.1988687
42	0xbc2a8333	-0.010407257
43	0x3ed22dff	0.41050717
44	0xbef7d379	-0.48403528
45	0x3e9f4d7d	0.31113806
46	0xbea1f96b	-0.31635603
47	0xbed7cff1	-0.42150834
48	0xbe0987da	-0.1343073
49	0x3cc5a0ce	0.02412453
50	0x3f010641	0.5040017
51	0x3db02ca8	0.086022675
52	0x3ef7b963	0.48383626
53	0x3a020244	0.0004959444
54	0x3deaac61	0.1145866
55	0x3ef2b202	0.47401434
56	0xbe8cfd66	-0.27537078
57	0x3efa3308	0.4886706
58	0x3ee0e4de	0.43924612
59	0xbf05a7ad	-0.5220898
60	0x3f00cb2a	0.50310004
61	0x3e815b56	0.25264996
62	0x3e8d2bd8	0.27572513
63	0x3de45c36	0.111504
64	0x3e004d59	0.12529506
65	0xbf065f65	-0.5248931
66	0xbe99a6a5	-0.30009952
67	0x3f043582	0.51644146
68	0xbef8c288	-0.48585916
69	0x3ecb8ef3	0.397575
70	0xbeb859c9	-0.36006
71	0xbe39e7ff	-0.18154906
72	0xbc4eb58a	-0.0126165245
73	0x3ef06310	0.4695058
74	0x3e8c24e6	0.273719
75	0x3f0b7f50	0.5449114
76	0x3eb13ac9	0.34615162
77	0xbe4a74c2	-0.19771102
78	0xbf05869d	-0.5215853
79	0xbe95bda9	-0.29246262
80	0xbe889051	-0.26672605
81	0x3ec69a3e	0.38789552
82	0xbd8af5d4	-0.06785169
83	0xbebde763	-0.37090597
84	0xbd3abf66	-0.045592688
85	0x3e75b548	0.23994935
86	0x3cfaa684	0.030596979
87	0x3e318982	0.17337611
88	0xbeec7368	-0.46181798
89	0x3ec069e6	0.37580794
90	0xbe8d10ba	-0.27551824
91	0xbe83cc7e	-0.25741953
92	0xbcb8481a	-0.022495318
93	0xbefe4dba	-0.49668676
94	0x3f04dea8	0.51902246
95	0x3eacb020	0.33728123
96	0x3f027f6e	0.5097569
97	0x3e80c8af	0.2515311
98	0x3e8c5b4c	0.27413404
99	0xbeae2c0a	-0.34017974

sequential_57/dense_289/MatMul f4 [10, 10]
0	0xbeca3da2	-0.39500147
1	0xbed3db4b	-0.41378245
2	0xbee5fa8f	-0.44917724
3	0x3eff3b3a	0.49849874
4	0x3ee431bf	0.44569203
5	0x3e9ee2a2	0.31032282
6	0x3eff96a2	0.4991961
7	0x3e3bba9e	0.18332908
8	0xbea451be	-0.32093614
9	0x3ead478f	0.33843657
10	0x3ea7cee5	0.32775036
11	0xbe59b70c	-0.21261233
12	0x3e0b9b5b	0.13633482
13	0xbf0160b6	-0.50538194
14	0xbe94c4a4	-0.29056275
15	0x3e64651a	0.22304192
16	0xbebfa01b	-0.37426838
17	0xbec2abac	-0.380216
18	0xbce01a9a	-0.027356435
19	0xbdd0af27	-0.10189658
20	0xbeeb1aed	-0.4591898
21	0x3e2c72bc	0.16840643
22	0xbe8685af	-0.26273867
23	0x3f0b4d5d	0.5441492
24	0x3f064bab	0.5245921
25	0xbecc415f	-0.39893624
26	0xbedfeec1	-0.43736842
27	0xbe856102	-0.26050574
28	0x3ed52598	0.41630244
29	0x3d9125da	0.07087298
30	0xbe088b14	-0.13334304
31	0xbeeff7cb	-0.4686874
32	0x3d9f6aea	0.07784064
33	0x3e9152b7	0.2838342
34	0x3eddde47	0.43333647
35	0xbe2ba98f	-0.167639
36	0xbeb6ae03	-0.35679635
37	0xbdf892ae	-0.12137352
38	0xbea7e286	-0.3279001
39	0xbe773c54	-0.24144107
40	0xbd82c4df	-0.063852064
41	0x3ef9fa18	0.4882362
42	0xbe21a0eb	-0.15784042
43	0xbed6f1f5	-0.41981474
44	0xbda347ad	-0.079726554
45	0xbe840788	-0.25786996
46	0x3eb31fde	0.3498525
47	0xbe82dddd	-0.25559893
48	0x3f03db75	0.5150674
49	0x3eca4861	0.39508346
50	0xbe94d857	-0.29071304
51	0xbdef597b	-0.11686989
52	0xbedf23c7	-0.43581983
53	0x3da3e1ef	0.08002078
54	0xbe5b17e7	-0.21395837
55	0x3ee9126f	0.45521876
56	0x3ef18cce	0.47177738
57	0xbeafe1ae	-0.34351867
58	0x3ecd946b	0.40152296
59	0x3df037d4	0.11729398
60	0x3ed036f9	0.4066694
61	0x3ed27272	0.4110294
62	0xbec7adf1	-0.38999894
63	0x3d980c2f	0.07424199
64	0x3e321aef	0.17393087
65	0x3d6a2afc	0.0571699
66	0xbe678556	-0.22609457
67	0xbde8cef8	-0.11367601
68	0x3e8fb185	0.28065124
69	0x3eb75892	0.3580976
70	0xbecd7f77	-0.4013631
71	0xbecc63fc	-0.39920032
72	0x3ef3562a	0.47526675
73	0x3dbf22bd	0.09332798
74	0xbe1bbb59	-0.15208186
75	0x3ee15e94	0.4401747
76	0x3eac94c9	0.33707264
77	0x3dd849b6	0.10560934
78	0x3e8d533a	0.2760256
79	0xbe9cd163	-0.306285
80	0x3ecfd792	0.40594155
81	0xbe4c575c	-0.199552
82	0x3f0ab092	0.54175675
83	0x3ece7be5	0.403289
84	0xbe87850d	-0.26468697
85	0x3e9739e9	0.2953637
86	0x3ee045c7	0.43803236
87	0x3eef9cbf	0.46799275
88	0xbf088d25	-0.5334037
89	0xbe57850f	-0.21046852
90	0xbdf6dea0	-0.12054181
91	0xbe10dda4	-0.14147049
92	0x3e82ce8f	0.25548217
93	0xbd7bfd51	-0.06152088
94	0x3ed14680	0.408741
95	0x3e08544a	0.13313404
96	0xbeaa244d	-0.3323082
97	0xbcc1575c	-0.023601227
98	0xbe04be7e	-0.12963292
99	0xbef15fac	-0.47143304

sequential_57/dense_290/MatMul f4 [2, 10]
0	0x3e34a508	0.1764108
1	0xbeedcdd6	-0.46446103
2	0xbf040722	-0.51573384
3	0x3f219716	0.63121164
4	0xbe6fcaa0	-0.23417139
5	0xbefdd9e8	-0.49580312
6	0x3cc4edb8	0.024039134
7	0x3ecb2e10	0.3968358
8	0x3eafb309	0.3431628
9	0xbf15706c	-0.5837467
10	0x3dac4ade	0.08412717
11	0x3e43e8ef	0.19131826
12	0x3dcdecd5	0.10054938
13	0xbf039f19	-0.5141464
14	0x3df56e24	0.11983898
15	0x3f214ae9	0.6300493
16	0xbe4a62f0	-0.19764304
17	0xbf1bbbc9	-0.6083341
18	0x3eee8303	0.4658433
19	0xbd51dc8e	-0.051235728
