TFLite_trained_models/FC 10 x 10_Wine.tflite (tflite, 8804 bytes, 22 tensors)

sequential_56/dense_269/BiasAdd/ReadVariableOp f4 [10]
000000 bd 45 ad bc ba 1c 33 3b c4 73 27 bb 0e e2 2b bb
       -0.021151418 0.0027330355 -0.002555118 -0.0026227268
000010 9b 31 a1 bb 58 42 47 3a d3 a3 6f 3c fd 47 2a bc
       -0.0049192435 0.00076011335 0.014626461 -0.01039314
000020 4b c3 bb bb a6 78 08 3b
       -0.005730068 0.0020823865

sequential_56/dense_270/BiasAdd/ReadVariableOp f4 [10]
000000 f3 ca 85 3c 08 61 48 bc 95 5e 3c 3a 9d 53 b4 bb
       0.016332125 -0.012230165 0.00071857247 -0.0055031315
000010 6e cb 32 bb 27 c0 22 3c d8 9b 0d 37 6b 80 ba 3b
       -0.0027281898 0.009933508 8.44054e-06 0.005691578
000020 97 56 26 3c 20 41 d8 3b
       0.010152481 0.0065995604

sequential_56/dense_271/BiasAdd/ReadVariableOp f4 [10]
000000 fb 4c 16 3b 0f 88 ec ba d5 56 6c 3b e8 f4 be bb
       0.0022934068 -0.001804592 0.0036062498 -0.005827535
000010 a6 df 9e 3a 10 f3 ca bb ff 9e 9a 3b 24 d3 13 bb
       0.0012121096 -0.006193526 0.004718661 -0.002255627
000020 fe b3 61 3c 6c 14 de b9
       0.013775824 -0.00042358355

sequential_56/dense_272/BiasAdd/ReadVariableOp f4 [10]
000000 c6 cb 16 bb 71 2a 04 bc b5 68 96 bb bb 75 56 3b
       -0.0023009642 -0.008066759 -0.004590119 0.0032723981
000010 2f 31 11 3b 95 bd 5a ba 5c 06 42 bc 83 6e 8a bb
       0.002215456 -0.000834429 -0.0118423365 -0.0042246
000020 d9 30 ba 3b cf 69 37 3c
       0.0056820926 0.01119466

sequential_56/dense_273/BiasAdd/ReadVariableOp f4 [10]
000000 37 56 94 3b db 02 d2 bb 29 6a a2 ba 1e ae b3 bb
       0.004526879 -0.006409032 -0.0012391257 -0.005483403
000010 cd 3d 0f bc bb 37 22 bb 2b 8c 6f bb 1f 4a ff 3b
       -0.008742762 -0.0024752456 -0.0036552052 0.0077908183
000020 46 a1 23 bb 32 96 4a 3a
       -0.0024967953 0.00077280693

sequential_56/dense_274/BiasAdd/ReadVariableOp f4 [10]
000000 0a 65 cd ba 06 d4 33 3a 65 4e 67 3b 89 f3 5c bb
       -0.0015670371 0.0006859902 0.003529453 -0.0033714494
000010 2b db b8 bb 58 25 d0 3b b4 1e aa 3a be f3 30 bb
       -0.0056413612 0.006352108 0.0012979121 -0.002700075
000020 27 6c 61 ba d1 fe 49 3b
       -0.0008599185 0.0030822048

sequential_56/dense_275/BiasAdd/ReadVariableOp f4 [10]
000000 92 a8 18 3c 4c 89 02 b9 b2 62 c5 b9 eb 4b f9 3a
       0.009317534 -0.00012448913 -0.00037648302 0.0019019818
000010 98 7d 42 ba d4 36 a6 bb 27 71 6e 3a 79 66 dd 3b
       -0.00074192276 -0.005072454 0.00090958405 0.0067566005
000020 3c 44 a3 3a e5 61 58 bb
       0.0012456249 -0.0033017334

sequential_56/dense_276/BiasAdd/ReadVariableOp f4 [10]
000000 8a 86 19 ba 50 b0 5e 3b dc 4b 01 3a 9a b7 0f 3b
       -0.00058565347 0.0033979602 0.00049322634 0.0021929503
000010 56 65 97 ba df d9 b3 3a 8a af 6b ba 54 5e cd b9
       -0.0011550586 0.0013721547 -0.0008990696 -0.00039170927
000020 0c 78 6a 3b cf 74 48 ba
       0.003577712 -0.00076468004

sequential_56/dense_277/BiasAdd/ReadVariableOp f4 [10]
000000 52 a9 ff 3a 27 a3 4d bb c5 8f 18 bb e8 b9 84 bb
       0.0019505417 -0.0031377764 -0.0023279053 -0.004050482
000010 2a 53 73 3b 5f 50 41 3b 6a e5 81 bb 3c 7c 18 3b
       0.0037128427 0.0029497368 -0.003964116 0.0023267409
000020 d4 c5 f4 b8 0b cf 51 3b
       -0.00011671675 0.0032014276

sequential_56/dense_278/BiasAdd/ReadVariableOp f4 [10]
000000 ff 12 89 ba e0 d1 a5 3a 22 35 d2 3a 10 44 19 3b
       -0.0010457932 0.0012651049 0.0016037563 0.0023386516
000010 45 5f 96 b9 08 9b b5 3b 30 70 44 37 f8 8b 0c bb
       -0.0002868121 0.005542163 1.1708631e-05 -0.0021445733
000020 6d ae 92 3b 6a b9 92 3b
       0.0044763596 0.0044776695

sequential_56/dense_279/BiasAdd/ReadVariableOp f4 [3]
000000 a8 63 28 b8 42 c6 e4 3a 50 6a 96 3b
       -4.0147133e-05 0.0017454105 0.00459031

sequential_56/dense_269/MatMul f4 [10, 13]
000000 bb a6 85 be f9 4c 86 be 00 90 ed 3d 5d 41 9c be
       -0.26103768 -0.262306 0.115997314 -0.30518618
000010 8c 70 06 bf 7f 50 17 be 8e 3f bd 3e d1 0e 56 3e
       -0.5251548 -0.147768 0.3696255 0.2090409
000020 7c 99 97 3d 5f 42 7a 3e 04 63 cf be 78 ce 31 3c
       0.07402322 0.24439381 -0.4050523 0.010852449
000030 e1 ab 1b be 5c b5 c6 be d5 c9 f6 be bf dc c7 3d
       -0.15202285 -0.3881024 -0.4820086 0.09758901
000040 4c 43 9f bd de 2f ae bd 9f 13 13 be 05 65 c3 3e
       -0.07776508 -0.08505224 -0.14362954 0.3816301
000050 15 89 98 be 43 8f 01 bf 63 96 de 3e a8 e0 00 be
       -0.29792085 -0.50609225 0.4347411 -0.125857
000060 7a ba f7 be 30 59 7a bd 99 a5 a0 be b1 22 76 be
       -0.48384458 -0.061120212 -0.3137634 -0.24036671
000070 5d 07 88 3e f0 c1 fc bd 4e 52 bd 3d 33 8d a5 be
       0.26568118 -0.12341678 0.09244214 -0.3233429
000080 dd 25 e7 bd 76 ce 11 be f5 a7 4a bd a7 ad 32 be
       -0.11286519 -0.14238915 -0.049476583 -0.17449056
000090 93 26 c8 3d ca a5 ee 3e 0d 6e fc 3e 90 c9 a3 bd
       0.097729824 0.46610862 0.49302712 -0.07997429
0000a0 e4 cf c0 be 70 cb ea be 36 29 1e 3e 0e a3 ed 3d
       -0.37658608 -0.45858335 0.15445408 0.11603366
0000b0 69 fd b7 be e6 aa ad be 78 24 e7 3e ad 39 0f 3e
       -0.35935524 -0.33919448 0.4514501 0.13986845
0000c0 c3 bc ef 3e 73 f3 2f 3e 08 62 4f 3e 60 dd e6 bd
       0.468237 0.17182712 0.2025224 -0.11272693
0000d0 2d f8 84 be 90 67 bf 3d d3 c0 97 bd c4 df 58 be
       -0.25970593 0.09345925 -0.07409825 -0.2117911
0000e0 d3 1c 9c 3c d1 59 ff be 3e 40 96 bd 6f 7f f9 be
       0.019056713 -0.49873212 -0.07336472 -0.48730037
0000f0 7c 9e d8 be 05 2c c3 3e d8 97 f0 3c e6 6c fc 3e
       -0.42308414 0.38119522 0.02936928 0.49301833
000100 87 f5 83 bd 28 6b bf be e9 53 a8 be 18 c8 82 3e
       -0.06443315 -0.3738644 -0.32876518 0.25543284
000110 f3 0d a3 bd af f7 d4 be 59 3e d5 be b5 25 90 3e
       -0.07961645 -0.41595218 -0.4164913 0.28153768
000120 c9 21 a7 3e a0 90 09 be a4 b3 f3 3d 7d 72 ad be
       0.32642964 -0.13434076 0.11899498 -0.3387641
000130 22 1a c8 3e f1 b6 01 3f 10 bd 72 be b7 30 c6 bc
       0.39082438 0.5066977 -0.23704934 -0.02419315
000140 20 c1 ca be ab eb 71 be 7a 7c eb be 47 2c e4 be
       -0.39600468 -0.23625056 -0.45993406 -0.4456503
000150 ea 81 8c 3e 19 54 cf 3d 77 e3 2a 3e e8 53 fd 3e
       0.27442867 0.10123462 0.16688333 0.49478078
000160 1e f8 d5 be 10 3c 21 3e 79 11 95 be de 2e cf be
       -0.4179086 0.15745568 -0.29114893 -0.40465444
000170 15 08 37 be ec f2 88 3e 6a ca 2a bd ba 2f 94 3e
       -0.17874177 0.26747835 -0.041696943 0.28942662
000180 d5 26 dc bc cd 3c 96 3e 3b 6b 5c be f3 f4 73 be
       -0.026873985 0.29343262 -0.2152528 -0.2382391
000190 d9 73 b2 3e cf b1 47 3e 28 12 d5 3e 94 6b 81 3e
       0.3485401 0.19501422 0.41615415 0.25277388
0001a0 8a 27 56 be a1 47 fe be c0 22 ac 3e 9c fe 9f 3e
       -0.2091352 -0.49664024 0.33620262 0.3124894
0001b0 dd d6 e8 3d a7 f8 02 be b1 8a 66 3e 0a 5d e1 be
       0.11369107 -0.12790166 0.22513844 -0.44016296
0001c0 41 86 82 bc 3d ce 23 be dd 0a 87 bd 7c 1d 48 3d
       -0.015933158 -0.15996642 -0.06593869 0.048856243
0001d0 58 6f 64 3e 74 08 e8 3e 93 56 a9 be 25 00 30 3e
       0.223081 0.4531895 -0.33073863 0.17187555
0001e0 77 92 90 bd 82 fe 2f be bb bd a4 3d 8b 84 e6 be
       -0.07059186 -0.17186931 0.08044001 -0.45022997
0001f0 76 80 48 3d 23 e2 c1 3c 5f 6a ef 3e a6 3f 08 be
       0.048950635 0.0236674 0.46760842 -0.1330553
000200 b0 21 fc be 5c be 9f 3d
       -0.49244452 0.0779998

sequential_56/dense_270/MatMul f4 [10, 10]
000000 0d 0a 0d bf fa 18 37 be 19 8e d9 be e2 79 d3 3e
       -0.5509346 -0.17880622 -0.42491224 0.41303927
000010 80 12 cf 3c e8 2c dd bd 64 f9 a7 3e 52 7f d2 be
       0.025277376 -0.10799581 0.32807457 -0.41112763
000020 74 56 06 be 72 58 17 3e fa 6f c8 3e ee 4d b6 3d
       -0.13118917 0.14779833 0.3914793 0.08901583
000030 3c aa b9 be 88 85 da 3e fa e4 3f 3e 59 dc 79 be
       -0.3626269 0.4268 0.18739691 -0.24400462
000040 c6 e5 9b be 26 49 1a 3b f2 40 51 be f1 92 f4 3e
       -0.3044874 0.0023542135 -0.20434931 0.47768357
000050 d6 15 85 be d7 d8 b0 be f9 e4 ad be 34 f6 fe 3e
       -0.25993222 -0.34540436 -0.33963755 0.49797213
000060 ab 51 54 3e be 1a 8b 3d 16 69 39 be f9 6d 0d bd
       0.20734279 0.0679221 -0.18106493 -0.034528706
000070 76 bd 0a bf 38 2a 9e bd 88 3b f7 be d6 3c 00 bd
       -0.54195344 -0.07722896 -0.48287606 -0.031308018
000080 75 9a f7 3e 50 87 46 bd 4d 14 01 3e 8c 95 65 be
       0.4836003 -0.048468888 0.126054 -0.22420329
000090 11 9e 98 3e 96 ab c6 3e b9 9e 08 3f 1a 5b e1 3d
       0.29808095 0.38802785 0.5336719 0.11003704
0000a0 f7 04 8a 3e 06 d7 a2 be 15 46 7a be 99 8a 20 bd
       0.26956913 -0.31804675 -0.24440797 -0.039194677
0000b0 f8 9e 28 be 21 94 6a 3d 52 bc 77 be c2 c8 2b 3e
       -0.16466892 0.057270173 -0.24192932 0.16775802
0000c0 b7 cd c6 3e a6 a9 96 be df 8c c1 3b 72 43 0f bf
       0.38828823 -0.29426306 0.0059066857 -0.5596229
0000d0 26 13 89 3e 2e 8e 9c be 50 02 34 be e9 17 c5 be
       0.26772422 -0.30577224 -0.17579007 -0.38494805
0000e0 96 4d 3d bd bb 4c b8 3e c2 9c 87 3e 3c b5 c3 be
       -0.04621657 0.3599604 0.26486784 -0.38224208
0000f0 0d e2 37 be ef d4 b6 be 01 b5 e1 bd ea ee f1 3e
       -0.17957325 -0.3570933 -0.11020852 0.4725259
000100 76 4c d4 be 6f 8f ff be 8b b1 1a 3e db e6 a2 be
       -0.41464585 -0.4991412 0.1510679 -0.31816754
000110 35 d5 ea 3d 5f 92 a6 bd 2c 82 e8 be c8 17 f9 3e
       0.11466447 -0.08133387 -0.45411813 0.48650956
000120 4d fe d9 3d 10 1e 16 be ae 05 99 bd f0 3d 27 3e
       0.10644207 -0.14659905 -0.074717864 0.16332221
000130 a8 20 e1 3d 70 a4 d4 be 4c d6 9c be c4 5e 3d be
       0.10992557 -0.41531706 -0.30632246 -0.18493181
000140 6e bd 02 bf a1 b3 dc 3d 7e f1 14 be 17 50 d5 be
       -0.51070297 0.10776449 -0.14545247 -0.41662666
000150 bf 4c dd 3e 92 32 0f be 14 df 02 3f 39 2a de bd
       0.43222615 -0.13984135 0.5112164 -0.10847897
000160 e9 07 85 3e a9 b4 33 be 66 c6 9a be f0 76 69 3e
       0.25982597 -0.17549385 -0.3022949 0.22799277
000170 fe 48 bc 3e 5b 51 0b bf ce 10 ab be 87 c9 35 bc
       0.3677444 -0.54421014 -0.33411258 -0.011095411
000180 36 19 af 3e 76 a1 1f 3d d1 30 5c be 91 97 03 3f
       0.34198922 0.03897234 -0.21502997 0.51403147

sequential_56/dense_271/MatMul f4 [10, 10]
000000 ce c7 07 be fe f5 c8 3d d8 06 e6 be b4 31 18 be
       -0.13259813 0.09812544 -0.44927096 -0.1486271
000010 c7 25 a2 3e 5d 3e bd 3e d9 ba f2 3d 58 dc 88 3e
       0.31669447 0.36961642 0.118520446 0.2673061
000020 01 77 3e 3e 5b 4d 2f bd 18 90 91 bd de 91 df 3e
       0.18600084 -0.04279838 -0.07107562 0.43665975
000030 82 11 a2 bd 77 58 9a 3e 40 17 67 be 18 86 bc 3d
       -0.079134956 0.30145618 -0.22567463 0.09205264
000040 ae f1 cf 3c dc 2b df be 23 4b 0a bf af ba 29 be
       0.025383797 -0.4358815 -0.540209 -0.1657512
000050 4b a7 77 3e a5 4c 98 3e 84 51 ee bd 51 a8 ee be
       0.24184911 0.29745975 -0.116366416 -0.4661279
000060 9c 7a b6 3d 19 c0 a7 3e e7 96 fc 3d 9b a8 6c 3e
       0.08910105 0.32763746 0.1233347 0.23111193
000070 a7 4a e2 be 29 9d 8b 3e 8f d6 75 be db 1f e4 3e
       -0.4419758 0.2726834 -0.24007629 0.44555554
000080 8f 2b 8e 3e d3 c4 31 be 8d 61 ca 3e de fc 6f ba
       0.27767608 -0.17360239 0.3952755 -0.00091548066
000090 e1 a9 06 be 5e f2 04 bf 87 bf de be e6 a8 fe be
       -0.13150741 -0.5193232 -0.435055 -0.49738234
0000a0 88 5a af 3e 6b ce fb 3e 82 98 a5 bd 52 88 1a be
       0.34248757 0.49180922 -0.08085729 -0.15091065
0000b0 67 94 e5 3c 3f c0 e6 3e 20 f7 a5 be 87 d9 e9 3e
       0.028024865 0.45068547 -0.32415104 0.45673773
0000c0 48 cc 83 be 6b 19 4b 3e 88 34 07 bf 17 a5 6c 3e
       -0.25741792 0.19833915 -0.5281453 0.23109852
0000d0 50 b0 75 be f4 71 e9 3e 95 0e f8 3e cc e7 af 3e
       -0.23993039 0.45594752 0.48448625 0.34356534
0000e0 25 aa f3 3c c6 0e 52 3d d1 36 ba be 08 8e b5 be
       0.029744217 0.05128362 -0.36369947 -0.35459924
0000f0 26 b1 13 be eb 69 78 3e 17 5d b1 3e 35 bc c5 be
       -0.14423046 0.24259154 0.34641334 -0.38620153
000100 b3 1c d6 3d ef 5a d6 be a5 0a 1e 3c f7 ac 93 3e
       0.10454693 -0.41866252 0.009646093 0.288429
000110 cb 43 c4 3d eb 9c 0a 3e c7 c6 d0 be e8 93 50 be
       0.09583243 0.13536422 -0.40776655 -0.20368922
000120 f7 7b 08 be 14 f3 0b be c9 5b 05 bf 3a 02 0a bf
       -0.13328539 -0.13666946 -0.5209318 -0.5390965
000130 87 03 89 be 3c 22 41 3d a9 0b 72 3e 91 72 0b 3e
       -0.26760504 0.04715179 0.2363726 0.13617922
000140 17 43 94 be 16 80 43 be 79 2e f4 3a c6 ed fb 3b
       -0.28957435 -0.1909183 0.0018629573 0.007688257
000150 7e e2 92 be 1d ea b5 bd 08 08 de be e3 65 b7 3e
       -0.28688425 -0.08882544 -0.43365502 0.3581992
000160 89 9f cd 3d 59 9c d7 3e 59 22 ba be 09 72 9e be
       0.100401945 0.4211147 -0.3635433 -0.30946377
000170 b5 36 82 be 39 2b 73 3e 42 43 32 bb ed 71 16 bd
       -0.25432363 0.23746957 -0.0027200733 -0.03672974
000180 49 be 01 bf fe 23 c4 bd 22 5d da be 66 29 9d be
       -0.5068098 -0.095771775 -0.4264918 -0.30695647

sequential_56/dense_272/MatMul f4 [10, 10]
000000 ae 72 8c 3e 5a ad fc 3e ca 71 01 be 6c 4f 54 be
       0.27431244 0.49351007 -0.12641063 -0.20733422
000010 5a 01 ad be 97 f2 d2 3e 3a b1 0b 3d 04 be be 3e
       -0.33790094 0.41200706 0.034104563 0.37254345
000020 1a aa d2 be 5c ec d1 be d9 d7 7a be 20 fc 8b be
       -0.41145402 -0.4100064 -0.24496402 -0.27340794
000030 87 17 f9 bd 96 39 99 be d2 60 04 bf cb 1a 67 3c
       -0.121626906 -0.29926747 -0.51710236 0.014105509
000040 51 18 d1 be 17 43 c4 be a4 c0 ab 3e 39 e7 e6 be
       -0.40838864 -0.38332435 0.3354541 -0.45098284
000050 b2 23 9d be fe 04 95 3e b2 ec 72 3e b6 65 f7 3e
       -0.30691296 0.2910537 0.23723105 0.48319787
000060 d8 4d f6 3d 0b 4e ae 3e 95 16 a8 be c3 fb d2 be
       0.12026566 0.34043917 -0.3282973 -0.41207704
000070 14 88 f3 be 98 8f ad 3e 71 b5 6f bd 18 6c 28 be
       -0.47564757 0.33898616 -0.058522645 -0.16447484
000080 ea 61 c6 bd b5 9a 13 3e d7 41 c9 3d 96 27 6d 3e
       -0.096866444 0.14414485 0.09827011 0.23159632
000090 1f 01 49 bd a0 d9 cf be bb fe 0b 3c cb d5 fd bd
       -0.049073335 -0.40595722 0.008544619 -0.123942934
0000a0 c6 89 2d bd ed 12 40 3e 3c 25 08 be 9d 8e be be
       -0.04236772 0.1875722 -0.13295454 -0.3721818
0000b0 f8 a7 e7 be 84 7e 71 3e 09 4b ae be 97 74 d8 3e
       -0.45245337 0.23583418 -0.34041622 0.4227645
0000c0 02 72 ae bd f2 42 f0 be f6 b8 05 bd ad e0 03 3f
       -0.08517839 -0.46926075 -0.032647096 0.51514703
0000d0 8c ff e6 3e a8 98 e2 be 52 c1 06 bd 61 54 dc be
       0.45116842 -0.44257092 -0.03289921 -0.43033126
0000e0 2b 0a 91 be fa 6e 44 be c4 c7 5d 3e 78 2f 26 be
       -0.2832807 -0.19182959 0.21658236 -0.16229045
0000f0 0e 01 e2 be 62 fe 7e bd 73 fd 04 bf 26 fd 07 3e
       -0.4414143 -0.062254317 -0.5194923 0.13280162
000100 8b cc 32 3e ea 34 0e bc 27 7b 3a be 22 91 e7 3e
       0.1746084 -0.008679608 -0.18211041 0.45227915
000110 f6 4d 00 bb 7b ba 02 3e 08 03 d4 3e 12 fe 15 be
       -0.0019577718 0.12766449 0.41408563 -0.14647701
000120 d8 e1 09 be 3c 80 d3 3d eb 5a e7 3d 09 bf 04 3f
       -0.13465059 0.10327193 0.11296638 0.51853997
000130 1a 06 de 3d a6 b0 05 3f 1c f5 09 bf 7a bd ca 3e
       0.108410075 0.5222267 -0.5388963 0.39597684
000140 fe 2d 80 bd a9 39 d5 be 67 8c 47 be ef b6 d0 be
       -0.06258772 -0.41645554 -0.19487153 -0.40764567
000150 6a e0 c2 be 8a 6d ff be 17 e5 0c be 67 a1 b0 be
       -0.3806184 -0.4988826 -0.13759266 -0.3449814
000160 28 1f d6 3d 43 df 0b 3f df 67 e1 3e 4b 5e 45 3e
       0.10455161 0.54637545 0.4402456 0.19274251
000170 f0 0a f2 3e 33 08 da be e3 e8 a5 3e d7 9d ce be
       0.4727397 -0.4258438 0.3240424 -0.40354797
000180 9e 44 56 be 29 b4 bb 3e 50 27 33 3e a9 e2 74 3e
       -0.20924613 0.3666089 0.17495465 0.23914589

sequential_56/dense_273/MatMul f4 [10, 10]
000000 a7 72 9c 3c b8 c0 f1 bd 9d 33 00 bf 87 ad f7 3e
       0.01909764 -0.11804336 -0.50078756 0.48374578
000010 02 05 bc bd 25 0e ae be ed 7b ee 3e cd d2 a4 be
       -0.09180643 -0.33995166 0.46578923 -0.32192078
000020 e9 7a ff 3e f8 01 6a be 2f fc a7 bd 12 51 b9 3e
       0.4989846 -0.22852314 -0.08202397 0.36194664
000030 9a 23 90 bd 93 c8 eb 3e 7d 54 4c bd 8f d0 fe 3e
       -0.070380405 0.46051463 -0.04988526 0.49768493
000040 c5 42 8b be b7 7e 32 3e 4f 18 0c 3f f4 dc d6 3d
       -0.2719938 0.1743115 0.5472459 0.10491362
000050 a3 01 c4 3e c5 cc 02 3f 11 7c b3 3d a1 43 9d 3e
       0.382825 0.51093704 0.08763898 0.3071566
000060 30 96 90 3e 70 13 09 bf 63 f3 0e 3e cb fe 82 3e
       0.28239584 -0.53545284 0.13960032 0.25585017
000070 ac ee d1 be c1 ed ad be 1e cf 88 3e 43 78 3b bd
       -0.41002405 -0.33970454 0.26720518 -0.045768987
000080 ec 0e 85 3e 61 61 90 3d 30 12 bf bc 9a fb 98 3d
       0.25987947 0.070498236 -0.023324102 0.07469864
000090 99 b4 45 3e 53 b9 02 be 42 f8 e5 be 94 3a 0a be
       0.19307174 -0.12766008 -0.44915968 -0.13498908
0000a0 fd bd e4 bd 7a 04 8f 3e 13 5c b2 3d bd b4 47 be
       -0.1116905 0.27933103 0.08708968 -0.1950254
0000b0 83 3d 25 be 5e 38 71 be 68 99 a4 3e 54 8e 6b 3e
       -0.16136746 -0.23556659 0.3214829 0.23003513
0000c0 b5 2e cd be ad ba e3 be 43 2c 0a bf ca 48 ac 3e
       -0.40074697 -0.4447836 -0.5397379 0.33649284
0000d0 b0 db b6 bd 2b ba fd be ab b1 87 be 6a 0f 80 3d
       -0.08928621 -0.49556097 -0.26502737 0.0625294
0000e0 1a 35 ed 3b 2e a0 2b 3e 3a 63 b3 3d 9e 0c b2 bd
       0.007238996 0.16760322 0.0875916 -0.08693813
0000f0 ce 42 df 3e 13 9e 92 3e 8f 9c 95 bd ca 5d ad bd
       0.43605655 0.28636226 -0.07305252 -0.084651545
000100 1c 62 37 3e d5 c7 b8 bd 9d ff fe 3e 98 91 ef 3e
       0.1790852 -0.0902249 0.49804392 0.46790767
000110 af 8f 9b be 3c f0 14 be 57 ba 0a bf e1 8b ef 3e
       -0.3038306 -0.14544767 -0.5419058 0.46786407
000120 21 78 cf be e1 e8 b8 bb c0 e5 e9 3e f8 75 75 be
       -0.4052134 -0.0056429957 0.45683098 -0.23970783
000130 35 a3 31 be 31 49 09 be ec 1e 3f bd d1 35 20 3e
       -0.17347415 -0.13406827 -0.04666035 0.1564553
000140 a6 a1 83 3e 71 8a 34 be e8 ae 09 be 9f 18 79 be
       0.25709265 -0.17630936 -0.13445628 -0.24325798
000150 ba 90 96 bd 7b 46 b8 3e b0 7a be 3e f9 b0 a6 3e
       -0.07351823 0.35991272 0.37202978 0.32556894
000160 30 90 32 3b 14 b3 d5 be ee cb 91 be 16 1b a9 bd
       0.0027246587 -0.41738188 -0.28475899 -0.08257119
000170 42 b8 07 bf 84 3b 0e 3f de b0 12 3e ac ef bd 3e
       -0.5301553 0.55559564 0.14325282 0.37096918
000180 42 8e 6d be c8 11 e1 3e f7 e7 a2 be c8 6f e9 3e
       -0.23198798 0.4395888 -0.318176 0.45593095

sequential_56/dense_274/MatMul f4 [10, 10]
000000 b7 aa 46 3d 88 b5 a1 3e 62 32 cc be e1 7c d0 be
       0.04850265 0.3158381 -0.3988219 -0.40720275
000010 f1 ea 5f 3e af 48 80 3e 06 47 d8 be 47 02 ac be
       0.21866967 0.25055453 -0.42241687 -0.33595487
000020 32 62 da 3d bc 56 84 bd 43 cb af bd ee 2f da 3e
       0.106632605 -0.06461856 -0.08583691 0.42614692
000030 37 c2 01 3f de dd 3e 3e 80 cf 5a be c6 75 10 3e
       0.50686973 0.18639323 -0.21368217 0.14107427
000040 a2 4e be be 6a 3c 20 bd df 99 02 bf 0b 91 8c be
       -0.37169367 -0.039120115 -0.5101604 -0.2745441
000050 fa 48 3f 3e 96 9f 8a 3d 75 81 fa 3d 66 6c 74 be
       0.18680182 0.0676872 0.12231723 -0.23869476
000060 68 1e 9a 3d 2b 43 08 bf fe 2e 03 bf 46 70 59 3e
       0.07525331 -0.5322749 -0.5124358 0.21234235
000070 9d c8 04 3e 1d 1d f5 be f0 23 d3 be f0 83 e5 3e
       0.12967153 -0.47873774 -0.41238356 0.44827223
000080 85 e4 3c 3e 2c 97 08 3f 7c 59 cb 3e 5b f0 e5 3e
       0.18446548 0.5335567 0.3971671 0.4490994
000090 02 0e 4e 3e 27 7d d5 3d 3b 8f ee 3e ee b1 4c be
       0.20122531 0.104242615 0.4659365 -0.1998975
0000a0 23 57 4b bd e5 ea 41 3d 02 2a 81 3e d5 99 f0 be
       -0.049643647 0.047343154 0.25227362 -0.46992365
0000b0 96 90 07 3c 00 16 b4 3d 61 aa 75 bd d0 9b e5 3e
       0.008274218 0.08793259 -0.05997694 0.44845438
0000c0 b9 aa 8f bd de ad cd be 3a 45 9c 3d 6a 19 c3 be
       -0.07014985 -0.40171713 0.076303914 -0.38105327
0000d0 50 2c be be 9b 74 db be 58 93 02 bf 1f 84 97 3e
       -0.37143183 -0.428624 -0.5100608 0.29592988
0000e0 bf 90 84 be cc dd 87 3d d0 2e 89 be b3 95 a0 3e
       -0.25891683 0.06634101 -0.26793528 0.3136421
0000f0 3e f6 b1 bd 88 c8 29 3e 65 f5 07 3d 71 de a0 3d
       -0.08689545 0.16580403 0.03319301 0.07854927
000100 a4 26 05 bf 7c 96 82 3e 5e db 8e be ab d5 e4 3e
       -0.52012086 0.25505435 -0.2790174 0.44694266
000110 37 1e 0e bd a6 7b 35 3e f8 1a 74 be d0 11 9d be
       -0.034696784 0.1772295 -0.23838413 -0.30677652
000120 c9 a3 02 be 45 fb b5 be 7d 47 97 be 36 6d b3 3e
       -0.12757792 -0.35543266 -0.2954673 0.3504426
000130 06 15 9a 3e e5 bd cd be 02 a2 c9 3e a2 71 d2 be
       0.30094165 -0.4018394 0.39381415 -0.4110232
000140 e6 a7 55 3e b1 c0 3f bd 01 e1 68 3e a4 87 b2 be
       0.2086483 -0.046814624 0.22742082 -0.3486911
000150 b6 32 b6 bc c1 af e8 3d 7b 6d 05 bf 89 f1 d7 be
       -0.022240978 0.113616474 -0.5212018 -0.42176464
000160 2d 1b 00 3e ec db 70 be 8a 0c b3 bd e7 f5 ce be
       0.12510367 -0.23521394 -0.08742626 -0.40421984
000170 d5 dd cd be 58 a0 37 3e 56 fb 22 be 86 66 c7 3e
       -0.40208307 0.1793226 -0.1591619 0.38945407
000180 50 c5 82 be 5e 29 26 3e 14 67 6b 3e c7 15 4b 3e
       -0.25541162 0.16226718 0.2298854 0.19832526

sequential_56/dense_275/MatMul f4 [10, 10]
000000 73 d0 13 3e 5e 3f e9 be 76 d0 17 3e 45 68 c8 be
       0.14434986 -0.45556158 0.14825615 -0.3914205
000010 26 17 fa be a6 ca 97 be d9 ba 86 3e 85 eb cd bd
       -0.48845786 -0.29646796 0.26314428 -0.100546874
000020 f9 ce c7 bd 36 e5 47 bd ce 4f 50 3e 99 bc ff 3e
       -0.09756274 -0.048802577 0.20342943 0.49948576
000030 7e 74 08 3e 00 46 72 3d 6d 71 c5 3e a1 e5 b6 3e
       0.13325688 0.05914879 0.385631 0.35722068
000040 21 93 fd be 71 64 f7 3e be 1c e0 3d b5 19 86 be
       -0.49526313 0.48318818 0.10942982 -0.26191488
000050 d8 80 80 3d a0 a7 f7 bd f5 ec 6d be 57 9a 2f 3e
       0.06274575 -0.12092519 -0.23234923 0.1714872
000060 42 b9 62 be 61 75 0a 3f 63 ad cf be 28 b5 f3 3e
       -0.22140983 0.54085356 -0.4056197 0.4759915
000070 73 cd 6a bc f8 c6 83 3c 34 b2 76 be 23 5c 09 3f
       -0.0143312095 0.016086087 -0.24091417 0.53656214
000080 9f a5 e7 3e c1 d4 32 be ed f8 65 3e 71 25 dc be
       0.45243546 -0.17463972 0.22458239 -0.42997316
000090 59 9f 84 3d de 7c a7 3e 5c 49 4d be e0 b5 5f 3c
       0.06475706 0.32712454 -0.20047516 0.013654202
0000a0 46 98 03 3c ed 50 92 3e e6 f7 31 3b f9 a8 e4 3e
       0.00803191 0.28577366 0.0027155816 0.44660166
0000b0 89 dd 9a be 8a 88 09 bd 2a 13 f3 3e b3 01 69 3e
       -0.30247143 -0.03357748 0.4747556 0.22754554
0000c0 34 6c 02 bf e1 fd d0 be 00 93 93 3e 4e 6a 58 3e
       -0.50946355 -0.40818694 0.2882309 0.21134302
0000d0 f8 6d cf be b2 34 67 3e d5 25 ff 3d 7a 33 0b bf
       -0.40513587 0.22578695 0.12458388 -0.5437542
0000e0 ae 7f ca be 09 47 b5 be 39 9a 0b 3e 3c eb a9 be
       -0.39550537 -0.35405758 0.1363305 -0.33187282
0000f0 07 23 c4 be 9f 28 04 3e ec a1 00 bd 72 3b 05 bf
       -0.38307974 0.1290612 -0.03140442 -0.5204383
000100 b4 30 93 be e0 e2 aa be 00 4f 21 be dc 64 35 3e
       -0.28748095 -0.33376217 -0.15752792 0.17714256
000110 d6 9e 02 bf cd b7 a3 be 4e c4 c4 3e e5 70 9d be
       -0.51023614 -0.31976166 0.3843102 -0.30750194
000120 97 6a c7 be 5d 03 f6 be 41 59 88 3d d0 73 08 3f
       -0.3894851 -0.4804944 0.06657649 0.53301716
000130 c2 af d6 3e 27 1e d8 3e 70 e9 c8 3e ef 38 4a 3d
       0.41930968 0.42210504 0.392406 0.049370702
000140 c2 a2 af 3e f0 46 02 bf f7 03 c0 3e 17 88 04 bf
       0.34303862 -0.5088949 0.37503025 -0.51770157
000150 18 a0 39 3e 1b 09 df bd 2e e7 bf 3c 23 62 84 be
       0.18127477 -0.108904086 0.023425665 -0.25856122
000160 5d b6 98 3e 35 26 5a 3e ff 1d 42 bc d1 25 f7 be
       0.29826632 0.21303637 -0.011847972 -0.4827104
000170 8e 47 80 be a3 26 b4 be 2f 0b 0e 3f 24 66 d2 be
       -0.25054592 -0.35185727 0.55485815 -0.41093552
000180 4d 46 78 3e 2b eb c3 3e e5 6c e4 3e d1 11 a4 3e
       0.24245568 0.38265356 0.4461433 0.32044843

sequential_56/dense_276/MatMul f4 [10, 10]
000000 bf 08 6a 3e c6 49 e4 be 10 c2 db 3e 76 9c d5 be
       0.22854899 -0.44587535 0.42921495 -0.41720933
000010 c9 b7 b9 3e 04 5e 09 bf 4f 98 f6 be 76 02 31 3e
       0.3627303 -0.5365908 -0.48163077 0.17286095
000020 37 b7 cc 3e 2e 0e 4c 3e c6 f1 02 3f 8e dc da bd
       0.39983532 0.19927284 0.51150167 -0.10686599
000030 b4 8c 14 3e 53 8a 7d 3e 15 bc 7d 3e 25 65 0b bf
       0.14506799 0.24759798 0.24778779 -0.5445121
000040 21 09 5b 3e 02 01 90 3e 22 36 c4 3e ca 21 d4 be
       0.21390201 0.2812577 0.3832255 -0.4143203
000050 04 b5 a0 be ac 9a 99 bd 36 a6 b3 3d d9 20 48 3e
       -0.31388104 -0.075002044 0.087719366 0.1954378
000060 69 4e 78 3d 39 47 55 be 98 3b 02 3f d9 c5 72 3e
       0.060621653 -0.2082795 0.5087218 0.23708285
000070 11 14 0a 3f e4 4a 36 bc 59 ec 71 be 04 fc ff 3e
       0.5393687 -0.011126254 -0.23625316 0.4999696
000080 9d 4e ec bd 96 6f b3 3e 2f d7 f9 be dc ec 6d be
       -0.11538432 0.3504607 -0.48796985 -0.23234886
000090 b5 31 60 3e 70 9c d5 bc ea 0f 85 be 48 94 87 be
       0.21893962 -0.026075572 -0.25988704 -0.26480317
0000a0 d9 0b f0 3e 3f 0a c9 be 5b 7c 8b bd a9 3a 0c 3d
       0.4688404 -0.3926563 -0.06810828 0.03423563
0000b0 14 dd c7 3e a1 7f f3 3d de 48 1c 3e 56 ba ab 3e
       0.39035857 0.11889578 0.15262172 0.335406
0000c0 a1 25 0c bd f5 40 08 be 25 86 9e 3e 5c 01 a1 bd
       -0.034215573 -0.13306029 0.3096172 -0.078615874
0000d0 f3 ec c4 be 5e e6 24 bd fa 6c 03 bf fb c8 1d bc
       -0.38462028 -0.040258758 -0.5133816 -0.009630437
0000e0 9c fe 05 bf b8 2c ee 3e dc b5 3c be 02 07 0a bf
       -0.5234163 0.46518493 -0.18428749 -0.53916943
0000f0 03 88 16 3e a0 b0 b5 be 44 84 05 bf 02 1a 07 3f
       0.14700322 -0.35486317 -0.52154946 0.5277406
000100 0f bc b9 3e 6b f8 4d 3e 5f 2e 6a 3e 88 3a 8c be
       0.3627629 0.20114295 0.22869252 -0.27388406
000110 00 1d b2 be 88 01 0d 3e cd 23 a0 be fb d8 05 bf
       -0.3478775 0.13770115 -0.31277314 -0.5228421
000120 3a 77 86 be bc 52 fd be 11 c7 85 be ef 87 f4 be
       -0.26262838 -0.49477184 -0.26128438 -0.4775996
000130 40 9c 05 bf ba c6 db be a1 43 b3 be 06 c4 c3 be
       -0.52191544 -0.42925054 -0.35012534 -0.38235492
000140 55 3f 16 3e 04 fb ce be 11 24 a5 3d 57 ff 58 be
       0.14672597 -0.40425885 0.0806352 -0.21191154
000150 5a f8 a7 bb 64 8f f4 be a5 27 eb 3c 22 e0 1c be
       -0.0051260414 -0.47765648 0.028705427 -0.15319875
000160 e7 80 77 be a6 10 0a bf 14 dc fb bd 93 51 e4 be
       -0.24170266 -0.53931653 -0.12297836 -0.44593486
000170 d6 5a 01 3f ba e4 be be 96 3b f0 3e 2e 3f 8c 3e
       0.5052923 -0.3728388 0.4692046 0.27391952
000180 ea ab 83 3c 26 ea 65 3e 5c c4 df be f1 53 bf 3d
       0.016073186 0.22452602 -0.43704498 0.093421824

sequential_56/dense_277/MatMul f4 [10, 10]
000000 7e e4 4c be b3 b8 83 be 2c 6c 04 3f c8 36 74 3c
       -0.20009038 -0.25726852 0.5172756 0.014905639
000010 a9 f8 75 be 6f e4 c9 bc c8 9e 41 3c 9e df db be
       -0.24020638 -0.024645058 0.011817642 -0.42944044
000020 99 5c b8 3e 5a a2 02 bf 67 5c 1e be 62 22 b0 be
       0.36008146 -0.5102898 -0.15464936 -0.34401232
000030 73 98 0c 3e 49 83 3f 3e 69 73 f3 3a b5 d9 0c be
       0.1373003 0.18702425 0.0018573824 -0.13754924
000040 b1 2e f3 bd ff 88 84 3e c7 40 f3 3e 6c 4a 01 bf
       -0.1187414 0.2588577 0.4751036 -0.50504184
000050 47 3e 54 3e 2e 3d 40 be 33 40 6b be b3 48 fd be
       0.20726882 -0.18773338 -0.22973709 -0.49469528
000060 53 ec d8 3d 09 b6 c9 be 81 2d 03 bf be 2a 1f be
       0.1059195 -0.39396694 -0.5124131 -0.15543649
000070 09 b8 7d be fd f4 23 3e 05 2b a5 be 13 a0 e2 3e
       -0.24777235 0.16011424 -0.32259384 0.44262752
000080 cc 8f 53 be f3 33 03 3d bd 8c 42 be f8 d5 65 be
       -0.20660323 0.032031965 -0.18999 -0.22444904
000090 0e cb 79 be 30 0c f1 3e fd aa 88 3e 98 14 8e bd
       -0.24393865 0.4707961 0.26692954 -0.06937522
0000a0 e7 7d dd 3d fd 5a 34 bd 74 fd 2c 3e c1 73 80 3d
       0.108150296 -0.044032086 0.1689356 0.06272078
0000b0 dd 43 eb 3e 5f d8 fd bc 29 c5 8c 3e 11 8f ef be
       0.45950213 -0.030986963 0.2749417 -0.46788839
0000c0 88 16 d5 3e 6c d4 04 bf c3 d1 0d be 60 fb 53 3e
       0.41618752 -0.5188663 -0.13849549 0.2070136
0000d0 ad 80 9c bd 30 9b 21 3e 58 39 62 3e 97 72 f0 3e
       -0.076417305 0.15781856 0.22092187 0.46962425
0000e0 4d 47 cf bc bd ba eb be 00 ac e9 3e d5 a4 86 be
       -0.025302554 -0.46040908 0.45639038 -0.26297632
0000f0 15 2a 93 be 27 45 89 be 23 59 e8 3e 79 20 8e 3d
       -0.28743044 -0.26810572 0.45380506 0.069397874
000100 60 3a 03 3f 4a 77 19 be 35 b1 6f 3e 02 49 c6 be
       0.5126095 -0.14986911 0.23407443 -0.38727576
000110 17 fd a3 3e 41 4e 8e be 93 db 06 bd c8 cc 1c 3e
       0.3202903 -0.27794078 -0.032924246 0.15312493
000120 4d 81 87 be 16 fd 9d be 4e 0c e4 be c1 11 0f 3e
       -0.26465836 -0.30857152 -0.44540638 0.13971616
000130 e1 ee 3e be 38 f3 86 39 24 79 08 bf 00 ec 8a be
       -0.18645813 0.00025739684 -0.53309846 -0.2713318
000140 6d 87 2e be c0 08 55 3e 5a 98 0c 3f 78 de 2c 3d
       -0.17043848 0.20804119 0.5491997 0.04220435
000150 72 ab 83 be 4b 7d 04 bf 74 1e 47 3e 8c 4e 81 3e
       -0.2571674 -0.5175368 0.1944521 0.2525524
000160 2d 30 3f 3e 9f 60 7e 3e 07 a3 b6 be 26 a3 02 3f
       0.18670721 0.24841546 -0.35671255 0.51030195
000170 2f 58 e1 be 69 0d 61 3d 8a a3 f3 be bf f0 0d bd
       -0.4401259 0.05494443 -0.47585708 -0.03465342
000180 17 81 92 be 65 c8 69 3e a0 7b 0b 3f 5f dc d2 3e
       -0.28614113 0.2283035 0.5448551 0.41183755

sequential_56/dense_278/MatMul f4 [10, 10]
000000 5e ed c5 be f5 5e 8c be c2 6a d4 bd 1f a1 55 3e
       -0.3865766 -0.27416196 -0.10371925 0.20862244
000010 82 9c 31 be 4d 1c 06 bf f7 64 88 3e 3d 4f b4 3e
       -0.17344859 -0.52386934 0.2663953 0.35216704
000020 97 c7 b0 be 76 e9 99 bd c8 86 3a bd 01 ea 76 3e
       -0.34527275 -0.07515232 -0.045538694 0.24112703
000030 10 37 2b be ec 5d 0d 3e 63 60 4a be df 81 f6 be
       -0.16720223 0.1380536 -0.19763331 -0.4814596
000040 ba 0e 1e 3e 4b 9c be bd cd 87 d4 3e c8 de a5 3e
       0.15435305 -0.09307154 0.41509858 0.3239653
000050 e6 8a a2 3d 0b ef ad be 17 91 bd 3e 28 10 3b be
       0.07936649 -0.33971438 0.37024757 -0.18267882
000060 bc 8a e6 3e b7 6a 1d be 27 73 83 be cc 32 b0 3e
       0.4502772 -0.1537274 -0.25673792 0.34413755
000070 ae 1d d5 bd 1d 3e c5 be dd d5 de 3e 0a 23 b3 be
       -0.104060516 -0.3852395 0.4352254 -0.3498767
000080 85 70 04 bf 39 d5 53 3e a8 d0 0e be f8 6a c0 3e
       -0.5173419 0.20686807 -0.13946784 0.3758161
000090 0b 3c 2b 3d 67 00 f4 3e f1 3f a1 3e a9 60 49 3e
       0.04180531 0.47656557 0.31494096 0.19665779
0000a0 70 a7 8e 3e e9 ea ad 3e 74 b3 be 3e 8d 34 dc be
       0.2786212 0.33968285 0.37246287 -0.43008843
0000b0 67 3d 07 be 41 d0 38 3e 5b e7 e7 3e fb 3e fe 3d
       -0.13207017 0.18048193 0.45293698 0.12414356
0000c0 f6 8c 74 be 01 98 88 3e ea dd 16 bc 00 fc 09 3f
       -0.23881897 0.2667847 -0.009208182 0.53900146
0000d0 59 26 86 bd 39 03 b9 be 40 67 54 3e d5 30 e9 3e
       -0.06550283 -0.3613527 0.20742512 0.45545068
0000e0 1c 32 ee be 48 f4 20 be 96 7b 74 3e 37 f5 e0 3e
       -0.46522605 -0.15718186 0.2387527 0.43937084
0000f0 0b 17 7d be 84 77 23 3e 94 03 9e be 5d e0 50 be
       -0.24715821 0.1596356 -0.30862105 -0.20398088
000100 61 c2 3f 3c 88 c4 fb 3e ff dc 70 3e 92 9f 6e bb
       0.011704058 0.4917338 0.23521803 -0.003641103
000110 9c f8 4a 3e 51 b2 f8 be d6 57 52 3e a4 5e a7 bd
       0.198214 -0.48573545 0.20541319 -0.08172348
000120 00 63 ee 3e 68 fd 00 bf f6 13 a0 3e d1 f9 51 bb
       0.46559906 -0.5038667 0.3126523 -0.0032039771
000130 5f 25 22 be 5f ef 78 bd 76 fd a6 be 28 a3 1c be
       -0.15834568 -0.060775157 -0.3261525 -0.15296614
000140 dc 79 ff be 0f b9 61 be e5 f5 c0 3e 29 0c 20 be
       -0.4989766 -0.2204325 0.37687603 -0.15629639
000150 95 80 b6 3e 11 a5 d4 3e e8 eb 34 be 77 23 b2 be
       0.35644975 0.41532186 -0.17668116 -0.34792683
000160 c2 fe d1 3e 1e c0 d6 3d c3 13 c6 3e 02 7a 7e be
       0.41014677 0.10485862 0.38686952 -0.2485123
000170 2d bb 47 3e 1f af f2 be 6a 31 85 3e 1c 63 3f be
       0.19504996 -0.47399232 0.26014262 -0.18690151
000180 1b 7d 04 bf 61 47 a9 3e 88 b6 ba 3e 34 32 e4 3b
       -0.51753396 0.3306227 0.36467385 0.0069639925

sequential_56/dense_279/MatMul f4 [3, 10]
000000 82 45 83 bd 1d b8 7c 3e f6 78 18 be c2 bc 1a bf
       -0.06409742 0.24679609 -0.14889893 -0.6044427
000010 d3 eb 39 bd 6d fe 34 3d 80 d8 64 bd b6 68 90 3d
       -0.045390915 0.04418795 -0.055870533 0.07051222
000020 d5 fd d6 be 26 96 06 bf d8 7a ec be d6 69 d9 3e
       -0.41990533 -0.5257286 -0.46187472 0.4246356
000030 23 4a 3f 3d f8 b8 24 3f c3 52 e9 3e f3 bb 01 3e
       0.04670156 0.6434474 0.45570955 0.12669353
000040 8e 4f 5b 3e 15 33 4a be 55 1c e0 be 73 64 01 bf
       0.21417066 -0.19746049 -0.43771616 -0.505439
000050 fa bc ba be b3 bb 28 3f 7a 3b 17 be ac 1e c7 be
       -0.36472303 0.65911406 -0.14768782 -0.38890588
000060 b7 50 85 be e3 e1 be 3e b1 11 cf 3e 6b 18 4c 3d
       -0.26038143 0.37281713 0.40443185 0.049827974
000070 0f 69 ea 3b be 34 f4 3e
       0.0071536372 0.4769649
