TFLite_trained_models/FC 10+50_Breast cancer.tflite (tflite, 5376 bytes, 6 tensors)

sequential_53/dense_252/BiasAdd/ReadVariableOp f4 [10]
0	0xbbcc6cf9	-0.0062385765
1	0xbc88e13a	-0.016708959
2	0x3d2b6f59	0.041854236
3	0xbc041657	-0.008061967
4	0x3c6039bc	0.01368564
5	0x3d18aebe	0.037276022
6	0x3c4cf75d	0.012510148
7	0x3c2b6792	0.010461705
8	0x3c759ee8	0.0149914995
9	0xbbc71099	-0.0060749766

sequential_53/dense_253/BiasAdd/ReadVariableOp f4 [50]
0	0x3c2b005d	0.010437098
1	0x3d1f42df	0.038882133
2	0xbc2bfb9c	-0.010497
3	0xbc04d34f	-0.0081070205
4	0xbc64ca66	-0.013964271
5	0xbc299116	-0.010349533
6	0xbc21344c	-0.009839129
7	0x3c28b945	0.010298078
8	0x3c263e16	0.010146638
9	0xbc33dddf	-0.010978191
10	0x3c78a8ac	0.015176933
11	0xbc22df3a	-0.009940917
12	0x3c3ee555	0.011651357
13	0x3c3db75b	0.01157936
14	0xbc5094dd	-0.012730804
15	0xbc449bab	-0.012000005
16	0x3b622afb	0.0034510482
17	0x3c24328b	0.010021816
18	0x3c3e53b5	0.011616637
19	0x3c47e705	0.012201075
20	0xbc3fc993	-0.011705774
21	0x3b022767	0.0019859911
22	0xbc375e92	-0.011191981
23	0x3c4c38b6	0.012464693
24	0xbb71d38c	-0.0036899773
25	0x3c21ab4d	0.009867501
26	0xbc5b2105	-0.013374572
27	0xbc216527	-0.009850777
28	0xbc33c3b3	-0.010971951
29	0x3c20e641	0.009820522
30	0xbbd98f10	-0.006639369
31	0x3c266f8e	0.010158433
32	0x3c296fdb	0.01034161
33	0xbc3ee17e	-0.011650441
34	0x3cd9aa76	0.02657054
35	0x3a2159ec	0.0006155062
36	0xbc29b468	-0.010357954
37	0x3c2da2bb	0.01059788
38	0xbc6ee36d	-0.01458059
39	0xbcc2b065	-0.023765752
40	0x3c2f6781	0.01070583
41	0x3c38f794	0.011289496
42	0xbc3ce29c	-0.011528637
43	0x3c3cf381	0.011532665
44	0x3c0e3d6e	0.008681638
45	0x3c63b480	0.013898015
46	0x3c2f7dae	0.010711117
47	0xbc606788	-0.013696559
48	0xbc44b9c7	-0.012007183
49	0x3c2dfc14	0.010619182

sequential_53/dense_254/BiasAdd/ReadVariableOp f4 [2]
0	0xbc357a60	-0.01107654
1	0x3c357a62	0.011076542

sequential_53/dense_252/MatMul f4 [10, 30]
0	0xbcdd4d83	-0.0270145
1	0x3dd552e5	0.104162015
2	0xbdf429df	-0.11922049
3	0xbea1468c	-0.31499135
4	0xbe4c5e57	-0.19957863
5	0xbdeb7853	-0.114975594
6	0x3e3ff004	0.18743902
7	0x3da66296	0.081242725
8	0x3d2f0855	0.042732555
9	0x3eb6439a	0.3559845
10	0xbe3e84b5	-0.18605311
11	0x3e91c842	0.28473097
12	0x3df2d8ed	0.118577816
13	0x3e80b141	0.25135234
14	0x3eb6bb00	0.35689545
15	0x3ea3b9db	0.31977734
16	0xbcaeed3c	-0.021353357
17	0x3d69093d	0.056893576
18	0x3dab58cb	0.08366545
19	0x3b612440	0.0034353882
20	0xbe63abd7	-0.2223352
21	0xbe87cb51	-0.26522306
22	0xbe466bd6	-0.19377074
23	0x3d550dcd	0.052015115
24	0xbe5ff706	-0.21871576
25	0xbeae27a8	-0.3401463
26	0x3eb7bd77	0.35886738
27	0xbe5d75d9	-0.21626987
28	0xbe0e4e06	-0.13896951
29	0xbec5c78d	-0.38628808
30	0xbeaf2c40	-0.34213448
31	0xbeba5126	-0.36390036
32	0x3e4c0073	0.19922046
33	0xbc444b20	-0.011980802
34	0xbe9d4a9d	-0.30720988
35	0x3e9a41ba	0.3012827
36	0xbe0261d0	-0.12732625
37	0xbd2ab93e	-0.041680567
38	0xbeca2def	-0.3948817
39	0x3d9b8edc	0.07595608
40	0xbe970b20	-0.29500675
41	0x3e751405	0.23933418
42	0xbe0fc7b5	-0.14041026
43	0x3dcb586f	0.09928977
44	0x3dee3ee1	0.11633087
45	0x3e7efbf9	0.24900807
46	0xbe78aacb	-0.24283902
47	0x3e33c0bb	0.1755399
48	0xbe939f21	-0.28832343
49	0x3e186920	0.14883852
50	0xbeab5567	-0.33463594
51	0xbe8a9911	-0.27069905
52	0x3e92b83d	0.28656188
53	0x3e87215c	0.2639264
54	0x3d8e9b85	0.06963257
55	0x3bffb67a	0.0078037353
56	0x3e4a2ca8	0.19743598
57	0x3eb863ba	0.36013585
58	0x3eac613b	0.3366793
59	0xbe94dbda	-0.29073983
60	0xbe813f68	-0.25243688
61	0x3e5ba2a3	0.2144876
62	0x3ec3d19e	0.38245863
63	0x3e94ecbd	0.29086867
64	0x3dccf55e	0.100077376
65	0xbd4bff0d	-0.049803782
66	0xbdc4dd6b	-0.096125446
67	0x3eb54a1f	0.35408112
68	0x3e21d06c	0.15802163
69	0x3ea7439a	0.32668763
70	0xbe16597d	-0.14682575
71	0x3e06c6cd	0.13161774
72	0xb92c45f9	-0.00016429265
73	0x3e9fc9c0	0.3120861
74	0x3d3a9267	0.045549776
75	0x3ea82e82	0.32847983
76	0xbea7f658	-0.32805133
77	0x3eac8cd8	0.33701205
78	0xbd67a7ab	-0.056556385
79	0xbd4fb98c	-0.05071406
80	0xbdb6f040	-0.08932543
81	0x3ecd9e5c	0.4015988
82	0xbe8aa612	-0.27079827
83	0xbe88e1ad	-0.26734677
84	0xbe5a2a0f	-0.21305107
85	0x3e175aea	0.14780775
86	0xbe711f5f	-0.23547123
87	0xbe376d43	-0.17912774
88	0xbeb313e3	-0.3497611
89	0x3eac633b	0.33669457
90	0x3e1e3c1c	0.15452617
91	0x3e1e7d5f	0.15477513
92	0xbea16c31	-0.31527856
93	0x3d3e25c7	0.046422746
94	0xbe00bdea	-0.12572446
95	0xbd66b9f1	-0.05632967
96	0xbe80976c	-0.25115526
97	0x3ea20802	0.31646734
98	0x3e5a1394	0.21296531
99	0xbe3fe78c	-0.18740672
100	0x3ec4d625	0.3844463
101	0xbd92a2f4	-0.07159987
102	0xbeac2e4a	-0.33629066
103	0xbe4ea074	-0.20178396
104	0xbeb3bc1d	-0.35104457
105	0x3e87f1a5	0.26551548
106	0xbd1c0ab8	-0.03809616
107	0x3ec23070	0.3792758
108	0x3d41e7e0	0.047340274
109	0xbe940b80	-0.28915024
110	0x3ebfb762	0.37444597
111	0xbebf0f81	-0.37316516
112	0x3eaaeb18	0.33382487
113	0xbe1f89b8	-0.1557988
114	0x3e3c47d5	0.18386777
115	0xbe42ef37	-0.19036566
116	0xbe52a8ac	-0.20572156
117	0x3e497317	0.1967281
118	0xbdf03b47	-0.11730056
119	0x3c891ec0	0.016738296
120	0xbeaeba0f	-0.34126326
121	0xbeb8756f	-0.36027095
122	0x3dd862d1	0.10565723
123	0x3e166eac	0.14690655
124	0x3ea2ce44	0.31797993
125	0x3eb22d16	0.34800023
126	0xbeb3ec03	-0.35141
127	0xbe936641	-0.2878895
128	0x3eb69345	0.35659233
129	0x3e58ea39	0.21183099
130	0x3e3327bb	0.17495625
131	0xbe92db54	-0.2868296
132	0xbdedc279	-0.11609358
133	0xbe8cca3d	-0.27498046
134	0x3e373c0e	0.17894003
135	0x3e31a0ca	0.17346492
136	0x3e89f28f	0.2694287
137	0xbe11009a	-0.14160386
138	0x3e9637c3	0.29339418
139	0x3e0393a4	0.12849289
140	0xbe654fde	-0.22393748
141	0xbd165545	-0.036702413
142	0x3ea37d0e	0.31931347
143	0xbea94806	-0.33062762
144	0xbe15fd4a	-0.14647403
145	0x3d82ac71	0.06380547
146	0x3e887ffd	0.26660147
147	0xbe63c54b	-0.2224323
148	0x3e5e903b	0.21734707
149	0xbebb5753	-0.3659006
150	0xbe0ebccc	-0.13939208
151	0x3d39a8bb	0.04532693
152	0xbb147891	-0.002265487
153	0xbc94843a	-0.018129457
154	0x3e794f96	0.24346766
155	0xbe1d777e	-0.15377614
156	0xbd3771e9	-0.044786368
157	0x3eb3cb50	0.35116053
158	0x3e6dee25	0.23235376
159	0xbd80c35a	-0.0628726
160	0xbdaae7af	-0.083449714
161	0xbdad778a	-0.08470066
162	0x3d2ed008	0.042678863
163	0x3e050071	0.1298845
164	0xbc1ffb63	-0.009764525
165	0x3e6e5307	0.2327386
166	0x3e845a2f	0.25850055
167	0x3de9ace8	0.114099324
168	0x3e833b00	0.2563095
169	0x3d93d534	0.072184
170	0x3e5eb33f	0.21748064
171	0x3e8ab38e	0.27090114
172	0x3e65039b	0.22364657
173	0xbdae0133	-0.084963225
174	0xbceb506c	-0.028724872
175	0xbd17c404	-0.03705217
176	0xbea64cd2	-0.32480484
177	0x3eb4fadc	0.3534764
178	0x3e35c36c	0.17750329
179	0x3e8da0c0	0.27661705
180	0xbde1dec0	-0.11028814
181	0xbe63dc4f	-0.2225201
182	0x3dc980d3	0.098390244
183	0x38aaf70a	8.152246e-05
184	0xbe26bb7f	-0.16282462
185	0xbec4dc11	-0.38449147
186	0xbe92c009	-0.28662136
187	0xbecdea6d	-0.40217915
188	0x3e353ea6	0.1769968
189	0xbe821a49	-0.2541068
190	0x3e62d8db	0.22153036
191	0x3e669b52	0.22520187
192	0x3deed614	0.11661926
193	0xbe52b715	-0.20577653
194	0xbe47399c	-0.1945557
195	0xbe6d328d	-0.23163815
196	0xbe7a2f51	-0.24432112
197	0xbe0bbc55	-0.13646062
198	0x3eba1188	0.363415
199	0x3ec3ae6d	0.38219014
200	0xbe166094	-0.14685279
201	0xbe5e2436	-0.21693501
202	0xbe7c8f7a	-0.24664107
203	0xbe2dc510	-0.16969705
204	0x3d88bb57	0.06676357
205	0xbd99fe11	-0.075191624
206	0x3e3fe4a0	0.18739557
207	0x3bc7a436	0.0060925735
208	0xbeb90f44	-0.3614446
209	0x3e37e74a	0.17959324
210	0x3ec06db0	0.37583685
211	0xbe9817cc	-0.29705656
212	0xbdcd8447	-0.100349955
213	0x3d55bb1f	0.052180406
214	0xbe40888a	-0.18802086
215	0xbe0b57b6	-0.13607678
216	0x3e9b90df	0.30383965
217	0x3e69a8ac	0.2281825
218	0x3e40ca7d	0.18827243
219	0xbe3205e9	-0.17385067
220	0x3e504e1f	0.20342301
221	0xbdcfb56e	-0.10142027
222	0xbe28fbab	-0.16502254
223	0x3e9c7901	0.3056107
224	0xbde8dcbe	-0.11370228
225	0xbdd933ac	-0.10605559
226	0xbe0f8bb0	-0.1401813
227	0xbdf70d84	-0.12063125
228	0x3e92b078	0.2865026
229	0x3e42448e	0.18971464
230	0xbeaaa62b	-0.333299
231	0xbe3f7797	-0.18697964
232	0x3e4ef82d	0.20211859
233	0xbdbd8e28	-0.0925563
234	0x3e84ce41	0.2593861
235	0xbe6b924a	-0.23005024
236	0x3e73fdb2	0.23827246
237	0xbd6b8c20	-0.05750668
238	0xbe95bfe4	-0.29247963
239	0xbe9088d9	-0.28229406
240	0xbd0a20ac	-0.033722565
241	0xbeb0ad9e	-0.3450746
242	0x3e7a13fd	0.24421687
243	0xbc9cdf31	-0.019149395
244	0x3d035984	0.03206779
245	0xbce84e45	-0.028357634
246	0x3e7338d5	0.23752148
247	0x3eae3939	0.34028032
248	0xbdc87f80	-0.09789944
249	0xbeab029f	-0.33400437
250	0xbeab5928	-0.33466458
251	0x3d3c488f	0.045967635
252	0xbd241ef7	-0.040068593
253	0xbe727fae	-0.23681518
254	0xba9eca08	-0.0012114653
255	0xbec072e6	-0.3758766

sequential_53/dense_253/MatMul f4 [50, 10]
0	0xbe4b0c52	-0.19828919
1	0xb9c6a6c2	-0.00037889747
2	0xbd7e282a	-0.062050022
3	0xbe33239f	-0.17494057
4	0x3dda5759	0.106611915
5	0x3ea64335	0.3247315
6	0xbd4cf575	-0.050038774
7	0xbe85358c	-0.26017416
8	0x3ea80d4a	0.3282264
9	0xbe4d80a9	-0.20068611
10	0x3dc4c969	0.096087284
11	0x3dcf629f	0.10126232
12	0xbde8129a	-0.11331673
13	0x3e71fd87	0.2363187
14	0xbe8fd5e5	-0.28092876
15	0x3e25f251	0.16205718
16	0x3e39271c	0.18081325
17	0xbc9a51da	-0.018837858
18	0xbe8ea72a	-0.2786191
19	0x3e6d13e7	0.23152123
20	0x3dc7a907	0.09749036
21	0xbc1f768c	-0.009732854
22	0x3af8b37b	0.0018974388
23	0xbd46ae55	-0.0485061
24	0x3dd8ab3e	0.10579537
25	0xbea1a225	-0.3156902
26	0xbe7b309d	-0.24530263
27	0x3d6dcf4e	0.05805903
28	0xbe15a3ff	-0.14613341
29	0x3e8921ea	0.26783687
30	0xbe9923fb	-0.29910263
31	0x3e6aea51	0.22940947
32	0x3e9189d7	0.28425476
33	0xbdfb052d	-0.122568466
34	0x3e944abf	0.28963277
35	0xbe446e5f	-0.19182728
36	0x3dbfc949	0.09364564
37	0x3e3c322b	0.18378513
38	0xbe09b38a	-0.13447395
39	0x3e575f29	0.21032394
40	0x3e0b9bc0	0.13633633
41	0x3e770475	0.24122794
42	0xbe96d6fd	-0.29460898
43	0x3e6e8341	0.23292257
44	0xbe5e8fb2	-0.21734503
45	0x3dca3b85	0.09874634
46	0xbe280300	-0.16407394
47	0xbe5dc133	-0.21655731
48	0xbe9f93c7	-0.31167433
49	0xbe92f3f4	-0.28701746
50	0xbe768e9c	-0.24077839
51	0xbe6c18a6	-0.23056278
52	0x3e8c88f3	0.27448234
53	0xbea0b434	-0.31387484
54	0x3e8d9dbc	0.27659404
55	0xbe5f7623	-0.2182241
56	0xbdb4b360	-0.088232756
57	0xbe4a48b7	-0.19754301
58	0xbe951ea6	-0.29124945
59	0x3e30e509	0.1727487
60	0xbcc7ad6a	-0.024374682
61	0x3d6b8e02	0.057508476
62	0x3e9ba4d4	0.3039919
63	0x3e6dce60	0.23223257
64	0xbbf55616	-0.007487069
65	0x3e798891	0.24368502
66	0xbe351d28	-0.17686903
67	0xbe927772	-0.28606755
68	0xbe69d2d6	-0.22834334
69	0x3e2e62cc	0.17029876
70	0x3e4672a3	0.19379668
71	0xbe1d7276	-0.15375695
72	0x3e9136fd	0.28362265
73	0xbd4b3195	-0.049607832
74	0x3e4a4d32	0.1975601
75	0x3dfef428	0.12448913
76	0xbe5f7734	-0.21822816
77	0x3e598f04	0.21245962
78	0xbdacbb92	-0.08434214
79	0xbe6a2ad9	-0.22867908
80	0xbe184914	-0.14871627
81	0xbd903737	-0.070417814
82	0xbe81146d	-0.25210896
83	0xbe99acce	-0.30014652
84	0x3e83cded	0.25743046
85	0x3e698d78	0.22807872
86	0x3e648d06	0.22319421
87	0xbe2d6393	-0.16932516
88	0xbd83e651	-0.06440414
89	0xbe596569	-0.21230091
90	0x3e469e1a	0.19396248
91	0xbe8493be	-0.25893968
92	0xbea0a81e	-0.31378263
93	0x3e79b24c	0.24384421
94	0x3e838361	0.25686172
95	0x3e4020e6	0.1876255
96	0xbe022be4	-0.12712055
97	0xbe6a4815	-0.2287906
98	0xbe569b7c	-0.2095775
99	0xbe97ad44	-0.2962438
100	0x3e4a0ffd	0.19732662
101	0xbe0eab2b	-0.13932483
102	0x3ea4a18b	0.32154498
103	0x3e9298af	0.28632113
104	0x3e1ed8f9	0.15512456
105	0xbde95fa5	-0.11395196
106	0x3e97a83c	0.2962054
107	0xbe3ddfee	-0.18542454
108	0xbe36407b	-0.17798035
109	0x3e948a6f	0.29011866
110	0x3e71e50c	0.2362253
111	0xbe05f1d0	-0.13080525
112	0x3e65b95e	0.22433993
113	0x3e241c6f	0.16026472
114	0x3e522bb8	0.2052449
115	0xbd9994d2	-0.07499088
116	0xbe91cdff	-0.28477475
117	0xbe1a6690	-0.15078187
118	0x3e04e52e	0.1297805
119	0x3e376fc4	0.17913729
120	0x3ddedda1	0.10882116
121	0x3e97d172	0.29651982
122	0x3e29e294	0.16590339
123	0xbe2d70ec	-0.16937608
124	0xbe28212b	-0.16418903
125	0x3e99d59b	0.3004578
126	0x3ea50fec	0.3223871
127	0x3e16e0f1	0.14734246
128	0x3db63e47	0.08898597
129	0x3de9af83	0.11410429
130	0xbe933ee4	-0.2875892
131	0xbe528664	-0.20559078
132	0x3df45025	0.11929349
133	0x3e8e94c8	0.27847886
134	0x3ea28dfc	0.3174895
135	0x3df73721	0.12071062
136	0x3e06425f	0.13111256
137	0xbde2a4dc	-0.11066601
138	0x39b3c234	0.00034286233
139	0x3e9a027d	0.30080023
140	0xbe3e4303	-0.1858025
141	0x3e5b71de	0.21430156
142	0x3dcc1507	0.09964948
143	0xbe774792	-0.24148396
144	0xbdd2a0af	-0.10284554
145	0x3e72eb8f	0.23722671
146	0xbe8022ac	-0.25026453
147	0x3e2419e2	0.16025499
148	0x3e117234	0.14203721
149	0xbe26ffd9	-0.16308536
150	0xbd862f7d	-0.065520264
151	0x3e95bc63	0.2924529
152	0xbd6f0b63	-0.05836047
153	0xbdaa427a	-0.08313461
154	0x3aebfc73	0.0018004313
155	0x3dc27aa8	0.09496051
156	0xbce796da	-0.028270174
157	0x3e3bb7ff	0.18331908
158	0x3d988d27	0.07448798
159	0x3d9922a4	0.0747731
160	0xbdab45a3	-0.083628915
161	0x3e261889	0.16220297
162	0x3e4328c0	0.19058514
163	0x3de7b646	0.11314063
164	0xbde3a690	-0.11115754
165	0x3e157a5f	0.14597462
166	0x3e74b375	0.23896582
167	0x3e89e956	0.26935834
168	0xbe0368cf	-0.1283295
169	0x3d3717bf	0.04470038
170	0xbc918ccf	-0.017767338
171	0xbe678e6e	-0.22612926
172	0x3e846fb4	0.25866473
173	0x3e52a6d6	0.20571455
174	0xbd10c10d	-0.035340358
175	0x3e08ada7	0.13347493
176	0xbe9b4bea	-0.30331355
177	0x3d1a76f1	0.037711088
178	0x3a6b33e1	0.0008972269
179	0xbe2950b6	-0.16534695
180	0xbe3cc53a	-0.18434611
181	0xbe902f2a	-0.28160983
182	0x3cd4ab80	0.025960684
183	0xbe7cc315	-0.24683793
184	0x3e1f4c43	0.15556435
185	0xbd7c3398	-0.06157264
186	0xbe995059	-0.29944113
187	0x3e43d0a8	0.19122565
188	0x3e1c26ea	0.1524922
189	0x3dceccb1	0.100976355
190	0x3e301e41	0.17199041
191	0x3cd1bfda	0.025604177
192	0x3e2923c9	0.16517557
193	0x3e9ef789	0.3104823
194	0x3e0192d2	0.12653664
195	0x3e89115c	0.26771057
196	0xbd95447e	-0.072884545
197	0xbe0ec455	-0.13942082
198	0xbcebd9f1	-0.028790446
199	0xbe419821	-0.18905689
200	0x3e8a27df	0.26983544
201	0xbe1427e6	-0.14468345
202	0x3ceb3222	0.028710429
203	0xbc8e410a	-0.017364997
204	0xbe1231aa	-0.14276758
205	0x3e5aae08	0.2135545
206	0xbe540086	-0.20703325
207	0x3da3e94c	0.08003482
208	0xbc70ebdb	-0.01470467
209	0xbe61124a	-0.21979633
210	0xbe873fc1	-0.26415828
211	0xbd5739a5	-0.05254521
212	0xbe8d1433	-0.27554473
213	0xbe0ba350	-0.13636518
214	0x3e913d51	0.28367093
215	0x3e34683a	0.17617884
216	0xbe952efd	-0.29137412
217	0xbe73a978	-0.23795116
218	0x3e30df26	0.17272624
219	0xbe7657f0	-0.24056983
220	0x3de2b0f4	0.110689074
221	0xbe31bb78	-0.1735667
222	0xbe42f501	-0.19038774
223	0xbdbdf960	-0.0927608
224	0xbe83441c	-0.256379
225	0xbd4863f9	-0.048923466
226	0xbde3f7c7	-0.11131244
227	0x3e34a703	0.17641835
228	0xbd7a3af0	-0.061091363
229	0x3d8fc5e7	0.07020169
230	0x3e3708f2	0.17874506
231	0xbe4ce895	-0.20010598
232	0xbcd9a54a	-0.026568074
233	0x3e80a6e6	0.25127333
234	0x3e88e5c5	0.267378
235	0xbd3810fb	-0.04493807
236	0xbe42944b	-0.19001882
237	0x3dd0ed75	0.10201541
238	0xbcf41f91	-0.029800208
239	0x3cf9ee73	0.03050921
240	0xbd76b57f	-0.060231682
241	0x3ea27138	0.31727004
242	0xbe52f0e2	-0.20599702
243	0xbe5baa0f	-0.21451591
244	0xbe087725	-0.133267
245	0x3dfdcaf7	0.12392228
246	0xbc00e180	-0.007866263
247	0x3e8c7bf5	0.27438322
248	0x3e931a1c	0.28730857
249	0x3e8115d8	0.25211978
250	0xbe8c6d56	-0.27427167
251	0xbe5c9bb1	-0.21543767
252	0xbdb4aa1a	-0.08821507
253	0x3dd1bf25	0.10241536
254	0x3e7b72b0	0.24555469
255	0xbe33c964	-0.17557293

sequential_53/dense_254/MatMul f4 [2, 50]
0	0xbcffa920	-0.031208575
1	0x3e1dd6e4	0.15414006
2	0x3e351480	0.17683601
3	0x3d63df47	0.055632856
4	0xbe238697	-0.1596931
5	0x3e6e3973	0.23264103
6	0x3e90af5b	0.28258786
7	0x3c2d969e	0.010594992
8	0xbd343900	-0.043999672
9	0x3d37f35f	0.04490983
10	0xbe538c9b	-0.20659105
11	0xbdb301ea	-0.087405995
12	0xbe4f0d53	-0.20219927
13	0xbd527a31	-0.051386062
14	0x3e49b4d3	0.19697885
15	0x3e1ea970	0.15494323
16	0xbe8e9e17	-0.27854988
17	0x3de545c9	0.11194951
18	0x3cceafec	0.02523037
19	0xbe5a843e	-0.21339509
20	0x3bf3e908	0.007443551
21	0xbe6d6b5c	-0.23185486
22	0x3e230f25	0.15923746
23	0xbe3455ab	-0.17610805
24	0xbdca6c6d	-0.09883962
25	0x3de16cd0	0.110070825
26	0x3eaf5c8d	0.34250298
27	0x3e725886	0.23666582
28	0x3ea18b7f	0.3155174
29	0x3dc38052	0.095459595
30	0xbe8f2196	-0.27955312
31	0xbcbe61e6	-0.023240041
32	0xbe180a1f	-0.14847611
33	0x3e724d9a	0.23662415
34	0x3e308d49	0.17241396
35	0xbe19a2d5	-0.15003522
36	0x3e2becfd	0.16789623
37	0xbe092b35	-0.13395388
38	0xbe998ffa	-0.29992658
39	0xbc0dab3c	-0.0086467825
40	0xbea8fae9	-0.3300393
41	0xbe4298ba	-0.19003573
42	0x3e78dd8c	0.24303263
43	0xbc8b9889	-0.017040508
44	0x3e288d17	0.16460072
45	0x3db45bf5	0.08806602
46	0xbe9e2a57	-0.30891678
47	0xbe82ea81	-0.25569537
48	0xbdd620b6	-0.10455458
49	0xbde9c0e4	-0.11413744
50	0x3e65b538	0.2243241
51	0x3e286388	0.16444218
52	0xbe2dc365	-0.16969068
53	0xbd0c17ff	-0.034202572
54	0xbe5c31ad	-0.21503325
55	0xbdf57c1e	-0.11986564
56	0x3cf493cd	0.029855633
57	0x3e9166e2	0.28398806
58	0x3e384a77	0.17997156
59	0xbea24454	-0.31692755
60	0xbe2a8b13	-0.16654615
61	0xbe88e506	-0.2673723
62	0xbd57e035	-0.052704055
63	0x3ea559ae	0.32294983
64	0x3dcca441	0.099922664
65	0x3c5eb4cd	0.013592911
66	0xbe858d1e	-0.26084226
67	0x3e84c9cb	0.25935206
68	0x3e9604cb	0.29300532
69	0x3e816755	0.2527415
70	0xbe68820c	-0.22705859
71	0xbe584637	-0.21120535
72	0xbe9ca5f4	-0.30595362
73	0xbd4a3bf3	-0.04937358
74	0xbdf7979c	-0.12089464
75	0x3e9c7869	0.30560616
76	0x3e91f087	0.2850382
77	0xbd1f240e	-0.038852744
78	0xbdb89fbb	-0.09014841
79	0x3e9533b9	0.29141024
80	0xbea2b831	-0.31781152
81	0x3e74b6f1	0.23897912
82	0x3e4f4728	0.20241988
83	0xbc6b2573	-0.01435219
84	0x3e46587f	0.19369696
85	0xbe06bc91	-0.1315787
86	0xbe3761aa	-0.1790835
87	0x3e8bd448	0.27310395
88	0xbeb2ee08	-0.34947228
89	0xbbfeaa0c	-0.007771736
90	0x3d63de91	0.055632178
91	0xbc369867	-0.011144734
92	0xbdea4965	-0.1143978
93	0x3e97d062	0.2965117
94	0x3e794ff0	0.243469
95	0x3e0e5962	0.13901284
96	0x3ea06696	0.31328267
97	0xbe9d480d	-0.30719033
98	0xbe8a9a71	-0.27070954
99	0x3ea3cae7	0.3199074
