TFLite_trained_models/FC 10+50_Wine.tflite (tflite, 4900 bytes, 6 tensors)

sequential_52/dense_249/BiasAdd/ReadVariableOp f4 [10]
000000 2d c4 e5 b9 e5 fd 84 bb 12 15 82 3c 03 03 98 3c
       -0.00043824446 -0.004058587 0.015879188 0.018556124
000010 f5 02 c1 bb 27 ff 78 3c e5 67 8f bc 2e 53 d2 3c
       -0.005890245 0.015197552 -0.017505595 0.025674429
000020 84 c0 70 3c a1 30 a7 bc
       0.014694337 -0.02040893

sequential_52/dense_250/BiasAdd/ReadVariableOp f4 [50]
000000 5d b3 c4 3c 58 7d a1 3c 51 24 38 bc 99 61 a2 bb
       0.024011308 0.019713089 -0.011239127 -0.004955482
000010 9e 7f a5 bc d2 3c 50 3c e0 7a 9d 3b 69 54 27 3c
       -0.020202454 0.012709813 0.0048059076 0.010212996
000020 d4 d3 04 bc 65 02 c1 bc 71 fd b5 bc e6 58 5e bc
       -0.008107144 -0.023560712 -0.022215577 -0.013571
000030 c6 d6 08 3b 9a cd 8a 3c b2 fe 81 bc c5 67 97 3c
       0.0020879968 0.016943742 -0.015868519 0.018482098
000040 05 1c 62 bc 82 30 95 3c 97 83 a4 bc 98 7c 91 bc
       -0.013800626 0.018211607 -0.020082278 -0.017759606
000050 37 c8 e3 bb dc 73 72 3c cc d8 93 bc c9 88 8b 3c
       -0.0069513577 0.014798131 -0.018047713 0.017032998
000060 7d 8b 8e bc ce 6b 78 3c 16 de ef 3b 89 dd 61 bc
       -0.017400498 0.015162421 0.007320176 -0.013785728
000070 42 aa 66 3c 9e 24 10 bc 6c f9 8d 3a 68 71 b8 3c
       0.014078679 -0.008797793 0.001083178 0.022515014
000080 35 99 69 bc a4 87 7f bc 05 0f a5 3c 53 d9 d9 3c
       -0.014257719 -0.015596304 0.020148763 0.026592886
000090 83 a6 58 3c 3f 1b 93 bc ff e9 5e 3c e4 1b a5 3c
       0.013223293 -0.017957328 0.013605594 0.0201549
0000a0 39 03 24 3c 35 e4 61 3c 20 bf 86 3c 80 9c c8 bb
       0.010010534 0.013787319 0.016448557 -0.006122172
0000b0 27 15 51 3c 79 a5 58 3c ad c6 72 3c fa 23 af 3c
       0.012761391 0.0132230455 0.014817876 0.02137946
0000c0 92 69 9b 3c 58 32 a5 bc
       0.018971238 -0.020165607

sequential_52/dense_251/BiasAdd/ReadVariableOp f4 [3]
000000 58 6d 8e bc f1 a1 31 3c 97 ee bb 3c
       -0.017386124 0.0108418325 0.022940917

sequential_52/dense_249/MatMul f4 [10, 13]
000000 80 90 87 3e de d2 a2 bd a2 51 60 be c6 54 ee bd
       0.26477432 -0.07950376 -0.2190614 -0.11637263
000010 c7 bb f6 3d b4 46 43 3e 74 9d 54 3d ce ba ee 3d
       0.120475344 0.1906994 0.05190797 0.11656724
000020 20 40 89 3e 20 46 e9 be 74 5f 58 be d3 3c bb 3e
       0.26806736 -0.45561314 -0.21130162 0.36569843
000030 fa a1 db be 95 55 d6 be 8e 5a 20 be e4 85 01 3e
       -0.42897016 -0.4186217 -0.15659544 0.12648731
000040 09 f4 34 3e bc 64 c4 be 73 70 bf be 0b ce 96 3d
       0.17671217 -0.38358104 -0.3739048 0.07363518
000050 3c 43 c9 bd ca e1 c7 be 29 ee be be 18 8c fc 3e
       -0.09827277 -0.3903945 -0.37291077 0.49325633
000060 77 e0 97 be d6 ef 4b bd 05 8a 8a be c2 51 da 3e
       -0.2966344 -0.049789272 -0.27058426 0.426405
000070 56 8b c3 3e 1a 75 11 3e c9 5b 89 3e 1d d4 80 be
       0.38192242 0.14204827 0.2682784 -0.2516183
000080 90 35 84 3e 03 2d 78 be a4 59 ac 3e 77 4f 89 be
       0.25822115 -0.2423592 0.3366214 -0.2681844
000090 f8 8c 9a 3e 2a 69 43 be 72 10 3f bd 5c 74 e5 be
       0.30185676 -0.19083086 -0.046646543 -0.44815338
0000a0 c2 45 79 be f5 a1 23 3e 2c a5 ac 3e fb 57 2a be
       -0.24343017 0.1597975 0.33719766 -0.16635124
0000b0 bc f5 dd 3e e0 17 3a be 90 e2 89 be f1 5c 9b bd
       0.43351543 -0.1817317 -0.26930666 -0.075860865
0000c0 e0 9c 12 3d 24 37 8c be 6e 48 9c 3e 3d 8d 6b 3e
       0.03579414 -0.2738582 0.3052401 0.23003097
0000d0 0a 7e b0 be 34 b7 25 be 6c 70 ec 3e 72 50 e1 be
       -0.3447116 -0.16183168 0.4617952 -0.44006687
0000e0 d9 3f e0 3e c2 52 cf be 4a 98 3a 3e ee 0a d4 be
       0.43798712 -0.40492827 0.18222156 -0.4141459
0000f0 77 80 d2 be 49 11 4c bc 04 5b 58 be 98 d9 fb 3e
       -0.41113636 -0.012455293 -0.2112847 0.49189448
000100 2e ed 0e be 59 45 d7 be 55 29 e6 3e 43 0b 00 3f
       -0.13957664 -0.42045096 0.4495341 0.50017184
000110 53 1d c2 be 1c e7 36 3e d8 ba c9 3e eb 7f 02 3f
       -0.37912998 0.17861599 0.39400363 0.5097644
000120 f6 0d 90 3e f7 fe c3 3d 41 41 03 bd 16 3e 18 3d
       0.2813565 0.09570115 -0.032044653 0.037168585
000130 7a d0 cb 3e b4 96 61 3e 39 f4 9b be 57 c0 cb 3b
       0.39807492 0.22030145 -0.30459765 0.006217997
000140 10 41 f9 bd 9c f8 ec be b3 46 87 3c 88 55 08 3d
       -0.12170613 -0.46283424 0.016513204 0.033284694
000150 a1 6b c7 3e cd cf a0 be b4 73 94 3e 39 74 a1 3e
       0.38949302 -0.3140854 0.28994524 0.31533983
000160 b9 fe f5 be e4 e3 e6 be fe 8d c8 3d 52 b8 e5 3e
       -0.480459 -0.45095742 0.09792708 0.44867188
000170 cb 65 e7 be ed 75 cf be 41 96 e9 be 70 21 d0 be
       -0.4519485 -0.40519658 -0.45622447 -0.4065051
000180 73 9c ac 3e 0a 30 b6 bd 79 46 92 3e ad 62 98 3e
       0.3371311 -0.088958815 0.2856939 0.29762784
000190 d1 0b 5c be 40 a0 84 3c a6 3d 02 be 3f 68 25 be
       -0.21488883 0.016189694 -0.1271883 -0.16153048
0001a0 4e b9 f7 3e f7 a5 46 3e c6 8a af 3e 14 6f a2 3e
       0.48383564 0.19399248 0.34285563 0.3172537
0001b0 85 70 bb 3e 94 6d 05 3f 4e 8d db 3d 1b e0 cd 3e
       0.36609283 0.5212033 0.10720311 0.4021004
0001c0 d3 c7 e1 be 70 63 4e be 09 b0 6a 3e 0e 19 a3 3d
       -0.44097766 -0.2015512 0.22918715 0.07963763
0001d0 93 9d eb bc 45 64 77 be 26 79 2c be 00 78 db be
       -0.02876166 -0.24159344 -0.1684309 -0.4286499
0001e0 a5 de 71 be cf 2d 7c bd df 89 50 be 1b 7e e5 3e
       -0.23620088 -0.061567124 -0.20365094 0.44822773
0001f0 3c 29 af 3e 43 59 09 be 6f 34 c0 3e d7 2d fd be
       0.34211147 -0.13412957 0.37540004 -0.49449036
000200 18 71 cb 3e 78 82 e7 3e
       0.3973472 0.45216727

sequential_52/dense_250/MatMul f4 [50, 10]
000000 38 df a0 be 59 cb 8b bd e8 70 5f 3e bb 68 89 3e
       -0.31420302 -0.06825895 0.21820414 0.26837716
000010 a2 8d 19 be 93 dd 71 be 86 4d a2 bd a2 a2 15 3e
       -0.14995435 -0.2361968 -0.07924943 0.1461282
000020 97 f8 88 be 96 f6 86 be cc 0f 0d 3e 47 db 02 3e
       -0.2675216 -0.26360005 0.13775557 0.1277896
000030 e1 f6 87 bd c9 67 8f 3e 92 bd 5a 3e 4e eb 54 3e
       -0.06638885 0.2800887 0.21361378 0.20792887
000040 ab 6d 77 3d ec d0 4c 3e 44 43 44 3e 59 1a 0c be
       0.060407322 0.20001572 0.19166285 -0.13681926
000050 9e ce 6b 3e 2c 6a 94 3e c0 67 0a be cf 68 39 3d
       0.23028037 0.28987253 -0.1351614 0.04526597
000060 1d cd 2c 3e 7e d0 06 3e 1e a8 8c 3e e0 94 01 be
       0.1687512 0.13165471 0.27472013 -0.12654448
000070 ac 5e 87 3e 99 22 0b 3e eb 1c 8c be 8a d8 db 3c
       0.26439416 0.13587417 -0.27365813 0.026836652
000080 72 81 ab 3e fa f6 42 be 00 2f 0f be 1e 3a e0 bd
       0.33497196 -0.19039527 -0.13982773 -0.10948585
000090 15 ef 13 be 4e ab e8 3d 16 1e 84 3e 27 9f 5d be
       -0.14446671 0.11360799 0.25804204 -0.21642743
0000a0 3b ae 17 be 34 8f 35 bd 12 a8 47 3d 51 9c 35 3d
       -0.14812557 -0.044326022 0.04874427 0.044338528
0000b0 c1 25 02 3d b1 ad 96 be f9 ee 51 3d 86 cc 94 bd
       0.031774286 -0.2942939 0.051253293 -0.07265572
0000c0 d1 75 4a be 1e c0 9b be a8 15 9c 3d ce 6f 7c 3e
       -0.19771506 -0.3042001 0.07621318 0.24652025
0000d0 61 6a 3e 3e 4c 2f a1 3e a7 82 10 be 35 a0 45 3e
       0.18595268 0.31481397 -0.1411234 0.19299395
0000e0 01 b2 98 be 42 a0 a1 bd 74 cd 91 3e b4 b6 94 be
       -0.29823306 -0.07891895 0.2847706 -0.2904564
0000f0 7e dd 7f 3e d5 ae 38 be 3a 0f 8d 3e 12 c0 7b be
       0.24986836 -0.18035443 0.2755068 -0.24584988
000100 67 80 00 be 8b bd 84 be 9a 22 25 be bc f9 d4 bd
       -0.12548982 -0.2592586 -0.1612648 -0.103991956
000110 0e 08 4e 3e c1 08 f3 bd 30 b6 0c 3e a4 72 8a 3c
       0.2012026 -0.11866904 0.13741374 0.016900368
000120 39 7a 92 be 97 ad da bd 74 d6 98 3e c6 32 45 be
       -0.28608873 -0.10677641 0.29851115 -0.1925765
000130 20 ca 97 3e 40 bd 3e 3d 75 17 97 3e f1 80 00 3e
       0.29646397 0.0465672 0.29510084 0.12549187
000140 00 cf 10 bd 44 50 93 3e 30 15 85 3e 42 64 73 3e
       -0.03535366 0.28772175 0.25992727 0.23768714
000150 54 76 65 bc 4c b8 96 be 7c d3 98 3c 11 6a 9d bd
       -0.014005262 -0.29437482 0.018655531 -0.07686246
000160 73 7e 09 3e c6 83 6f 3e 69 f9 2e 3e 9f c7 09 be
       0.13427143 0.23390111 0.1708733 -0.13455056
000170 da 37 74 be 59 5a ac bc cd 92 15 be 24 6c a8 bd
       -0.2384943 -0.021039175 -0.14606781 -0.08223751
000180 f7 53 a9 3d 1c eb 77 bc 4f b1 05 3e 1e e6 20 3e
       0.08267968 -0.015131738 0.13055919 0.15712783
000190 f5 c5 ab bd 39 69 d0 bd 55 76 73 3e 9c 85 f3 3c
       -0.08387367 -0.1017632 0.23775609 0.029726796
0001a0 9d 93 81 3e a2 75 e0 3d 3c 0f 91 3d 3e f8 82 3d
       0.25307932 0.10959937 0.07082984 0.06395005
0001b0 9b 77 8f be 30 54 b1 3d 93 1e 56 3e 23 5b 5d 3e
       -0.2802094 0.086586356 0.209101 0.21616797
0001c0 24 f6 38 be 97 15 a3 be 39 e8 88 be 95 cc 1e 3e
       -0.18062645 -0.3185241 -0.26739672 0.1550773
0001d0 61 71 73 3e e6 47 33 3d 41 36 92 be 29 ab 2e 3d
       0.2377372 0.04376974 -0.28557017 0.0426437
0001e0 9c 3d 95 be 81 00 86 bd 1b 1a e7 3c 4f 74 d9 bd
       -0.29148567 -0.06543065 0.02821069 -0.10617887
0001f0 d3 91 e7 bc ba 2d 91 3e a0 e6 86 bd b7 ab 87 3d
       -0.028267777 0.283552 -0.06586957 0.06624549
000200 c9 7d 79 be 1e ec 2a 3c a0 dc ab 3d 0e 44 21 3e
       -0.2436439 0.010432271 0.0839169 0.15748617
000210 a5 c0 cd 3d c0 16 c8 3d cb 3e 00 3e 10 ee fe 3d
       0.1004651 0.09769964 0.12523954 0.124477506
000220 56 ad 12 3e 52 84 6b 3e 7e a5 a2 3e b3 76 37 3e
       0.14323935 0.22999695 0.31766886 0.17916374
000230 ee b0 9b 3e a3 a5 90 be 4b b7 96 be af 27 37 3e
       0.30408424 -0.2825137 -0.29436716 0.17886232
000240 91 8c 22 be d1 e2 7e 3e 47 e2 9c 3e 54 c0 92 be
       -0.15873934 0.24891211 0.30641386 -0.2866236
000250 8a d4 8f be 71 d1 93 be 9e 7b 85 3e bd ba 52 be
       -0.28091842 -0.2887073 0.26070875 -0.20579048
000260 57 e7 50 3d 01 01 6d bd c2 80 8b be 6f d9 56 be
       0.051001873 -0.057862286 -0.27246672 -0.20981382
000270 6c 31 eb bd 1a 2d da bb dc 4e 0b be 48 41 ca 3b
       -0.11484036 -0.0066582086 -0.13604301 0.006172333
000280 f0 0d ed bd 60 81 01 3e d3 6b 1c bd f9 a5 69 be
       -0.11574924 0.12647009 -0.038188767 -0.2281722
000290 f3 af f1 bd 5b ef 9b bd 82 67 7c 3a 2b b2 83 bd
       -0.11801138 -0.07614013 0.0009628461 -0.06430467
0002a0 d3 59 84 bd 13 52 80 3e f1 26 91 3e bb c6 86 be
       -0.06462445 0.25062618 0.28350022 -0.26323494
0002b0 d1 25 28 3e e0 f9 6f be 96 6c 87 be f5 76 3f be
       0.16420676 -0.23435163 -0.26450032 -0.18697722
0002c0 e5 e8 4c be c6 ab c2 bd 2c ec 85 be ac 9c 94 be
       -0.20010717 -0.095054194 -0.26156747 -0.2902578
0002d0 b5 60 53 3d 3a c3 f3 3d 9d bf 8b 3d d2 c7 90 be
       0.0516059 0.11902471 0.06823657 -0.2827745
0002e0 ed 27 55 be b7 4a 3b be de 9f 0c 3d e5 12 1b be
       -0.20816012 -0.1829022 0.03433215 -0.15143926
0002f0 5a 30 46 bd 51 d5 fc 3d e1 33 a1 bd 59 3f b4 bc
       -0.048385955 0.123453744 -0.07871223 -0.022002863
000300 7c 4a 7f be 2f 9d 0d be 80 7b 8f 3e 44 ae 66 bd
       -0.24930757 -0.13829492 0.2802391 -0.056318536
000310 04 9a 6d 3d a9 71 46 be 23 cc 88 bd 4c 14 73 3d
       0.05800821 -0.19379295 -0.06679561 0.05934553
000320 9c 9a 88 3e 78 da 89 3d 4e cf 23 be 7b 9f 14 3e
       0.26680458 0.06731123 -0.15997049 0.14513962
000330 22 9b 23 3e 11 f5 3e 3e 84 47 7e 3e 1a 1c 39 3e
       0.15977147 0.18648173 0.24831969 0.18077126
000340 d6 e0 b4 3d f3 e9 d1 3d 37 7b 33 bd 6b e2 b0 bd
       0.088319466 0.102497004 -0.04381868 -0.08636936
000350 75 67 83 3e 36 0c bc 3d b5 20 df bd 64 0c 96 be
       0.2566487 0.091820166 -0.1089491 -0.29306328
000360 05 32 89 3e 9b 0f b4 3d cb 4b 80 be bb dc 9c 3d
       0.26795974 0.08792039 -0.25057825 0.076592885
000370 e8 a2 8e be 77 45 99 3e 1b 64 48 be c6 b9 6d 3e
       -0.27858663 0.2993581 -0.19569437 0.23215398
000380 a2 16 31 3d 25 74 47 be 47 b1 14 3d 6f c0 64 bc
       0.043234475 -0.194779 0.036301877 -0.013961895
000390 b2 8b 71 3c 73 3b 1b 3e 33 dd 9e be 92 23 6c 3d
       0.014742779 0.15159397 -0.31028137 0.05765111
0003a0 5e bc 52 be 3e 51 d5 bc 1f 67 67 3e 0f 6b 27 be
       -0.20579669 -0.026039716 0.22597931 -0.16349433
0003b0 8c 3b 05 3e 3f ce 29 3e ef 4c dd bd 18 76 08 ba
       0.13010997 0.16582583 -0.108056895 -0.00052055856
0003c0 b7 d0 5b bd 68 2e 0d 3e 6c 71 2c be 0d e5 74 bd
       -0.053665843 0.13787234 -0.16840142 -0.059788752
0003d0 2d 3b a6 3e 51 29 a6 bc b9 52 5a be ee b2 89 3c
       0.32467023 -0.020283373 -0.21320619 0.016808953
0003e0 1f de 83 be 31 14 48 3e bd 6d 54 3d 3a 51 a6 bc
       -0.25755402 0.19538952 0.051862467 -0.020302404
0003f0 5f a4 82 bd fa fe a2 bd 4b 31 f0 3d 9b 1b 08 3e
       -0.063790075 -0.07958789 0.11728152 0.1329178

sequential_52/dense_251/MatMul f4 [3, 50]
000000 a7 76 52 be 58 72 3d be 16 95 7f 3e 6d ee b9 3d
       -0.20553075 -0.1850065 0.24959216 0.09078679
000010 50 44 af 3e ce 79 ed bc aa 2c 69 bd b7 ba 42 be
       0.34231806 -0.028988745 -0.05692736 -0.19016539
000020 48 ba ba 3c 8a 47 8f 3e d9 e9 3b 3e 26 e8 0b 3e
       0.022793904 0.27984267 0.18350925 0.13662776
000030 fa 85 c3 bd 52 b5 30 3e 82 66 06 3c e4 f5 46 bd
       -0.095470384 0.17256668 0.008203151 -0.048574343
000040 23 ed ef 3d 10 97 98 be ef 45 7d 3e 88 d9 69 3e
       0.11715152 -0.29802752 0.24733709 0.22836888
000050 df 66 33 3e a6 c6 64 be ef bf b4 3d 33 94 45 be
       0.17519711 -0.22341403 0.08825671 -0.19294815
000060 87 be 2a 3e fe 40 9d bd d3 a4 4f be b8 bd aa 3e
       0.16674243 -0.07678412 -0.20277719 0.3334787
000070 ff ce d1 bd e0 4d 11 3e 3f 86 c6 bd 32 ff 84 be
       -0.102445595 0.14189863 -0.09693574 -0.2597595
000080 74 5a b1 3d 12 0b 84 3e 63 4a 36 be 29 78 22 be
       0.08659831 0.25789696 -0.17801814 -0.1586615
000090 d9 b5 f9 bd 67 ee a3 3e 0e 19 83 bd 85 1c 67 be
       -0.12192888 0.32017824 -0.06401263 -0.22569473
0000a0 7f 81 33 bd 7e f0 e0 bd fc 3c 7e be e8 ad 44 3d
       -0.04382467 -0.1098337 -0.24827951 0.048017412
0000b0 42 a1 5d bd 55 b6 cf 3d c5 0a 13 be a3 74 4b 3e
       -0.054108866 0.10142199 -0.14359577 0.19868712
0000c0 b2 96 23 be a8 a7 f5 3d 6c 93 8d be d5 80 d6 3c
       -0.15975454 0.119948685 -0.27651536 0.026184479
0000d0 56 4b bb bd 44 ac 6c be ea 70 e2 3d 16 4f 9e 3e
       -0.091452286 -0.23112589 0.11056693 0.30919713
0000e0 37 08 81 3e d0 b3 87 3e 9f 27 46 3e ca 7a a9 3e
       0.2520158 0.26504374 0.19351052 0.33101493
0000f0 a1 c9 10 3e 41 b6 3a be d3 1d 12 3e 40 5b 98 3e
       0.14139415 -0.18233587 0.1426919 0.29757118
000100 a2 fd 06 be 63 51 15 3d 29 8f 3a be 29 33 c0 3d
       -0.1318269 0.03645457 -0.18218674 0.09384758
000110 30 67 e2 3c 29 8f 70 be 8f 83 8d 3e 2f 1c f6 bd
       0.027637094 -0.23492111 0.27639434 -0.12017094
000120 91 05 78 be 58 81 be 3d dc 33 07 be ec d7 6c 3e
       -0.24220873 0.09302014 -0.13203377 0.23129243
000130 3f ed 05 3e 33 c5 db 3d 87 c7 54 3d 18 13 a5 3d
       0.13078783 0.10730972 0.051948097 0.080602825
000140 20 2f 6c be 56 8a 8e be d1 50 3d be 73 b0 3b be
       -0.23064852 -0.27839917 -0.1848786 -0.18329029
000150 aa 61 90 bd 53 91 3d be 2b 00 2b 3e fc 69 e3 bd
       -0.07049878 -0.18512468 0.16699283 -0.11104199
000160 4b 60 12 3e ff 62 97 bc 34 d5 9d 3e 93 28 8e 3e
       0.14294545 -0.018479822 0.30826724 0.2776533
000170 77 5d a2 3e d4 98 94 be 3d 4c 34 3e c4 c7 9e 3e
       0.31711933 -0.2902285 0.17607208 0.31011784
000180 02 5b 21 3d a8 1f 27 3e 7f 9e 4e 3d 2f 54 34 bd
       0.039393432 0.1632067 0.050444122 -0.044025596
000190 40 8c 11 3e e6 8d 77 3e c4 13 85 3e 59 51 60 3e
       0.14213657 0.24175224 0.25991642 0.21906032
0001a0 06 84 89 be dd d9 a6 3c 04 a4 5c be 9b 8e 6c be
       -0.26858538 0.020367557 -0.21546942 -0.23101275
0001b0 5e 91 0e be 0a 54 84 be 63 73 4f be bc ef c1 3c
       -0.1392264 -0.25845367 -0.2025886 0.023673885
0001c0 18 5e 66 be 20 a3 9a 3e 88 bb c8 bd 1c 22 5f 3d
       -0.22496831 0.3020258 -0.09801394 0.05447589
0001d0 84 f9 12 3d 48 95 3d 3e 18 51 aa be 24 4f 8c be
       0.035882488 0.18513978 -0.33264995 -0.2740413
0001e0 e1 c1 c8 3c 5f 0f 3b be a9 e6 98 be d1 79 a2 3d
       0.024506511 -0.18267582 -0.2986348 0.07933391
0001f0 1d 70 08 be f8 5c ce 3d 61 a5 8e be d6 4b 7a 3e
       -0.13324018 0.10076326 -0.2786055 0.24442992
000200 45 20 88 bd be a0 2f 3e 1c a6 1f 3d 23 17 4a be
       -0.0664678 0.17151162 0.038976774 -0.19735388
000210 21 d8 02 bd 05 5b 02 bc b5 18 f2 3d 90 04 e3 bd
       -0.031944398 -0.007956271 0.11821119 -0.110848546
000220 a8 f6 ee bc 43 a1 31 be 7f 6f 4b 3c 61 bf a0 3e
       -0.02917035 -0.17346673 0.012416719 0.3139601
000230 0f 19 a1 bd 26 aa 75 3c 48 60 4c 3e e5 1a 2a 3e
       -0.07866108 0.01499418 0.19958603 0.16611822
000240 45 c2 34 3c 1e ce 1d 3e c5 5b 8a bd a6 43 b6 3e
       0.011032646 0.15410659 -0.06755785 0.35598487
000250 d4 f0 4f 3e d9 68 a0 be
       0.20306712 -0.31329992
