TFLite_trained_models/FC 10+50_Iris.tflite (tflite, 4540 bytes, 6 tensors)

sequential_51/dense_246/BiasAdd/ReadVariableOp f4 [10]
000000 6e a2 aa bc 82 ef b7 bc bc 2a 1a bc 45 cc 50 bc
       -0.020829406 -0.022453073 -0.009409603 -0.012744014
000010 4d 5e e2 3b 5c d9 b3 bc b1 db 4d 3c 5c 0d 45 bc
       0.006908214 -0.021954231 0.012564586 -0.012027111
000020 07 98 a1 bc 92 5f 1d 39
       -0.019725813 0.0001500829

sequential_51/dense_247/BiasAdd/ReadVariableOp f4 [50]
000000 5f 37 bb 3b b5 bc 3e 3c 21 a5 9b 3c 82 98 97 bc
       0.005713388 0.011641671 0.018999638 -0.018505339
000010 5c 93 9a bc ca 0e 99 bc 05 4c 1f bc 49 66 91 bb
       -0.018869095 -0.01868381 -0.009722714 -0.004437242
000020 fd d8 a6 bc 53 4c 48 3c 81 c2 aa bb 24 49 80 bc
       -0.02036714 0.012225228 -0.005211175 -0.015659876
000030 fb 3b 8c bc 08 aa a5 bc 65 fe c6 3b 5f b2 ae 3c
       -0.017118445 -0.020222679 0.0060728067 0.021325288
000040 9e be 60 3c ee a9 a5 bc bf 9e 8d bc 15 e0 1b bc
       0.013717322 -0.02022263 -0.01728761 -0.009513875
000050 29 8b e5 3b ff b0 2d 3c 12 25 8a 3c 36 22 52 bc
       0.0070051146 0.010601281 0.01686338 -0.012825539
000060 68 63 19 bc 30 eb 02 bc 5e 31 b4 bc ff 3c 8e bc
       -0.009362079 -0.007990643 -0.021996196 -0.01736307
000070 dd 0c ad bc 5d 63 36 39 05 06 85 bc cb 88 6c 3b
       -0.021124298 0.00017393888 -0.016238222 0.0036092277
000080 96 1d 17 bc af 32 aa 3c 5b c1 d8 ba ba be 19 bc
       -0.009223362 0.020776121 -0.0016537117 -0.009383852
000090 f7 68 25 bc 04 a3 80 bb 30 8d b1 bc bf 90 63 3c
       -0.010095826 -0.003925683 -0.021673769 0.013889491
0000a0 99 66 8f 3c c4 a3 5c 3b 21 59 82 3c 47 51 f4 bb
       0.017504977 0.0033666948 0.01591164 -0.007455978
0000b0 5e d4 80 3b 40 f6 48 3c 0f 02 7a 3c 63 9b 3f 3c
       0.003931566 0.012265742 0.01525928 0.011694762
0000c0 d4 16 57 3c 4e 08 ed bb
       0.013128001 -0.007233656

sequential_51/dense_248/BiasAdd/ReadVariableOp f4 [3]
000000 97 8c 9a 3c 7b 28 d8 bb 3a ce 86 bc
       0.018865867 -0.0065966225 -0.016455758

sequential_51/dense_246/MatMul f4 [10, 4]
000000 1c 20 a7 3e 24 71 11 bd 12 0e e6 bb 3c 64 25 3f
       0.32641685 -0.03550829 -0.0070207203 0.6460607
000010 9b cc 17 bf 80 e0 10 bf 14 95 db be 20 d9 06 3f
       -0.5929658 -0.5659256 -0.42887175 0.52675056
000020 86 9d 24 3f 47 5a 94 bd 0a 8c a3 3e f1 88 c8 3e
       0.6430286 -0.072437815 0.3194278 0.39166978
000030 14 32 8b 3c 84 d2 e1 bb 32 ec eb 3e 04 73 7c 3e
       0.016991653 -0.0068915505 0.4607864 0.2465325
000040 91 d0 b5 3e cd 6d f0 bc dc bb e7 be 71 f3 0d 3e
       0.35510686 -0.029349232 -0.45260513 0.13862397
000050 19 bc 89 3e 83 d4 10 3e b0 25 14 3f b2 26 20 3f
       0.2690132 0.14143567 0.57870007 0.62559044
000060 60 f2 23 bf 7f 6b 25 3f 1c ff 25 bf 9e 6e f9 3d
       -0.6404171 0.6461715 -0.6484239 0.12179302
000070 6b bc 0d 3e 8c f1 05 bf 52 d0 05 bf 06 6a 48 3e
       0.13841407 -0.52321696 -0.52270997 0.19571695
000080 33 d8 49 be f7 3c cd 3e 14 73 cb bd 0f 14 9f 3e
       -0.1971138 0.40085575 -0.09934059 0.3106999
000090 e2 af cf 3d 96 a6 dd be fb 1f a5 be a3 e8 0e 3f
       0.10140969 -0.43291157 -0.32250962 0.55823725

sequential_51/dense_247/MatMul f4 [50, 10]
000000 c9 64 10 3d 00 c0 95 be 49 b8 5c be ab 5a 31 3e
       0.035252366 -0.29248047 -0.21554674 0.17319743
000010 bb 97 8c 3e 81 c2 7f 3e ec 72 53 3e 43 86 a1 3e
       0.2745951 0.24976541 0.20649308 0.31547746
000020 06 88 61 3e 38 ec 52 3e e1 c1 5f be 1e e4 1e be
       0.22024545 0.20597923 -0.21851303 -0.15516707
000030 63 8e 6f 3e ea e6 23 3d 26 25 07 3e 4c 60 21 3e
       0.2339416 0.04001514 0.13197765 0.1575939
000040 23 f5 66 3e 7c 56 57 be b4 77 ae 3e e5 af dc bd
       0.2255445 -0.21029085 0.340757 -0.10775737
000050 f7 e5 88 bd 19 b1 10 be 55 85 5b bd 0a 39 ee bd
       -0.06684487 -0.14130057 -0.053593952 -0.11631973
000060 36 2a c0 3d 41 26 01 bc dc 57 2e 3e 55 fe fd bd
       0.09383051 -0.007882656 0.17025703 -0.124020256
000070 07 7d 11 be b7 a5 f0 3d 39 07 5d 3e af e5 c6 3d
       -0.1420785 0.117503576 0.21584786 0.097117774
000080 47 06 46 3e e4 c1 59 3c c7 6f 8f bc 57 36 89 3e
       0.19338332 0.013290856 -0.017509354 0.2679927
000090 d9 d1 94 3e cc 77 8e 3e 3a a7 56 3e b2 48 95 bb
       0.2906635 0.27825773 0.2096223 -0.004555785
0000a0 7b 0a 50 3b c8 67 77 bc a5 d2 95 bd 05 f5 b1 bd
       0.0031744528 -0.015100427 -0.07315568 -0.08689312
0000b0 e1 92 77 bd b2 f0 85 be 3b 5b 50 bc 6e 59 1b bd
       -0.06044281 -0.26160198 -0.012717064 -0.037927084
0000c0 23 8a 04 3e 85 86 99 3c ea 3d 8b be 00 1a 71 3d
       0.1294332 0.018740902 -0.27195674 0.058862686
0000d0 b9 b8 a0 be fe 08 29 3c 00 fc 65 3e 85 b5 51 3e
       -0.31390932 0.010317085 0.22459412 0.204794
0000e0 61 c4 a2 3d 12 68 d4 bd 54 b2 40 bd 08 2f 21 3e
       0.079476126 -0.10371412 -0.047045067 0.15740597
0000f0 8f 8c 4a be d5 66 d2 bc 8a b8 9f be 11 16 5b be
       -0.19780181 -0.0256838 -0.3119548 -0.21395136
000100 90 0b 30 3d 5d 44 a0 3e e4 f0 9b 3e 80 df 92 3d
       0.042979777 0.31302157 0.30457222 0.071715355
000110 89 89 83 3d 45 50 61 3d 53 ec 9e be d2 d6 84 3d
       0.06422717 0.05500819 -0.31039676 0.06486286
000120 d0 9f 53 3d 09 40 e2 3d 71 ae 8c be 50 b0 4e 3e
       0.05166608 0.1104737 -0.27476838 0.20184445
000130 21 10 52 3e 0d be 86 bd 1e 60 9d 3e 6c f7 5f be
       0.20513965 -0.06579218 0.30737394 -0.21871728
000140 7a a7 93 be 60 51 94 3d bc d3 94 3e 6d 9c 5b 3e
       -0.28838712 0.072420835 0.2906779 0.2144639
000150 70 f3 16 3d c2 d9 3d 3e 61 50 5d 3e 41 76 3d 3a
       0.036853254 0.185401 0.21612693 0.0007227399
000160 c5 4a 31 3e b0 74 82 3e 47 7b 8b bd 9a 79 32 be
       0.17313679 0.2547965 -0.06810623 -0.174292
000170 3a 5f 57 3e 62 9c cb bd d4 92 0d be aa 83 a1 3d
       0.2103242 -0.09941937 -0.13825542 0.07886441
000180 07 d6 70 be 51 a6 56 bd f1 20 a3 3e de 98 3f 3c
       -0.23519145 -0.052404705 0.3186107 0.011694161
000190 0c 30 f0 3d 66 29 12 bd b4 ae 93 be ba a7 3d be
       0.11727914 -0.035684012 -0.28844225 -0.18521014
0001a0 d6 63 cd 3c 4e ed 33 3e 80 a4 8b be bc e4 60 3d
       0.02507202 0.17570993 -0.2727394 0.054905638
0001b0 5c e9 20 be 8e 3f a4 3e 37 fa 93 be 88 8b 88 be
       -0.1571402 0.32079738 -0.28901836 -0.26668954
0001c0 99 cb 3e 3e 83 9d fe bd de e0 8d be e4 35 1d 3e
       0.18632354 -0.12432387 -0.27710623 0.15352589
0001d0 39 66 e7 3d 17 8c 5f 3d 3c 96 8a 3e a5 c1 22 be
       0.11298794 0.05457696 0.27067745 -0.15894182
0001e0 0c 20 6e 3e c9 f7 31 3e 2e d8 92 3d 8e bd 23 3e
       0.23254412 0.17379679 0.07170139 0.15990278
0001f0 81 89 3a 3e 07 7e 9f 3e 6d 6d 1b be 79 dc 9d 3e
       0.18216516 0.3115084 -0.15178461 0.3083227
000200 82 83 b8 3c a8 64 51 be 74 3e a6 3d b7 2c 5c be
       0.022523645 -0.20448554 0.08117381 -0.21501432
000210 16 c6 99 3e 1f 7b 10 be a6 d5 78 be c5 e0 2e 3e
       0.3003394 -0.14109467 -0.2430025 0.1707793
000220 23 7b 6e be f1 7c 6d 3e 4e dd 33 3e fe cd 95 be
       -0.2328916 0.23192193 0.1756489 -0.29258722
000230 8b dd 76 3e 7d 34 0d bd 68 c8 a3 bc 13 86 4a be
       0.2410795 -0.034473885 -0.019993022 -0.19777708
000240 5c fb 77 3e d3 cd 84 be d9 8d 69 bc 07 c0 86 3d
       0.2421698 -0.2593828 -0.0142550105 0.06579595
000250 88 5a b4 b9 64 5b 9c be a7 5b 9d 3e 2c 00 03 3e
       -0.00034399726 -0.30538476 0.30733988 0.12793034
000260 a3 5f 49 3e 50 7e 8c 3e c1 a1 09 3c ba e2 0f be
       0.19665389 0.2744012 0.008400382 -0.14051333
000270 6d d5 91 3e 61 84 1c 3e 99 27 99 bd 34 71 39 be
       0.28483143 0.15284874 -0.07478256 -0.1810959
000280 1d 77 6b 3e d6 c2 39 be 28 08 57 3e 91 85 66 bd
       0.22994657 -0.1814073 0.20999205 -0.056279723
000290 92 10 8e 3c dd d6 23 3e c2 7a 6a be ea 50 21 be
       0.017341886 0.15999933 -0.22898391 -0.15753523
0002a0 d7 be 82 bd 8c 0b 23 3e 5e 6d 98 3e 20 39 d1 3d
       -0.06384056 0.15922374 0.2977094 0.10215974
0002b0 1e b6 d9 bd ac 09 17 3e 92 6b 24 3e b8 f6 68 be
       -0.10630439 0.14749783 0.1605666 -0.22750366
0002c0 29 af 00 bd a8 5c 8a be 98 b9 0e 3e 2f c5 07 be
       -0.031417046 -0.27023816 0.13937986 -0.13258813
0002d0 0d 20 bb 3c 35 e6 36 3e 12 85 16 be 34 30 12 be
       0.022842431 0.17861255 -0.146992 -0.142762
0002e0 7e 78 78 bd 10 31 8e bb 10 a7 90 be 8a 28 f1 3c
       -0.060661785 -0.004339345 -0.2825246 0.029438276
0002f0 57 48 49 3d a7 5c 71 3c c3 a5 05 3d 55 5b bb bc
       0.049141254 0.014731563 0.032628786 -0.022870699
000300 fc 8d 5f 3e 04 fd 05 3e 79 5e a8 be 4e be 4c be
       0.21831506 0.13084799 -0.32884577 -0.1999447
000310 0a ec 73 be 86 c2 36 3e b3 28 84 be e5 45 a4 bc
       -0.2382051 0.17847642 -0.258123 -0.02005286
000320 02 c7 5b be 17 2c 56 bd df ff 9b be e0 be 02 3e
       -0.21462634 -0.05228814 -0.30468652 0.12768126
000330 5a 79 70 be 83 ef cd 3c a2 d6 82 3e ce e6 23 be
       -0.23483792 0.025138622 0.25554377 -0.16006014
000340 ec a7 aa 3d da 8b 3e be 76 7c 14 be 64 65 32 be
       0.0833281 -0.18608037 -0.14500603 -0.1742149
000350 3a cd 88 be f9 33 98 bb fd 16 69 be 9a 5d e8 3d
       -0.26719075 -0.0046448675 -0.22762676 0.11345978
000360 11 75 98 3e 0f c0 3a 3d a6 06 8c 3d 20 0a 5b 3e
       0.29776815 0.045593318 0.068372056 0.21390581
000370 30 69 5c 3e f7 37 0c 3e 5f c2 95 3e df b0 b8 bd
       0.21524501 0.13693224 0.29249856 -0.090181105
000380 81 2e 2d 3e 94 de 0c 3e 10 56 5f 3e 6b c4 36 be
       0.16912271 0.13756782 0.21810174 -0.17848365
000390 28 48 48 3e 1a e2 cd bd f7 4b a3 3c ab 3b 17 3e
       0.19558775 -0.10052891 0.019933684 0.14768855
0003a0 d2 23 7a 3e 70 b2 10 be fc 4d 2a be 6c 20 01 3d
       0.24427727 -0.14130569 -0.16631311 0.03152506
0003b0 45 5f 5c be 5f ed b1 bd 9d 9d 88 bc d9 d8 61 be
       -0.21520717 -0.08687853 -0.016676718 -0.22055377
0003c0 cc e4 99 3e b9 26 5a 3e fd a4 80 3c 44 37 14 3d
       0.3005737 0.21303834 0.015703673 0.036185518
0003d0 6b 96 89 be f0 bf 02 be 4b ec 19 3e df 02 9c be
       -0.26872572 -0.12768531 0.15031545 -0.3047094
0003e0 46 66 1e be 43 27 14 be 7c 58 26 bd 56 4e 85 be
       -0.15468702 -0.14468102 -0.04061173 -0.26036328
0003f0 77 12 99 bd 6d 44 7e 3e b4 67 6e 3e 96 98 de bc
       -0.07474225 0.2483079 0.23281747 -0.027172368

sequential_51/dense_248/MatMul f4 [3, 50]
000000 bd 12 3f bd 2d 57 35 3e 6c d9 e3 3d 74 fe 8f be
       -0.04664873 0.17709036 0.11125454 -0.2812382
000010 76 72 a3 be 83 da 40 3e f1 31 bc bd 32 cf fc 3d
       -0.31923264 0.18833356 -0.09189213 0.12344207
000020 80 d7 f5 bd 73 c9 3c 3a e7 2e 7d be 99 3a 5c be
       -0.12003994 0.0007201649 -0.24724923 -0.21506728
000030 62 ed aa be 06 ce b3 bd 36 06 8c 3e 34 9c 25 bd
       -0.33384234 -0.0877953 0.2734849 -0.04043217
000040 5c 97 69 3e 23 3f 14 be 97 38 91 be fa 54 b3 3d
       0.22811645 -0.1447721 -0.28363487 0.08756442
000050 7d 2f 7a 3e 1e cc 65 3d c9 49 75 3e 9b 79 46 be
       0.24432178 0.056102864 0.23953928 -0.19382326
000060 97 b9 8c be db f4 e1 bd 58 5b ab be 58 c5 53 be
       -0.27485344 -0.110330306 -0.33468127 -0.2068075
000070 a4 db bb be 3a 06 d6 3c db f1 08 be b6 fb 86 bd
       -0.3669101 0.026126016 -0.1337351 -0.06590979
000080 ae 27 b8 3d 3d b9 4b 3e a5 1f c5 bd fc cc 6f be
       0.08991943 0.19894882 -0.09625176 -0.23418039
000090 8b e8 b0 be 0d f5 e5 bd 59 a0 4c bd e4 29 ea 3d
       -0.34552416 -0.1122838 -0.049957607 0.11433771
0000a0 8b 87 83 3d f1 0b 8f bd 2a 74 d9 3d 82 e2 3f bc
       0.06422337 -0.069846995 0.1061786 -0.0117117185
0000b0 45 2d 3f be 82 95 42 3e d1 a2 4d be 4b 71 27 be
       -0.18669613 0.19002345 -0.20081641 -0.16351812
0000c0 f8 f7 dd 3d 25 86 f5 3d 89 2f d7 3d a7 a5 9d 3e
       0.10838312 0.11988477 0.105071135 0.30790445
0000d0 5c f3 8b 3d 87 2a 8b 3e 43 2a 01 be 76 ef 53 3e
       0.068335265 0.27180883 -0.12613778 0.20696816
0000e0 45 04 80 be 19 ac 59 3d 81 8c fc 3d a5 3b 88 bd
       -0.25003257 0.05314264 0.123314865 -0.06652001
0000f0 01 05 8f 3e 6b 42 7c be a0 cb 9f be d5 5e 37 3e
       0.27933505 -0.24634711 -0.3121004 0.1790727
000100 7d 82 ce bd eb 97 1b be fd 97 0f 3d ff aa f9 3d
       -0.100834824 -0.15194671 0.035057057 0.12190818
000110 5a 93 57 3e fb 05 31 3c d1 be 92 be 66 a9 12 3e
       0.21052304 0.0108046485 -0.28661206 0.14322433
000120 54 0d 99 be f8 f5 76 3e 36 40 a3 be 62 70 9c 3e
       -0.2989298 0.24117267 -0.31884927 0.3055449
000130 45 6c f7 bd 1f d3 47 be 22 51 41 be b8 1f a8 be
       -0.12081198 -0.1951413 -0.18878606 -0.328367
000140 5c d6 f8 bd 03 22 a8 be c2 c6 4e 3e 50 00 20 be
       -0.12150261 -0.3283845 0.20193008 -0.15625119
000150 cd fc ad 3d 32 f5 9a 3e ad 52 2f 3e f9 34 82 be
       0.084954835 0.30265194 0.17121382 -0.2543104
000160 7d f5 50 3d 94 b0 1c 3e bb 78 34 3d ca f7 96 3e
       0.051015366 0.15301734 0.04406045 0.29485923
000170 13 97 67 be 32 31 23 be 15 4c 16 bd 59 d5 8d be
       -0.22616224 -0.15936735 -0.03669365 -0.27701834
000180 ca 9d 50 be 17 e7 fe bd b2 ea a2 3c dc e5 83 3e
       -0.20372692 -0.12446421 0.019887302 0.25761306
000190 97 3d 92 be 14 a2 95 be 6d 4e 46 bd 72 31 82 3e
       -0.28562614 -0.29225218 -0.048414636 0.2542835
0001a0 d9 79 05 be 18 66 82 3e a9 12 6e 3e 75 9c 68 3e
       -0.13034762 0.25468516 0.23249306 0.22715934
0001b0 09 e6 57 3e 07 f8 d2 bc 5d bb 73 be 4f b7 23 3d
       0.21083845 -0.025753034 -0.23801942 0.03996974
0001c0 7e f3 9f 3e af 1a 85 3e 0c ab 72 3e e1 73 80 be
       0.31240457 0.2599692 0.23698062 -0.2508841
0001d0 c1 3a 0c 3e 17 04 69 3e eb 53 e4 3d d4 1f 96 3e
       0.13694288 0.22755466 0.111488186 0.29321158
0001e0 55 2b 6d 3e a3 d3 0e be d6 19 26 be 8f 60 26 bc
       0.23161061 -0.1394792 -0.16220793 -0.010154857
0001f0 fb c6 05 be f1 85 ba bd cd d3 14 3e a4 42 40 3e
       -0.13064186 -0.091075785 0.1453392 0.18775421
000200 c2 b9 f4 bd 3f 28 82 3e 99 6a 4c 3d 5a 53 dd bc
       -0.11949493 0.2542133 0.049906347 -0.027017284
000210 16 8c 02 3e b8 18 8d be 93 fb f3 bd 70 87 27 be
       0.12748751 -0.2755792 -0.11913218 -0.16360259
000220 f8 38 4a be 42 be ab 3d 43 9f 94 3e 1c 69 57 bd
       -0.19748294 0.08385898 0.29027757 -0.052590474
000230 bb fe 3c be df 09 a4 be 99 2c e9 bd 2f 05 84 3e
       -0.18456547 -0.3203878 -0.113854595 0.25785205
000240 4c 08 ac be 9e e4 00 bc 3f c3 a6 be 21 a9 68 be
       -0.3360008 -0.007867007 -0.32570836 -0.22720768
000250 0a 7c 83 3d 0a c0 0a 3e
       0.06420143 0.1354982
