TFLite_trained_models/FC 10 x 10_Digits.tflite (tflite, 11152 bytes, 22 tensors)

sequential_58/dense_291/BiasAdd/ReadVariableOp f4 [10]
000000 6e 8f 9e bc 9e 3d 09 bc 8f 48 fc bc c3 f2 11 3d
       -0.019355502 -0.008376507 -0.030796317 0.035631906
000010 73 e5 72 3c bf 56 8d 3b 08 8e b7 bb ef 3a 24 bc
       0.014825213 0.0043133195 -0.0056016482 -0.0100238165
000020 1b f5 f8 bb 6b 64 66 3c
       -0.007597578 0.014062027

sequential_58/dense_292/BiasAdd/ReadVariableOp f4 [10]
000000 0c 61 7f 3b 8d 77 a3 bc 78 21 3d bc a8 d2 ad ba
       0.0038967757 -0.019954467 -0.011543624 -0.0013261633
000010 d4 6c ff bc a4 e5 ba bc 3b 07 f3 3c 76 b0 94 bc
       -0.031179823 -0.02281458 0.029666534 -0.01815055
000020 b3 cd d1 3a c1 86 cd 3c
       0.0016006738 0.02508867

sequential_58/dense_293/BiasAdd/ReadVariableOp f4 [10]
000000 ff 17 b9 3c 90 72 be 3a 83 78 ed bb 83 6e 8f 3b
       0.02259445 0.0014529992 -0.007247032 0.0043771877
000010 6b a6 ce bc e0 1e 70 39 d1 71 ea bc 67 90 52 b9
       -0.025225839 0.00022899685 -0.028618725 -0.00020080955
000020 27 c7 fa 3c 38 42 4b bb
       0.030612541 -0.0031014811

sequential_58/dense_294/BiasAdd/ReadVariableOp f4 [10]
000000 17 75 89 bb d7 0d d5 3c 1e 30 b9 bc 28 77 26 3c
       -0.0041948664 0.026007576 -0.022605952 0.010160245
000010 c7 18 bc bc 20 2f 03 bd ac 61 1e bc d7 c7 79 3c
       -0.022961034 -0.032027364 -0.0096668415 0.015245399
000020 f5 04 9b bc e4 c9 a8 bb
       -0.018923262 -0.0051510204

sequential_58/dense_295/BiasAdd/ReadVariableOp f4 [10]
000000 cd 9d e5 3c 2a 5e 53 bc 33 9b 9e bc eb b1 a2 bc
       0.028029347 -0.012900868 -0.019361114 -0.019860229
000010 e8 a5 d2 3b 3e db 94 bc 9e 08 89 bb 2d 09 c4 3b
       0.006428469 -0.01817095 -0.0041819355 0.005982539
000020 46 af 91 bc d5 ba 6a bc
       -0.017783772 -0.014326771

sequential_58/dense_296/BiasAdd/ReadVariableOp f4 [10]
000000 63 a5 06 bc 92 6f 88 3a 74 82 06 bd 24 b5 aa 3c
       -0.008218142 0.0010409227 -0.032839254 0.020838328
000010 21 e1 e8 3c 9c dc 92 bc cb ba af bc 25 67 ac bb
       0.028427662 -0.01792746 -0.021451375 -0.005261319
000020 2d ee 4b 3b b7 5b 7c 3c
       0.0031117306 0.015402726

sequential_58/dense_297/BiasAdd/ReadVariableOp f4 [10]
000000 65 b6 8c bb 85 d2 c7 bb 6f 30 05 3b 57 ba 61 3c
       -0.004294204 -0.006098094 0.0020323058 0.013777337
000010 0f f1 55 3d a8 99 11 3d 07 02 0b 3c 11 ae 01 3c
       0.052231845 0.03554693 0.00848437 0.007915036
000020 a6 10 80 bc a3 91 d6 bc
       -0.015632939 -0.026192492

sequential_58/dense_298/BiasAdd/ReadVariableOp f4 [10]
000000 fe 92 4b 3d 21 61 23 3c 3e f1 c4 bc 7e ac b7 bb
       0.04970073 0.009971888 -0.024040814 -0.0056052795
000010 d2 52 0f 3d 9f 51 77 3d f7 48 9d bc da 0e 15 3b
       0.034991093 0.060380574 -0.019199831 0.0022744448
000020 58 0d ce 3b 12 32 c1 bc
       0.006288212 -0.023583446

sequential_58/dense_299/BiasAdd/ReadVariableOp f4 [10]
000000 c6 1f bd 3b 42 3b 05 bd b5 c4 f1 bc 40 ac 27 bc
       0.00577161 -0.032527216 -0.029512743 -0.010233939
000010 76 08 4b 3b 38 6f c4 bc 26 02 07 3d 0f d0 3f 3d
       0.0030980385 -0.023978814 0.032961033 0.04682928
000020 aa 86 73 3c 10 f5 53 3d
       0.014863649 0.05174738

sequential_58/dense_300/BiasAdd/ReadVariableOp f4 [10]
000000 57 96 99 3c ba d7 e9 3c af d1 97 3c 4b 48 d7 3c
       0.018748445 0.02854525 0.018532602 0.02627959
000010 bf 5f f2 ba 81 9a c8 bc c8 6c 4d bd a5 35 94 bd
       -0.0018491669 -0.024487736 -0.05015257 -0.072367944
000020 76 48 36 3b 2f 75 09 bd
       0.0027814186 -0.03355902

sequential_58/dense_301/BiasAdd/ReadVariableOp f4 [10]
000000 82 43 0f bd 36 62 a4 bd cb 08 5b bd ea c2 c0 3d
       -0.03497649 -0.08026545 -0.053475183 0.09412177
000010 10 13 57 bc 03 12 23 3e 27 eb 78 bd db 2a 3b bd
       -0.013127103 0.1592484 -0.060771134 -0.045695167
000020 38 f0 10 3d 02 d1 01 3d
       0.03538534 0.031693466

sequential_58/dense_291/MatMul f4 [10, 64]
000000 2a e0 70 3e c7 06 a3 3d 95 42 1d 3e c1 5e 03 3d
       0.23523012 0.07960277 0.1535743 0.032072786
000010 58 21 70 3e f5 4e b4 bd f8 7e f9 3d dd e4 32 3e
       0.2345022 -0.08804122 0.121824205 0.17470117
000020 f1 46 66 3e 26 f7 75 3e 1d 02 53 be 64 c6 17 be
       0.22488 0.24020061 -0.20606275 -0.14821774
000030 a7 79 d1 bc 4e 7c 6c be 54 58 6b bd 14 d7 2d bc
       -0.025570704 -0.23094293 -0.057457283 -0.010610361
000040 bf e5 b9 3d 2e 9b 36 be 8c 53 7c 3e e5 0a 79 3e
       0.09077024 -0.17832634 0.24641246 0.24320562
000050 74 ed 64 3e 35 cd 3a 3e 03 bd f4 3b 6f 51 af 3d
       0.22356206 0.18242343 0.007468821 0.08560454
000060 9f 60 20 3d 21 fd 5a be 6a ef ad 3b 8f 3e 50 bd
       0.039154645 -0.21385624 0.0053080814 -0.05084091
000070 4e 63 76 3e 0d 0c 07 3e 37 a1 0d 3e 3b 59 d7 3d
       0.24061319 0.13188191 0.1383103 0.10515066
000080 de a2 bd bd f4 40 c0 bd 14 f2 93 3d 01 df e3 3c
       -0.0925958 -0.09387389 0.07223907 0.027816297
000090 94 03 b2 bd e4 84 68 3e 94 0e 5d 3e ba b0 dc bd
       -0.08692089 0.22706944 0.21587592 -0.107758954
0000a0 67 5e 8f bd f6 b5 1b 3e ec a4 40 be 00 3e aa 3e
       -0.07000428 0.15206131 -0.18812913 0.33250427
0000b0 4d 8c 4d be 64 fa b5 3d 51 9a c6 be b9 92 50 be
       -0.20073052 0.08885649 -0.3878961 -0.2036847
0000c0 0f 30 3a 3d 91 5d 84 3e e6 20 a2 3d f9 01 37 be
       0.04545599 0.25852636 0.07916431 -0.17871846
0000d0 4a 0b 84 be f5 ce 32 be 3d d0 8d bd 2a bd ab 3e
       -0.25789863 -0.1746176 -0.06924484 0.33542758
0000e0 75 f7 82 be 96 27 9c 3d 7d 3d a0 be 1b d4 29 3e
       -0.2557942 0.07624738 -0.31296912 0.16584818
0000f0 6f 20 a2 bd 45 82 b8 3d ed c2 4a 3e 7c 46 66 3e
       -0.079163425 0.09009222 0.19800921 0.22487825
000100 f6 52 5c 3e 79 f7 35 3c f7 f1 40 3e 6a 9b 99 3d
       0.21516022 0.011106365 0.18842302 0.07500346
000110 b7 86 dc bc ec 57 11 be c0 80 4d be 9d b5 20 3e
       -0.026919706 -0.14193696 -0.20068645 0.1569428
000120 12 b4 49 3e ba 86 24 ba a5 02 84 bd c6 4e 5f bd
       0.19697598 -0.00062761793 -0.06445817 -0.054518484
000130 df b7 2c 3c 53 9e 6c be a9 62 78 be 37 1b 2d 3e
       0.010541885 -0.23107271 -0.24256386 0.16904913
000140 ae be b4 bd c5 ac a3 3c 39 5c 89 be ef ef 8f be
       -0.08825432 0.019979844 -0.26828173 -0.28112742
000150 79 b5 22 3e 14 5f 05 3e 44 cc 07 3e 69 6f c8 3d
       0.15889539 0.1302455 0.13261515 0.09786875
000160 c0 43 fe bd 6f af 81 bd 71 29 1f 3e cc 3f 37 be
       -0.12415266 -0.063322894 0.15543152 -0.1789543
000170 b4 bb 8f 3d 76 b8 9f 3d a1 70 0c be 2a ec d8 bd
       0.070182234 0.07798855 -0.1371484 -0.1059192
000180 00 54 6e bc 86 31 2e 3e f9 a6 4a be 89 3f 8b 3c
       -0.014546394 0.17011079 -0.19790258 0.01699807
000190 7f 06 dd bd b7 8a 43 3e b2 fe e6 bd de af 93 bd
       -0.10792255 0.19095884 -0.11279048 -0.072112784
0001a0 a2 be 65 3c 2b 32 23 be 91 1c 8b 3e 7d 0c c6 3d
       0.014022501 -0.15937106 0.27170232 0.09670351
0001b0 44 fa 41 be 18 ce 44 3e 3f c0 bf 3e ce 1a 19 be
       -0.18943125 0.19219244 0.3745136 -0.14951631
0001c0 f0 f6 55 3e 69 7c 6f bc 2b c1 16 3e 1d 29 44 3e
       0.2089498 -0.014617064 0.14722125 0.19156308
0001d0 f7 07 02 3d f0 b4 91 3e f2 11 46 3e 04 94 f1 bd
       0.031745877 0.28458357 0.19342783 -0.1179581
0001e0 f9 9f 09 3e e4 2b 5c 3e 0e ca 1c bd e1 91 7a 3e
       0.13439931 0.21501118 -0.038278632 0.24469711
0001f0 20 17 7d be 44 cf f0 bb 73 e6 82 3e 1a b3 65 3e
       -0.24715853 -0.0073489267 0.25566444 0.22431603
000200 b7 b9 36 be 28 f7 5b bd f5 c4 7c bd 6f 0a 36 be
       -0.17844282 -0.053702503 -0.06171127 -0.17777418
000210 4b 5f d8 bd 25 61 92 bd ad ff a8 be dc 77 94 be
       -0.10565051 -0.07147435 -0.33007565 -0.28997695
000220 64 d1 ed 3c c1 5c 7c 3e 2b 8f 01 be 65 12 40 3e
       0.02903051 0.24644758 -0.1265227 0.18757017
000230 a8 27 b9 bd a4 14 9e 3d 95 64 5d bd 70 b8 a5 be
       -0.09040767 0.07718781 -0.054051 -0.32367277
000240 05 f0 8f bd dc 20 b9 3d 06 f8 f6 3d e7 2c a9 bd
       -0.07028202 0.090394706 0.120590255 -0.082605176
000250 6c a5 a5 3e 6f 23 3d 3c 40 2b eb 3d 1e 64 5a be
       0.3235277 0.011544093 0.11482859 -0.21327254
000260 18 f5 96 be 6d 8e 0b 3e 66 af 7e 3c b7 68 1d 3d
       -0.29483867 0.1362855 0.015544748 0.038429942
000270 cd ed d7 bc f7 da 3f be 02 42 5f be c6 c9 5b bb
       -0.02635851 -0.18735872 -0.21802524 -0.0033537014
000280 65 39 13 be 88 a6 2d be 56 77 15 bd 33 a3 b5 3d
       -0.14377363 -0.16958058 -0.03649076 0.088690184
000290 a0 05 66 3e a0 b3 c5 be 7a 4c 27 be b3 25 23 be
       0.22463083 -0.38613605 -0.16337767 -0.1593235
0002a0 b7 e3 b0 bd 34 a1 07 be 00 e8 ad bd fa 6d 47 3c
       -0.08637183 -0.13245088 -0.08491516 0.012172217
0002b0 bb d2 e1 bd 0a 72 1f 3e e3 86 3e 3c 8f d1 17 be
       -0.11026522 0.15570846 0.011628839 -0.14826034
0002c0 00 68 4a 3e 63 02 25 be bf 71 a6 bd 4e 32 d5 3d
       0.19766235 -0.16114192 -0.08127164 0.104099855
0002d0 4a 87 94 3e fe fa 0c be 62 f6 4c 3d 3b 07 ae 3e
       0.29009467 -0.13767621 0.050039656 0.3398989
0002e0 b8 31 1d 3e 4c b1 5c be 1e 55 00 be 93 2d 07 3e
       0.15350997 -0.21552008 -0.1253247 0.13200979
0002f0 4e 41 dd 3c 64 e0 e8 3d 19 f7 a6 3e 90 73 a7 3d
       0.027008679 0.11370924 0.32610396 0.08176339
000300 ca 14 7a 3e e6 17 8a be 69 ba aa 3d 76 02 d8 bc
       0.24421993 -0.26971358 0.08336336 -0.026368361
000310 be 6b 00 be 52 ec 1f 3e 96 f0 2a 3d 8d 7f 86 3e
       -0.125411 0.15617493 0.041733347 0.2626919
000320 c4 25 23 3e 12 86 4f 3b 1b a7 6f 3e 82 d6 ff bd
       0.15932375 0.0031665605 0.2340359 -0.12492086
000330 c3 83 dc bd 63 bd fd bc ec e6 11 be 76 c8 09 3e
       -0.10767319 -0.030974096 -0.14248246 0.13455376
000340 a7 b0 96 be 68 2b 34 3e 58 0c 9a 3d 75 59 12 be
       -0.2943165 0.17594683 0.07521886 -0.14291938
000350 1c 9e 1a be 38 03 5d be d5 a7 80 be d3 65 2f be
       -0.15099376 -0.21583259 -0.25128046 -0.17128687
000360 71 14 b2 bd 84 a9 a3 3e 95 20 16 3e 68 af 93 bc
       -0.08695305 0.31965268 0.14660867 -0.018027976
000370 f6 ae 27 be b8 a0 a5 3e 9d 51 e9 3d be d5 26 be
       -0.16375336 0.3234918 0.113925196 -0.16292474
000380 a5 9b 89 3e 2f 0c 73 be 57 f6 db bc ea 43 2e 3e
       0.2687656 -0.23735116 -0.026850862 0.17018095
000390 ce 08 7d 3c 8d 31 a8 3d 50 f3 ed 3d e0 53 48 3e
       0.015443994 0.08212576 0.11618674 0.19563246
0003a0 cf 35 42 be da aa c4 bc 40 5c 18 bd ca 27 14 3e
       -0.18965839 -0.02400725 -0.03719735 0.14468303
0003b0 69 5e 07 3e 99 48 69 be 6b 4d 6a 3e b1 45 e3 3d
       0.13219608 -0.227816 0.22881095 0.11097277
0003c0 23 e0 41 3e 71 d3 3a 3e c4 a7 a7 bd 38 7c 4a 3d
       0.18933158 0.18244721 -0.08186296 0.04943487
0003d0 37 b7 46 be 26 a1 9e bd 57 77 2b bd e2 e6 6e be
       -0.19405828 -0.077455804 -0.04186186 -0.23330262
0003e0 da d7 45 be 51 5b 38 3d 3f e6 2e bd ae d9 18 3e
       -0.19320622 0.04500896 -0.04270005 0.14926788
0003f0 5e a7 8c be 18 12 82 be a5 85 06 3e 8d 2e 01 3c
       -0.2747144 -0.2540443 0.13136919 0.007884634

sequential_58/dense_292/MatMul f4 [10, 10]
000000 44 44 fd 3d f8 c5 cb 3e df 7e 0a bf 80 3f c7 3e
       0.12366536 0.39799476 -0.5409984 0.38915634
000010 a0 2d 6e 3e 37 7a 6e bd 8d c2 de be 50 c1 6c bd
       0.23259592 -0.058222022 -0.43507805 -0.057801545
000020 4a 3d a6 3e 39 57 9f be b0 15 86 3e 97 63 d7 3d
       0.32468635 -0.31121233 0.2618842 0.10517042
000030 0d b4 8e 3e 7e 0b 87 be 27 e5 fb be cd 8a 04 bf
       0.27871743 -0.26375955 -0.49198267 -0.51774293
000040 b1 5f d0 3e ec c1 de 3d 4c df a5 bd c9 bc c1 be
       0.40698007 0.108768314 -0.08099231 -0.37839344
000050 6b 29 d5 bd a6 d3 a5 be 19 59 de 3e c0 f1 b7 bd
       -0.104082905 -0.32388037 0.4342735 -0.08981657
000060 e3 cd 4c be 55 ec 73 bd 4f c9 cc 3e 39 ed b7 3e
       -0.20000415 -0.059551556 0.39997336 0.35923174
000070 41 92 c2 3e eb 36 4d be 74 f1 b2 3e d2 8b f3 be
       0.38002208 -0.20040481 0.3494984 -0.47567612
000080 15 22 57 3e 9f c5 f2 bd 5e b3 27 3d 36 93 0c bd
       0.21009095 -0.118540995 0.040942542 -0.03432008
000090 a0 4e 11 bf 9a 33 96 be c0 c2 6b be be cf ad bd
       -0.567606 -0.29336244 -0.2302351 -0.08486889
0000a0 e9 b2 7b 3e 79 ee 91 3d d0 66 3b 3e 5d bd 15 be
       0.24579968 0.07125563 0.18300939 -0.14623018
0000b0 8e d5 81 be ba dc 41 3e 81 76 2a 3d 29 64 e2 be
       -0.25358242 0.18931857 0.04161692 -0.4421704
0000c0 3b 7a c6 be bc ba 17 be d7 f1 48 be 97 a1 fe 3d
       -0.3876513 -0.14817327 -0.19623505 0.124331646
0000d0 22 25 18 3e bc 21 2e bb 0b fe 04 3f e0 ca d3 3e
       0.14857915 -0.00265704 0.5195014 0.4136572
0000e0 8e 65 00 bf 88 c3 78 3d c1 59 a5 3e bf 0f f0 3d
       -0.5015496 0.060733348 0.3229504 0.11721753
0000f0 51 a8 ce bd 44 45 bd 3c 2d 9b 58 bc 10 8d 16 3f
       -0.100906976 0.023104317 -0.013220591 0.58808994
000100 94 83 67 3e b3 2c c4 3e 07 58 77 3e 0b d5 0f 3e
       0.22608787 0.38315353 0.24154674 0.14046113
000110 b1 16 0c 3f a8 0b 7e 3b 13 01 96 3e cb 37 13 bd
       0.54722124 0.0038764272 0.29297695 -0.03594188
000120 e2 65 8d be dc 2e a0 3e ba 49 01 bf 37 2d b9 be
       -0.27616793 0.3128575 -0.5050312 -0.3616731
000130 4e 3c bd 3e 0b 82 d7 3e 16 ab 59 3e 7b 55 a4 3e
       0.3696007 0.42091402 0.2125667 0.32096466
000140 9f 1e 02 bf 4b e4 8c be 24 85 96 3e da 1c 9f be
       -0.50827974 -0.27517924 0.29398453 -0.310767
000150 01 e1 86 3e 77 4f 9e 3c e2 36 34 3d 50 da 88 be
       0.2634354 0.019325001 0.043997653 -0.2672906
000160 75 03 00 bf 00 d2 4b be ba b6 18 3e 4c d3 5d be
       -0.50005275 -0.19904327 0.14913455 -0.21662635
000170 85 49 5e be 13 a6 6f 3e c3 bf 00 bf 25 2c db be
       -0.21707733 0.23403196 -0.50292605 -0.42807117
000180 cd 3f fb 3e 59 b3 bf bd d5 86 ec be 4d 1e e0 3e
       0.49072114 -0.0936038 -0.4619662 0.43773118

sequential_58/dense_293/MatMul f4 [10, 10]
000000 a6 74 8f bd ee 80 df be 3f 65 e6 be ed 98 e1 3e
       -0.07004671 -0.43653053 -0.4499912 0.44061986
000010 49 d9 87 3d 6f 69 7e be be d9 c1 be 7d c6 72 3e
       0.06633241 -0.24844907 -0.37861437 0.2370853
000020 6a 1b 8e 3e 60 45 96 be e1 79 b0 be 85 63 09 bf
       0.2775529 -0.29349804 -0.34467986 -0.5366748
000030 ff bc f7 be c4 5c 00 bf ee 86 11 3e ae 99 7d 3e
       -0.4838638 -0.5014155 0.14211628 0.24765655
000040 f7 75 ea be ac 16 bd 3e e0 ab e6 3e b1 71 06 bf
       -0.45793125 0.3693136 0.45053005 -0.5251723
000050 b5 d8 ac be 44 fa bc be 04 91 f7 bb c1 bb a3 be
       -0.33759084 -0.36909688 -0.007555129 -0.31979182
000060 77 bb 0a 3e 69 c7 00 be 73 49 ce 3e b4 3f 9b 3d
       0.13548075 -0.12576069 0.40290412 0.0758051
000070 bf d9 45 be a2 a9 0f 3f 3c 08 01 3f b0 b2 32 3e
       -0.19321345 0.56118214 0.5040319 0.17450976
000080 57 12 cd bd ff d7 00 3f a2 62 88 3e 7d 5e 3f be
       -0.10013264 0.50329584 0.2663775 -0.18688388
000090 25 60 f1 3e a4 eb 4c 3e f3 46 32 3e d8 0f d3 3d
       0.47143665 0.20011765 0.17409877 0.10305756
0000a0 c2 03 eb 3e c2 21 e5 3e db d4 a5 3d 62 53 e1 be
       0.45901304 0.44752318 0.080972396 -0.4400893
0000b0 e9 aa aa 3e ee 0c a1 3e bf 01 bb be d2 b0 b2 3e
       0.3333352 0.31455177 -0.3652477 0.34900528
0000c0 b4 a0 11 3f 28 31 60 be bb 38 0d bf 71 02 83 be
       0.5688584 -0.21893752 -0.5516469 -0.255878
0000d0 ee 74 21 be a4 0d 2c be 41 43 67 be fd 74 e8 3e
       -0.15767261 -0.16802078 -0.22584249 0.45401755
0000e0 e3 d2 32 be d7 67 cb be 7a 02 b2 be 0a be 85 3d
       -0.1746326 -0.3972766 -0.34767514 0.06530388
0000f0 6a dc 2d bd ac e9 39 3e 99 e4 0a be d8 c6 d3 3e
       -0.04244653 0.18155545 -0.13563766 0.41362643
000100 85 5e 82 be 11 8e 78 be 4b 2c cb 3e 81 e1 1c 3e
       -0.25462738 -0.24272944 0.3968223 0.15320398
000110 bd b5 b6 3e 65 a9 fd 3c cb f5 89 be 83 a4 6a be
       0.3568553 0.030964563 -0.26945338 -0.22914319
000120 da ab 97 be b7 b5 f4 3e 46 50 01 bf 57 19 1d be
       -0.296233 0.47794887 -0.5051311 -0.15341698
000130 be 15 b3 be 8c 4c 1d 3f f2 7f b6 3e 8c 81 b5 3e
       -0.34977525 0.61444926 0.3564449 0.354504
000140 50 0f b8 3e ee 6f f9 bd f4 9e 82 be f8 47 09 bf
       0.35949183 -0.12179552 -0.25511897 -0.5362544
000150 84 2c ba be ad 9d fd be d7 ce e2 3e 1d 7f 28 be
       -0.36362088 -0.4953436 0.4429843 -0.1645474
000160 98 36 d1 3e 81 8c ce 3e fa 97 46 3e 21 bd f5 bd
       0.40861964 0.4034157 0.19393912 -0.11998964
000170 37 f0 c5 3e c1 a0 bc be 16 91 06 3e c6 0d f7 3c
       0.38659832 -0.36841395 0.13141283 0.030157935
000180 a8 a1 77 3e 1f f1 15 be 73 a8 3c 3d 72 03 ef 3d
       0.2418276 -0.14642762 0.046059083 0.11670579

sequential_58/dense_294/MatMul f4 [10, 10]
000000 65 b4 d9 3e 97 4a bb be 85 fc 21 be 95 ff c5 3e
       0.42520443 -0.36580345 -0.15818985 0.38671556
000010 56 bb cd 3e e9 a6 ad 3e 10 02 d9 3d 02 aa b4 be
       0.40181988 0.33916405 0.105960965 -0.35285956
000020 40 51 a3 3e c3 43 98 be f6 38 d4 be 1e 38 18 3c
       0.31897926 -0.29739198 -0.41449708 0.009290723
000030 4b f1 92 bc 27 17 48 be cf d4 01 3f 10 6a 77 3e
       -0.017937323 -0.19540082 0.50715345 0.24161553
000040 5f 30 fd be 35 75 da be ed 8a 13 3f 1a a7 a7 3e
       -0.49450967 -0.42667547 0.5763386 0.32744676
000050 34 85 30 3e 93 e0 ae 3e b4 d9 9b 3e 22 64 cb 3e
       0.17238313 0.34155712 0.30439532 0.39724833
000060 e3 c3 26 be 5e 0a f3 be d7 b5 3d 3e ce 81 71 3d
       -0.16285662 -0.47468847 0.18526398 0.058961682
000070 af 8f e9 be 4f 7c c9 3d fe 3c 53 3d bb ad a0 3c
       -0.45617434 0.09838163 0.05157184 0.019614091
000080 a8 82 ab be 9d d7 a6 3e c4 87 41 be 3a 56 83 be
       -0.3349812 0.32586375 -0.18899447 -0.25651723
000090 1b dc 8d 3d 72 eb 9c 3e 09 54 c6 3e 2c b0 c0 bd
       0.069267474 0.3064838 0.3873599 -0.09408602
0000a0 13 07 e2 be b3 2b 89 be c8 94 4c be d4 5f cc be
       -0.44146022 -0.26791152 -0.1997863 -0.3991686
0000b0 ac c9 e0 3e b7 ee c8 3e b0 f5 af 3e bb 9f 64 3e
       0.43903863 0.39244625 0.34367132 0.22326557
0000c0 7d 86 f5 bd af 90 56 3e f5 44 4e be 34 84 b3 3e
       -0.11988542 0.2095363 -0.20143493 0.350618
0000d0 52 da 1e 3e d5 5c 13 bf 40 aa 8b 3e 3f 50 1d 3e
       0.1551297 -0.57563525 0.27278328 0.15362643
0000e0 35 62 64 3d c9 dd e4 be ad 8e f1 be fb 73 c1 bd
       0.05575772 -0.4470046 -0.47179165 -0.0944595
0000f0 6f 5d a1 be 2c 1c b3 be c1 ce be be ff cf 1b 3d
       -0.31516597 -0.3498243 -0.37267116 0.038040157
000100 c0 46 eb be 28 5c e2 3e 66 19 2c 3d 4b 7e 9a 3e
       -0.45952415 0.44210935 0.04201641 0.3017448
000110 75 3b 59 be 38 f2 a9 3e 65 23 a7 3e 58 aa 0a bf
       -0.21214087 0.3319261 0.3264419 -0.54166174
000120 db cf d7 3e c4 ec 06 bf 99 d3 e1 be 99 c5 cc bd
       0.4215077 -0.52705026 -0.4410675 -0.09998626
000130 61 62 35 be dc ee b1 be 51 6f c2 be 45 b6 eb 3e
       -0.1771331 -0.34752548 -0.37975553 0.46037498
000140 66 42 fd bd 3c ba d6 be cf 58 ba 3e 06 88 23 bc
       -0.1236618 -0.4193896 0.3639588 -0.009981161
000150 99 cd be 3e 6a f2 09 bf 7d 6c 61 3d 16 c7 0e bf
       0.37266234 -0.5388552 0.055035103 -0.5577253
000160 ac 93 dd be a0 78 f0 3d a0 a3 42 3e 40 1d c5 3e
       -0.43276727 0.117417574 0.1900773 0.38498878
000170 99 52 d5 3c 08 b7 0d 3f 67 bc 10 bf 01 8d 0d be
       0.026040362 0.5535741 -0.5653748 -0.1382332
000180 78 fc a6 3e b3 29 10 bf 50 7d 0b bf 14 24 06 3f
       0.32614493 -0.5631363 -0.54488087 0.523988

sequential_58/dense_295/MatMul f4 [10, 10]
000000 4f 9c b8 3e a4 0c 6a 3e 3c c9 0f 3d f5 a5 01 3f
       0.36056754 0.22856385 0.03510402 0.50643855
000010 76 ce fc be 0b 44 db be 28 28 a1 3d a2 52 91 3e
       -0.49376267 -0.4282535 0.07868987 0.28383356
000020 45 f8 e3 be 86 54 0e bf 30 2b 6e 3e 30 16 8b 3e
       -0.44525352 -0.5559772 0.23258662 0.27165365
000030 9d a8 8f bd eb 4f e6 be fa 5c 3d be ee 88 20 3e
       -0.07014582 -0.44982848 -0.18492499 0.15677235
000040 7f 5d f8 be 0d 69 97 3e ad 32 86 3e cc db d6 3e
       -0.48508832 0.29572335 0.26210538 0.41964567
000050 6a c2 83 3e aa 1b a9 3d 2e 58 c0 3e f4 19 31 be
       0.25734264 0.082572296 0.37567276 -0.17295057
000060 98 0d a4 be 89 b0 02 bf af b0 3a 3e 61 f0 ae 3e
       -0.3204162 -0.5105062 0.18231462 0.3416777
000070 90 d7 07 bf 42 c8 86 be a9 38 41 3e f0 e5 03 be
       -0.530633 -0.2632466 0.1886927 -0.12880683
000080 b6 bb 7a be 38 b4 9a be 5a 7c d7 3e 9f c8 b8 3e
       -0.24485669 -0.3021562 0.4208706 0.36090562
000090 ac 0c 34 3e a9 6a 46 3e 38 a2 96 bd c6 e4 37 be
       0.17582959 0.19376625 -0.073551595 -0.17958364
0000a0 19 a5 e3 3e 40 20 b3 3e c3 c8 f1 3e 92 4d c4 be
       0.44461897 0.34985542 0.47223482 -0.3834043
0000b0 cd 14 ad be 17 93 12 3f 21 ff e2 be 37 3b a9 be
       -0.33804932 0.5725569 -0.44335273 -0.3305299
0000c0 ef c4 ee be b2 5c 96 bd 91 5c c5 3d ff 49 02 3f
       -0.46634623 -0.07341899 0.09636796 0.5089416
0000d0 cf 59 8f bd aa 8c 4a 3e d1 b2 60 3e f0 a4 83 3c
       -0.069995515 0.19780222 0.21943213 0.01606986
0000e0 05 ef 27 be cb f7 a5 be 03 76 a5 ba e9 f2 d8 bd
       -0.16399772 -0.32415614 -0.0012623671 -0.105932064
0000f0 76 19 a7 3e 1e 02 3d be 77 7a ac 3e 33 1b 02 3f
       0.32636613 -0.18457839 0.33687183 0.5082275
000100 a9 da 6a be c3 22 06 bf 66 4c ad 3e de 73 a7 be
       -0.22934975 -0.5239679 0.3384735 -0.32705587
000110 a2 37 15 3e 09 7c 09 3f d6 89 b2 3d 06 51 75 3e
       0.14572003 0.5370489 0.08717696 0.23956689
000120 fa 8e 88 be fd f3 b0 be 91 88 d2 be ca 2a 0c 3f
       -0.26671582 -0.34561148 -0.41119817 0.5475279
000130 15 7c 91 be 43 68 e1 bd 90 21 4e bc 72 87 e5 be
       -0.2841498 -0.110062145 -0.012581244 -0.448299
000140 61 a3 70 3e f2 36 cb be 61 41 66 3e 2c 3a f2 3e
       0.23499824 -0.39690357 0.22485878 0.47310007
000150 69 a1 1a 3d 6a 3a 06 3f f0 a3 c4 3b 9a 5c 84 be
       0.03775159 0.5243288 0.006000988 -0.258519
000160 0b 1e d8 3d 96 a4 08 bf 45 93 99 be b8 5c ff 3e
       0.10552605 -0.5337614 -0.2999517 0.49875426
000170 c4 36 1c 3e 31 cc fb 3e f0 96 2a 3e 0e 20 65 bd
       0.15255266 0.49179223 0.1665914 -0.055938773
000180 22 57 b5 3d af 8b b4 3b 27 2a 81 3e b5 57 42 3e
       0.0885451 0.0055098156 0.25227472 0.1897877

sequential_58/dense_296/MatMul f4 [10, 10]
000000 d5 1a d6 3e 1b 3f 8d 3e 22 43 b9 bd c7 a2 f7 be
       0.41817346 0.27587208 -0.09046008 -0.48366377
000010 9e 32 91 3e 22 4a 52 3e ee 46 ae 3d 55 60 cc be
       0.2835893 0.20536092 0.085096225 -0.39917246
000020 db 7f 50 3e bd 0b 4e 3d 1a 63 75 3e 2a 95 1d be
       0.20361273 0.050304163 0.23963585 -0.15388933
000030 9d 27 c0 be e4 70 16 be 1b 90 8e be 57 87 00 bf
       -0.37530223 -0.14691502 -0.2784432 -0.5020651
000040 81 77 14 3d 5a 61 e5 3d 1a d8 8b be b9 9d e2 be
       0.03624678 0.11200209 -0.2731331 -0.44260958
000050 3a 0a bc 3d e6 d5 ee be 2b b0 ce 3e 15 32 0a 3f
       0.09181638 -0.46647567 0.4036878 0.5398267
000060 2b b1 2f bd 13 66 6b 3e 00 4b ba 3e db c7 58 3e
       -0.04289357 0.22988157 0.36385345 0.21169989
000070 9b cf 6a 3e ca 6c b1 be a1 10 02 3f a5 d4 9d 3c
       0.22930758 -0.34653312 0.50806624 0.019266436
000080 10 79 73 be fd ed 20 3e 5b c8 3b 3e c3 72 83 be
       -0.2377665 0.15715785 0.18338148 -0.25673494
000090 fa 53 cf 3e 77 ca 16 3e 9a 25 9d 3e 0c e3 9b bc
       0.40493757 0.14725672 0.3069275 -0.019029163
0000a0 f0 28 d1 3e 7d 51 63 be ce fb 88 be c0 96 19 bd
       0.40851545 -0.22199054 -0.26754612 -0.037497282
0000b0 c1 cf d3 be f3 71 46 bd c6 82 74 3d 3a 5b d9 3e
       -0.4136944 -0.048448514 0.059695028 0.42452413
0000c0 22 55 d4 bd 62 c2 8d be 81 2c 01 bf 3c e5 ca 3e
       -0.103678 -0.27687365 -0.5045853 0.39628017
0000d0 c2 a3 fc 3d d2 da 73 3e 2c c5 b6 be b0 2a 25 be
       0.12335922 0.23813942 -0.35697305 -0.16129565
0000e0 1d 92 e5 3e dc 6f e0 3e f9 46 fc 3e 90 5a c6 3e
       0.44838038 0.43835342 0.49272898 0.3874097
0000f0 12 cf b5 be 0e af 6c bc 6f 8a 7c 3e bf df b6 3e
       -0.35509545 -0.014446033 0.24662183 0.3571758
000100 8a a6 8d 3e e1 93 f9 3e 04 5e c1 bb c4 9f a6 bd
       0.27666122 0.48745635 -0.0059011 -0.081359416
000110 5f f0 db 3e 77 91 cc 3e 77 6b 03 3f d5 08 0e 3d
       0.42956826 0.3995473 0.51335853 0.03467639
000120 16 b8 1b 3e ce d1 bd 3c 62 70 10 3d dd b9 a5 be
       0.15206942 0.023171332 0.035263427 -0.32368365
000130 31 66 99 be 10 06 fa be b2 ab 96 bd 2a c4 ac bd
       -0.29960778 -0.4883275 -0.07356967 -0.08435853
000140 82 60 01 3f 34 a4 9e 3e 6a 5d 07 bf 45 ed e5 be
       0.50537884 0.30984652 -0.52876914 -0.44907585
000150 ce 28 19 3f a9 8e 5e 3b 70 1c f5 be d4 0e 23 bd
       0.5982789 0.0033959544 -0.4787326 -0.039809063
000160 4d 04 8c 3d f5 23 af be c1 6c 1f 3d ea 07 93 3e
       0.06836758 -0.3420712 0.038922075 0.28716975
000170 ac df bb be 65 ff b3 be 63 c9 04 3f 70 35 d5 3e
       -0.36694086 -0.35155788 0.5186979 0.41642332
000180 6a 8b b8 3e 8e e7 48 bd 9b 21 be bc b5 78 bf 3e
       0.36043864 -0.049048953 -0.023209384 0.3739678

sequential_58/dense_297/MatMul f4 [10, 10]
000000 ab 6c e4 be eb a2 f5 be 30 c4 ba 3e 39 f5 74 3e
       -0.44614157 -0.4797586 0.36477804 0.2392167
000010 4d f4 af 3e 7c 03 4e bd 14 47 00 be e8 76 f4 3c
       0.34366074 -0.05029629 -0.12527114 0.029841855
000020 94 3a a4 be bf 7e 88 bd 70 3d 06 3f 98 b8 aa be
       -0.32075942 -0.066648 0.52437496 -0.3334396
000030 69 ee a8 3e 60 c0 a9 be a5 38 9a 3e c7 53 c3 be
       0.32994393 -0.33154583 0.3012134 -0.38149855
000040 2e 04 b9 be 7e d3 e2 3e 2b 0a 98 bd 46 e6 f9 3e
       -0.36136 0.4430198 -0.074238144 0.48808497
000050 8e 36 bb be ba 51 b8 be 94 60 86 bd 03 5a 03 3e
       -0.3656506 -0.35999852 -0.065613896 0.12827305
000060 dd da 06 3f d8 d1 f2 3e 00 52 bb 3e 61 ea 09 3f
       0.5267771 0.47425723 0.36586 0.5387326
000070 94 03 54 be 1f b5 fe be 30 44 ff 3d ee 92 de bd
       -0.2070449 -0.4974756 0.124641776 -0.10867868
000080 7e 4f ac 3e 0e 66 ab 3e c3 ff c9 bd c0 dd ed 3e
       0.33654398 0.334763 -0.09863236 0.46458244
000090 91 71 21 3e 59 d6 fd be 16 10 c0 3e 9f 0f cd 3e
       0.15765978 -0.49577597 0.37512273 0.4005098
0000a0 9e 0a f4 bc d4 0d 5b be 3d e6 2e be f2 fc c2 3e
       -0.029790219 -0.21391994 -0.17080016 0.38083607
0000b0 d3 74 36 3e 26 5a cd be 19 ba b3 bd 6e 5d d8 3c
       0.17818002 -0.4010784 -0.0877573 0.026411738
0000c0 f8 01 8a be 3d 48 f0 be 58 37 66 bd 75 45 2f be
       -0.26954627 -0.46930113 -0.056205124 -0.1711634
0000d0 2e 19 94 be 92 80 f8 3d 58 8d 7f 3e 8e e2 e4 be
       -0.2892546 0.12133898 0.24956262 -0.44704098
0000e0 be 6a 97 be bd 39 8a 3e 12 94 f4 3e b7 44 72 3d
       -0.29573625 0.26997176 0.4776922 0.059147563
0000f0 5c e6 0f bd 35 7f 6d be 31 7e 02 3e be 9f 93 3e
       -0.035131797 -0.23193057 0.1274345 0.2883281
000100 a9 a3 96 3b ed af 08 bf 45 ca c7 be 0d 70 ef 3e
       0.0045971465 -0.5339344 -0.39021507 0.46765175
000110 e4 2a 33 3e b8 a1 84 be 9c ef dc be 10 d7 a6 3e
       0.1749683 -0.25904632 -0.43151557 0.32585955
000120 22 a1 cd be 72 ea 82 be ff dd 4a be c0 78 67 be
       -0.40161997 -0.25569493 -0.19811247 -0.22604656
000130 03 47 ea 3d 11 ed b5 3e 34 60 05 3f 99 ae 3f bb
       0.11439326 0.3553243 0.5209992 -0.0029248355
000140 b8 ec 53 be d4 df f6 be 87 31 ec be fb 70 c6 be
       -0.2069577 -0.48217642 -0.46131536 -0.38758072
000150 7e 03 ca be 1f 14 fe 3e 18 f5 c9 3e 7f 91 fb 3d
       -0.3945579 0.49624726 0.39444804 0.122836106
000160 1a 42 00 3f e9 83 d8 be 63 05 5a bd 6c b1 c4 bd
       0.5010086 -0.4228814 -0.053227793 -0.09604153
000170 08 87 9a 3e 18 ff 83 bd c1 cb d7 be 42 1f b0 bd
       0.30181146 -0.0644514 -0.4214764 -0.08599712
000180 23 24 8c 3e c8 32 df 3e 25 3b cc 3e 9e 8a 01 bf
       0.2737132 0.4359343 0.39888874 -0.5060214

sequential_58/dense_298/MatMul f4 [10, 10]
000000 cd 52 d1 bb f9 47 1d 3e a2 c4 76 3e 04 80 2c be
       -0.0063880445 0.15359487 0.24098447 -0.16845709
000010 6c d8 d1 3e 4f d6 39 be e2 dc 10 bd c5 6e fb bc
       0.4098543 -0.18148158 -0.0353669 -0.030692467
000020 82 c3 9f 3d 24 d2 af be 38 ed eb bd c4 3f 11 be
       0.07800962 -0.34340012 -0.11519855 -0.14184481
000030 55 3b 60 be e3 e5 16 3f ab 3d 9d 3c 5c 6e f1 3e
       -0.21897633 0.5894453 0.019194445 0.4715451
000040 06 f2 c3 3e 92 63 a2 bc 9d da cd be d4 7b 07 bf
       0.38270587 -0.01982287 -0.4020585 -0.5292332
000050 8c c7 a4 3d 03 6f 93 3e d0 95 35 3e 05 dc 95 3e
       0.08045873 0.28795633 0.1773293 0.29269424
000060 b7 6f 9d be 7c 8a a4 3d 9e d8 e2 be d1 c6 be 3c
       -0.30749294 0.08034226 -0.4430589 0.023288162
000070 14 29 4a be a4 7b 46 be bf b4 98 bd b0 9c 82 be
       -0.19742233 -0.19383103 -0.074563496 -0.25510168
000080 2c 19 c7 bd 76 11 72 3e da 75 50 be 06 99 a9 be
       -0.09721598 0.23639473 -0.20357457 -0.3312456
000090 11 c3 1d be 1b b5 c8 bd 62 c2 06 3e c7 2b 0c 3e
       -0.15406443 -0.09800168 0.13160089 0.13688575
0000a0 22 7e 82 3e 68 66 82 3d 20 45 a2 3d 93 df 97 3e
       0.25486857 0.06367189 0.07923341 0.2966276
0000b0 8c f6 97 3e a9 40 d6 bc a7 04 a0 3d e2 66 43 3e
       0.29680288 -0.02615388 0.07813387 0.19082215
0000c0 dc b6 2e 3e 86 16 49 3e 72 8d 87 bd 01 94 64 bd
       0.17061943 0.19637498 -0.066187754 -0.05580521
0000d0 b6 a9 44 bd 4d ba e8 3e fc dc e4 3a ae 12 12 3f
       -0.04801341 0.45454636 0.0017460878 0.5705975
0000e0 71 ac 0f bd 45 1b d9 be dc 72 f8 be ae 60 a1 be
       -0.035076562 -0.42403618 -0.4852513 -0.31519073
0000f0 19 b9 d0 3d 97 6b aa 3a 76 bd d2 3a 69 bb 3e 3e
       0.101915546 0.0013002035 0.0016078192 0.18626179
000100 4c 9a cd 3e 8f 3f 75 be 72 a8 b5 3b d3 78 8d be
       0.40156782 -0.23950027 0.005543762 -0.27631244
000110 df 22 d2 3d d0 9e c0 3e ca 7b d8 3c ae f1 b4 be
       0.102605574 0.37621164 0.026426215 -0.35340637
000120 74 eb fe be a0 79 95 be 61 cf 24 be 75 dd 0e bf
       -0.4978901 -0.29194355 -0.16094734 -0.55806667
000130 83 8c 52 3e 64 c7 e9 3e 7c 53 93 be dd 5b cd be
       0.20561413 0.45659935 -0.2877463 -0.4010915
000140 bb 94 b8 3e 52 e9 9e be 03 ea ae 3e 12 f6 6f 3e
       0.36050972 -0.31037384 0.34162912 0.23433712
000150 5f 9a 28 be 6c 0e 99 be 68 ad 8d 3e fe c8 38 be
       -0.16465138 -0.29893816 0.2767136 -0.18045422
000160 e6 29 a9 bd 3b 2b 0e bf 19 1d c2 3e 14 72 ed 3e
       -0.082599446 -0.55534714 0.37912825 0.46376097
000170 63 c4 95 3e 7a 41 df 3e 6e fc 06 3f 0f b9 d6 be
       0.29251394 0.43604642 0.5272893 -0.41938064
000180 9a 25 9e 3e 85 f3 01 bf c8 82 ae 3e 27 44 cf be
       0.30888063 -0.50762206 0.34084153 -0.40481684

sequential_58/dense_299/MatMul f4 [10, 10]
000000 bb 7e 0b 3c d9 87 0a bf 1e cf ff bc 72 67 90 3e
       0.008514102 -0.5411354 -0.03122669 0.28203923
000010 0f 30 fe be 20 92 ca 3e 39 40 d8 bd 37 23 d9 be
       -0.4964604 0.3956461 -0.105591245 -0.4240968
000020 04 60 af be 9d 34 46 3e fc 7f 89 be e7 d3 08 bf
       -0.34252942 0.19356008 -0.26855457 -0.5344834
000030 b2 81 8d 3d cd dd 20 be a6 78 1a bf 1c 48 eb be
       0.06909503 -0.1570961 -0.60340345 -0.45953453
000040 bd 1c 8b be 5b 08 b7 bc fd ca 9a be 9b 95 b7 bc
       -0.27170363 -0.022342851 -0.30232993 -0.022410205
000050 2b 6f 3c be f9 18 16 3e 0e 21 02 3f f7 32 ef 3c
       -0.18401782 0.14657964 0.5083169 0.029199107
000060 31 b0 d6 be e7 ea 7a be f9 50 20 3e 1a 12 c2 be
       -0.41931298 -0.2450367 0.15655889 -0.37904435
000070 51 4b e6 3e fd 23 b3 3b 9c 72 8e 3e 59 8e f0 3d
       0.44979337 0.0054669366 0.27821815 0.11745901
000080 54 75 12 be d5 fc 0d 3f e9 10 c5 bd ba bc 05 bc
       -0.1430257 0.55463916 -0.09622366 -0.008162672
000090 50 2f 61 3e c4 ee ff 3d 9d 90 c3 3e 00 02 0e 3c
       0.21990705 0.12496713 0.3819627 0.008667469
0000a0 ff 9f bb be 11 36 c9 3e 31 fc 42 3d eb cb 49 3e
       -0.36645505 0.39299062 0.04760379 0.19706695
0000b0 93 c8 cc 3d 87 03 99 be e0 02 69 3e dc fa 14 3f
       0.09999194 -0.29885504 0.22755003 0.5819528
0000c0 6d 93 18 3d 88 78 08 bf 58 75 86 be 78 42 c6 be
       0.03724997 -0.53308916 -0.262614 -0.38722587
0000d0 29 5a af 3e 00 cb a5 be b1 95 4d bd d6 15 77 be
       0.34248474 -0.3238144 -0.050191585 -0.24129423
0000e0 9b 66 d6 be af 2a cb 3d 04 93 f4 be 77 c9 de be
       -0.41875157 0.099202506 -0.47768414 -0.4351308
0000f0 c0 d8 f0 3e ed e2 11 3f bc 7c 45 3e 3a 27 24 3e
       0.47040367 0.56986886 0.19285864 0.16030589
000100 10 00 ae 3d 3c 99 62 be 69 62 84 be d8 01 99 be
       0.08496106 -0.22128767 -0.2585633 -0.2988422
000110 ef 75 18 3e a3 8f c7 be ce 57 b5 3d 41 a5 a3 be
       0.14888738 -0.38976774 0.08854638 -0.31962016
000120 07 1c 74 3e c7 6a f4 3c 31 2f 01 3f bd 55 88 3d
       0.23838817 0.029836072 0.50462633 0.06656978
000130 e3 4c ae be e6 53 97 3b a2 74 c8 bd cc 54 59 be
       -0.34043035 0.004618156 -0.09787871 -0.21223754
000140 5a 27 02 3f 59 16 70 bd f7 67 bd 3e 1c 89 93 3d
       0.50841296 -0.058615062 0.3699338 0.07203886
000150 a2 ff f5 be a2 22 c1 3e 33 bc 17 3e f5 f3 9a 3e
       -0.48046595 0.37721735 0.14817886 0.3026425
000160 3a c0 dd be de d1 26 3e fe ff f5 3e ff 01 8a 3c
       -0.4331072 0.16290995 0.4804687 0.016846655
000170 ff 2d 03 bf 4a 98 09 bf 94 ec f9 3d 21 6d bd 3c
       -0.5124206 -0.53748 0.12203327 0.023123326
000180 6b 04 54 be 13 26 12 3e cd 01 8d 3e 0e 80 c6 bc
       -0.2070481 0.14272337 0.27540436 -0.024230983

sequential_58/dense_300/MatMul f4 [10, 10]
000000 46 7c ed 3e ea 3b 77 3e 39 34 2d 3d f5 d6 f5 3e
       0.46383876 0.24143949 0.04228613 0.48015562
000010 cf 20 02 bf ea b9 79 be e3 b7 98 3d 37 21 b3 be
       -0.5083131 -0.24387327 0.074569486 -0.34986278
000020 dd bc 65 be 1e b9 12 3f fb e6 07 3f 0e 68 2d be
       -0.22435327 0.57313716 0.53086823 -0.16934225
000030 f8 c2 09 bf 86 13 f2 be 68 17 65 3e 95 78 dd 3d
       -0.53813124 -0.4728052 0.2237221 0.10814015
000040 b2 c4 8b be 6c 8b 59 be fb 22 44 3e a4 ca 8a 3d
       -0.27298504 -0.21244591 0.19153969 0.06776932
000050 0b 8d 5e be ab db ce bd 4b 8f 68 bd 9a eb 3e 3d
       -0.21733491 -0.10100492 -0.05677728 0.046611406
000060 f7 70 f5 3e 97 89 9f bd 6c 98 c6 be b8 da af bd
       0.47937748 -0.07789915 -0.38788164 -0.08586639
000070 a4 2d cc 3b 22 2e 1d bd d5 24 d3 3e 62 8a e7 3e
       0.0062310267 -0.038374074 0.41239038 0.45222765
000080 b6 22 81 be 4c 29 92 be 91 6a e8 be 97 de c0 3e
       -0.25221795 -0.28547132 -0.45393804 0.37669823
000090 c8 43 05 be d8 98 fb 3e 76 40 b9 3e 53 45 92 bc
       -0.13014138 0.49140048 0.36181992 -0.017855322
0000a0 4f ea e0 bc 12 29 60 3e c7 c3 c2 be 7f 35 9f 3e
       -0.027455477 0.21890667 -0.3803999 0.31095502
0000b0 c0 e9 86 3e 40 d6 bb be 83 bc 03 bf 35 9f 93 3e
       0.26350212 -0.36686897 -0.5145952 0.28832403
0000c0 9a 7c 99 be 2b b7 9d bd 01 72 b0 be 2a e4 08 bf
       -0.29977876 -0.07700952 -0.34461978 -0.5347315
0000d0 68 b3 ad bd 1c df a5 3e d7 b9 0f 3e f7 15 b7 3e
       -0.08481485 0.3239678 0.14035736 0.35758945
0000e0 f8 9a ed be 4a ef 9d 3e 9b 5e 0b bf 04 9c 00 bf
       -0.46407294 0.30846626 -0.5444123 -0.5023806
0000f0 2d 65 ee 3e 7a 78 5c 3e 04 3f 12 3d 9e 17 0e be
       0.46561566 0.21530333 0.035704628 -0.13876197
000100 ea 78 0c be d5 f6 d9 3e e8 8f ad 3e 37 f6 c1 be
       -0.13718 0.4257113 0.33898854 -0.3788316
000110 6d 9d 02 bf 35 2c 0b bf 79 99 8e 3e b9 91 c8 3e
       -0.5102146 -0.5436433 0.27851465 0.39173678
000120 eb f1 11 3e 58 55 13 be 5e c4 e8 bd 1c 09 83 3b
       0.1425244 -0.14388025 -0.11365579 0.0039988887
000130 f7 1f d0 be f3 b5 b9 be d9 7b 99 3e f6 c3 02 3e
       -0.40649387 -0.3627163 0.299773 0.12770066
000140 55 6a 9f be d3 5f bf be 36 76 e3 be 29 79 09 bf
       -0.31135812 -0.37377796 -0.44426125 -0.537005
000150 d6 56 61 3d 96 6e 1a be 2e a9 0c bf 9d a1 00 bd
       0.055014454 -0.15081248 -0.5494565 -0.031404126
000160 af 94 05 bf 53 6f b2 be 04 35 01 bf 00 54 77 3e
       -0.5218 -0.3485056 -0.5047152 0.24153137
000170 60 a5 c0 be 0f 13 1c 3e 7b 9d 28 3d f6 c9 bd bd
       -0.3762617 0.15241645 0.04116581 -0.092670366
000180 bc 84 fe be cb ee 7a 3d dd 98 c6 3e dd 2c 8e 3e
       -0.49710643 0.061262887 0.387885 0.27768603

sequential_58/dense_301/MatMul f4 [10, 10]
000000 1f bd 0b bf bf 72 11 3f 16 0e 83 be 36 f1 16 bf
       -0.5458545 0.56815714 -0.25596684 -0.5896181
000010 0a 9e 6c be 1d ca 83 3c 43 ce 53 3e a1 05 08 bf
       -0.23107162 0.016087586 0.20684151 -0.5313359
000020 3b 2c 61 3e 7e b4 db 3e a3 80 91 3b 51 49 0f be
       0.21989529 0.42911142 0.0044403835 -0.13992812
000030 a7 03 32 3e 55 b2 53 be 73 e3 fb 3e 54 74 8c be
       0.17384206 -0.20673497 0.49196967 -0.274325
000040 09 95 8c 3e ba ab db 3e 8f fe 60 3e 2b bf 3e 3e
       0.27457455 0.42904454 0.21972106 0.18627612
000050 1f 0f 54 be 5c 35 74 be 1e b1 bb 3e 7d 48 00 3f
       -0.20708893 -0.2384848 0.36658567 0.5011061
000060 19 57 81 3e 4d 57 09 3f ad 80 ce be 26 34 af 3e
       0.25261763 0.53648835 -0.40332547 0.34219474
000070 23 69 a7 be 1c d8 04 bf bb 5b 1a 3e ac 29 87 3e
       -0.326974 -0.51892257 0.15074055 0.2639898
000080 7b 4f 43 3e 10 94 4f 3d 9e 3c 99 3d 91 ad 19 3f
       0.19073288 0.050678313 0.07482265 0.60030466
000090 7b 65 66 3e da b7 e2 be 41 b7 26 3d ba b1 32 be
       0.22499649 -0.44280893 0.04070211 -0.1745061
0000a0 3a bf 0a be 1a 2c 4f be 65 9d da 3e d3 b8 52 be
       -0.1354951 -0.20231667 0.42698207 -0.20578317
0000b0 3a 0f a7 be 2a 39 16 ba c1 1a 04 bf 2d 1a 81 be
       -0.32628804 -0.0005730564 -0.51603323 -0.25215283
0000c0 33 63 5b 3e 3a 77 bf 3e 7b 89 13 be 97 30 47 3e
       0.2142456 0.3739565 -0.14407913 0.1945213
0000d0 5a da 09 3d 39 95 9c 3e 7e b1 a6 3c 14 fa f9 be
       0.033655502 0.30582598 0.020348307 -0.48823607
0000e0 ac aa 20 be ee e6 32 3c 0e 10 f1 3d b2 ca 1a 3e
       -0.15690106 0.010919316 0.1177064 0.15116385
0000f0 be d6 b2 3e 80 3f 90 3e f2 a2 a2 be 4d 92 95 3e
       0.3492946 0.28173447 -0.31764942 0.2921318
000100 df b3 af be 63 1e 04 3e 4d 02 04 3f 7b c4 86 be
       -0.34316918 0.12902217 0.5156601 -0.26321778
000110 b7 25 1f 3e b7 75 7a 3d ca 22 85 be eb ff bd 3d
       0.15541731 0.061147418 -0.26003104 0.09277328
000120 81 91 85 3e 40 2c ba 3b 6c d8 05 bf 0f de 01 bf
       0.26087573 0.0056815445 -0.5228336 -0.5072946
000130 97 24 84 3c 2a 4c 3d be d9 b4 44 be 0d 59 e9 3e
       0.016130729 -0.18486086 -0.19209613 0.45575753
000140 e6 40 66 3e 3e cb c6 3d 71 2f f5 bd 8e 3b ef 3d
       0.22485694 0.09706734 -0.11971939 0.11681281
000150 57 10 d4 3e 61 2e d5 bc 1c 9f 82 be 25 98 f2 be
       0.41418716 -0.026023092 -0.25512016 -0.47381702
000160 f2 47 0a bf 84 a3 8e be 26 46 8d 3e 92 23 0e bf
       -0.5401603 -0.27859128 0.27592582 -0.55523026
000170 f4 c4 6f 3e e3 f7 8a 3e c0 ae 0d bf 3e 77 b9 bc
       0.23414975 0.27142248 -0.5534477 -0.022639867
000180 a1 9c 84 be 6e da 9c be d1 33 73 3d 3e a7 a1 bd
       -0.25900748 -0.306354 0.059375588 -0.07893227
