TFLite_trained_models/FC 1 x 10_Breast cancer.tflite (tflite, 2528 bytes, 4 tensors)

sequential_49/dense_242/BiasAdd/ReadVariableOp f4 [10]
0.01602088 -0.025407074 0.025645427 -0.025550105 0.025523964 -0.025023174 0.023712574 0.025393419
-0.024676695 0.025718935
00000000: 383e 833c 7f22 d0bc 5c16 d23c 744e d1bc
00000010: a217 d13c 66fd ccbc df40 c23c dc05 d03c
00000020: c826 cabc 84b0 d23c

sequential_49/dense_243/BiasAdd/ReadVariableOp f4 [2]
-0.025540438 0.025540438
00000000: 2e3a d1bc 2e3a d13c

sequential_49/dense_242/MatMul f4 [10, 30]
-0.24656688 0.27611327 0.35795173 0.35621715 -0.32692194 -0.0269805 -0.12471751 0.17945698
0.35975316 -0.36898854 -0.1669796 0.26273733 -0.09024089 -0.25275263 0.19112301 0.032411188
0.26679736 -0.1252153 -0.17175691 0.20795177 -0.075251155 0.26473495 -0.048525304 -0.006987661
-0.08251615 -0.30407122 0.28041962 0.36290106 -0.067978784 0.3881588 -0.13562095 0.2743856
-0.23727885 -0.035413913 -0.046075135 0.07631626 0.23578712 -0.10479557 0.25565317 0.072237104
-0.04655505 -0.27230301 0.22882389 -0.010236978 -0.032179475 -0.1427808 0.050646592 0.07491138
0.3888701 -0.08126339 -0.24992996 0.12899771 0.0703847 -0.0031391792 -0.1972061 0.07487598
0.3456963 -0.18099235 0.10318401 0.024243297 -0.31872064 0.35606396 0.29630396 -0.18731835
-0.32527164 0.11840846 -0.06730705 -0.04984921 -0.31106967 0.20698348 0.17153372 0.10976857
0.13240865 0.33522284 -0.04583206 0.12678596 0.19735505 0.077575594 0.333134 -0.09484616
0.027959608 -0.21889535 0.024080768 -0.21146867 0.11615032 0.15436792 -0.09099832 -0.2217553
0.032296803 0.29752916 0.3742015 0.3716576 0.2623192 0.11697676 0.3544373 0.21033326
-0.2646196 0.37582117 -0.011074471 0.080279596 0.17637464 0.33341125 -0.29108346 -0.24785687
-0.03437825 -0.03034789 0.012945438 0.19852996 -0.15837437 0.138502 -0.13790847 0.33200282
-0.1348564 -0.09859696 -0.07838043 0.38660464 -0.0041400096 -0.1866136 -0.20127712 -0.053953633
-0.16850449 0.27686325 -0.16346689 0.11382333 0.2768654 0.0024523083 0.24532025 -0.094050705
-0.082940154 0.32246134 0.25475967 0.015400144 -0.27587798 0.34036604 0.1300095 -0.3718944
0.3300258 0.31512988 0.1241633 -0.11187662 0.026648521 0.21842967 -0.050643176 -0.26257768
0.029941034 0.052344196 -0.3352868 -0.025252055 -0.10509076 -0.2298756 0.21821974 -0.15598974
-0.258462 -0.36202303 -0.019235156 -0.10421095 0.40470907 0.0009840877 -0.055024184 -0.10564238
-0.07324332 -0.25120205 0.10303415 0.002847689 0.32408324 0.36798146 0.3078675 0.38897002
0.06675055 -0.08877514 -0.38089323 -0.34741977 0.17216644 0.14396591 0.023663882 0.2175431
0.35822296 0.11575419 0.12988716 -0.31698287 0.28583488 0.33443817 -0.24909899 0.3507876
0.11209756 0.089960374 -0.37833163 -0.42831892 0.20822231 0.18667386 -0.24481542 -0.11540467
-0.24456502 0.16738647 -0.13653019 -0.19757228 -0.14066018 -0.10493427 0.12864469 -0.30590382
0.14769526 -0.18587138 -0.20066406 -0.30688524 -0.2501658 0.31707105 0.23359163 0.10355317
0.2840981 -0.291694 0.3541546 -0.3461472 -0.37309176 0.16363668 0.35476893 -0.240828
0.27106035 -0.36973765 0.24770646 0.045241237 0.20015788 0.36035556 0.08018064 -0.041194648
0.064115226 0.20389527 0.19989692 0.27919933 0.0025761598 0.3425433 0.059763715 -0.36182764
0.33536252 0.28974527 -0.08505821 -0.20361336 -0.27255443 0.35282466 -0.10322909 0.28766534
0.2487866 -0.1068932 0.28296402 -0.16101564 0.31518528 -0.30816492 0.14224227 0.20328178
0.0012029376 -0.18318866 -0.3043222 -0.036889933 -0.009118 -0.022871401 0.3631014 -0.17399365
00000000: 077c 7cbe b85e 8d3e 7345 b73e 1862 b63e
00000010: 5062 a7be 3606 ddbc e56b ffbd 92c3 373e
00000020: 9131 b83e 11ec bcbe b3fc 2abe 8285 863e
00000030: 37d0 b8bd cb68 81be c0b5 433e 98c1 043d
00000040: aa99 883e 7138 00be 0be1 2fbe 4ff1 543e
00000050: 471d 9abd 578b 873e 78c2 46bd c0f8 e4bb
00000060: 3afe a8bd 39af 9bbe 2993 8f3e 2bce b93e
00000070: 7638 8bbd c0bc c63e 38e0 0abe 457c 8c3e
00000080: 3af9 72be 2e0e 11bd 48b9 3cbd b34b 9c3d
00000090: 2e72 713e 0f9f d6bd f9e4 823e 0cf1 933d
000000a0: 82b0 3ebd 4d6b 8bbe cf50 6a3e ffb8 27bc
000000b0: a0ce 03bd 2135 12be cd72 4f3d 236b 993d
000000c0: fb19 c73e 6c6d a6bd a4ed 7fbe fa17 043e
000000d0: db25 903d b0ba 4dbb 65f0 49be 9458 993d
000000e0: 1bff b03e 0f56 39be 2352 d33d e199 c63c
000000f0: 5a2f a3be 044e b63e 27b5 973e 62d0 3fbe
00000100: 018a a6be 2280 f23d 47d8 89bd af2e 4cbd
00000110: 8644 9fbe 7af3 533e 89a6 2f3e 58ce e03d
00000120: 2296 073e 54a2 ab3e 66ba 3bbd 2ed4 013e
00000130: 7117 4a3e f4df 9e3d 8a90 aa3e b43e c2bd
00000140: 8c0b e53c 1a26 60be 0845 c53c 3e8b 58be
00000150: 38e0 ed3d a012 1e3e 545d babd d213 63be
00000160: a749 043d be55 983e 5797 bf3e e849 be3e
00000170: b44e 863e 8391 ef3d ce78 b53e 9a61 573e
00000180: 387c 87be a26b c03e b371 35bc a169 a43d
00000190: 8e9b 343e e1b4 aa3e e408 95be 31ce 7dbe
000001a0: 35d0 0cbd 239c f8bc 1a19 543c 704b 4b3e
000001b0: e42c 22be 78d3 0d3e e137 0dbe 46fc a93e
000001c0: cc17 0abe 34ed c9bd eb85 a0bd 0bf1 c53e
000001d0: eba8 87bb a317 3fbe 971b 4ebe 7cfe 5cbd
000001e0: 718c 2cbe 05c1 8d3e dd63 27be 351c e93d
000001f0: 4dc1 8d3e e8b6 203b 3b35 7b3e a89d c0bd
00000200: 87dc a9bd a719 a53e dc6f 823e e350 7c3c
00000210: e13f 8dbe 7544 ae3e 3621 053e f168 bebe
00000220: 24f9 a83e b458 a13e 5449 fe3d 921f e5bd
00000230: 004e da3c 07ac 5f3e 386f 4fbd 9570 86be
00000240: e646 f53c de66 563d b6aa abbe 66dd cebc
00000250: d339 d7bd 8264 6bbe ff74 5f3e c6bb 1fbe
00000260: 2255 84be 155b b9be 0c93 9dbc 8d6c d5bd
00000270: 0736 cf3e 81fc 803a 0a61 61bd 085b d8bd
00000280: 9800 96bd 8e9d 80be 9203 d33d 4ba0 3a3b
00000290: 3dee a53e 1168 bc3e cfa0 9d3e 1427 c73e
000002a0: 83b4 883d becf b5bd 7004 c3be 01e1 b1be
000002b0: 664c 303e cd6b 133e c2da c13c 9ec3 5e3e
000002c0: 0069 b73e 8810 ed3d 2401 053e 944b a2be
000002d0: f358 923e 7b3b ab3e ce13 7fbe 6f9a b33e
000002e0: 6893 e53d 253d b83d afb4 c1be 9e4c dbbe
000002f0: 3b38 553e 6f27 3f3e e5b0 7abe 4959 ecbd
00000300: 416f 7abe 5c67 2b3e 92ce 0bbe 6350 4abe
00000310: 3909 10be c7e7 d6bd 6fbb 033e 6d9f 9cbe
00000320: 6d3d 173e 1155 3ebe e17a 4dbe 1020 9dbe
00000330: bb15 80be 2357 a23e a532 6f3e af13 d43d
00000340: 4e75 913e ea58 95be c053 b53e 353a b1be
00000350: e205 bfbe 6090 273e 46a4 b53e 9d9b 76be
00000360: 6cc8 8a3e 414e bdbe c3a6 7d3e e04e 393d
00000370: 30f6 4c3e 8680 b83e bf35 a43d b8bb 28bd
00000380: d84e 833d ecc9 503e c7b1 4c3e 37f3 8e3e
00000390: cad4 283b d661 af3e ccca 743d 7941 b9be
000003a0: a3b4 ab3e 7e59 943e 0033 aebd 0580 50be
000003b0: 418c 8bbe 6fa5 b43e c669 d3bd df48 933e
000003c0: eac1 7e3e d2ea dabd a9e0 903e 49e1 24be
000003d0: f75f a13e cbc7 9dbe f5a7 113e 1929 503e
000003e0: e3ab 9d3a cf95 3bbe 1fd0 9bbe e619 17bd
000003f0: aa63 15bc ce5c bbbc 6de8 b93e 642b 32be

sequential_49/dense_243/MatMul f4 [2, 10]
-0.2872376 0.26249197 -0.65010095 -0.06847285 -0.63680387 0.12297418 -0.41426408 -0.5644785
0.48163322 -0.30897462 -0.2783284 -0.6223852 0.13604867 -0.34097368 0.3290916 -0.21344681
-0.26421973 0.059237823 0.3766025 0.57668805
00000000: cf10 93be 5965 863e 046d 26bf 7e3b 8cbd
00000010: 9405 23bf e3d9 fb3d 6c1a d4be aa81 10bf
00000020: a198 f63e ec31 9ebe 0f81 8ebe a354 1fbf
00000030: 5850 0b3e 1a94 aebe b27e a83e cd91 5abe
00000040: cf47 87be 5ca3 723d 0bd2 c03e d4a1 133f
