TFLite_trained_models/FC 10+50_Digits.tflite (tflite, 8368 bytes, 6 tensors)

sequential_54/dense_255/BiasAdd/ReadVariableOp f4 [10]
0	0xbc7b9d0b	-0.015357266
1	0x3a5a94ab	0.00083381933
2	0x3ca8a9b9	0.020588743
3	0xbce8daf7	-0.028424723
4	0x3adaf394	0.0016704672
5	0xbc7c630e	-0.015404476
6	0x3c93ae7e	0.01802754
7	0x3d177f5f	0.036986705
8	0x3ca6530b	0.02030327
9	0xbcc91f8e	-0.02455118

sequential_54/dense_256/BiasAdd/ReadVariableOp f4 [50]
0	0x3c23ec91	0.010005132
1	0x3ca54cfc	0.02017831
2	0xbc9c5a14	-0.019085921
3	0x3c252bd4	0.01008125
4	0xbcba9f23	-0.02278096
5	0xbc19454b	-0.0093549
6	0xbc399cd4	-0.011328895
7	0xbbe0d5ce	-0.006861425
8	0x3aaa9310	0.0013013799
9	0xbcc1ecdf	-0.02367252
10	0xbcb7efeb	-0.022453269
11	0x3c8eeb3b	0.017446151
12	0xbbbd94c8	-0.0057855584
13	0xbce85197	-0.028359218
14	0x3c9c3c4b	0.019071719
15	0x3c3bda7a	0.011465663
16	0xbc1939c2	-0.009352149
17	0xbaf48fa0	-0.0018658526
18	0x3c5ff591	0.013669387
19	0x3c5d216b	0.013496737
20	0x3c3a5e7d	0.011375067
21	0xbc3b9206	-0.011448389
22	0x3b4072e8	0.0029365364
23	0xbc90319d	-0.017601782
24	0xbca97660	-0.020686328
25	0x3c274d4a	0.010211298
26	0x3a1588ce	0.00057042844
27	0xbc10b348	-0.0088318065
28	0x3d071757	0.032981243
29	0x3c9d7763	0.019221967
30	0x3c4921e6	0.012276148
31	0xbc79f00f	-0.015254988
32	0xbc850496	-0.016237538
33	0x3c85e06a	0.01634236
34	0xbc332334	-0.010933686
35	0x3a383196	0.0007026432
36	0xbcb8d149	-0.022560732
37	0x3c9bbaa3	0.019009894
38	0x3c32737e	0.010891793
39	0x3c21c284	0.009873036
40	0x3bbe8261	0.005813882
41	0xbcda6e38	-0.026663885
42	0xbafd9d0a	-0.001934917
43	0x3cc99a82	0.024609808
44	0xbcb54eab	-0.022132238
45	0xbd042b13	-0.03226764
46	0x3cb3fa6b	0.021969995
47	0xbc97c102	-0.01852465
48	0xbd129631	-0.035787765
49	0x3c7f63ab	0.015587728

sequential_54/dense_257/BiasAdd/ReadVariableOp f4 [10]
0	0xbd19d3d8	-0.037555546
1	0x3b985e07	0.004649881
2	0x3c89b681	0.016810657
3	0xbcaf8357	-0.021424932
4	0x3b94228d	0.0045207203
5	0x3d1ba620	0.038000226
6	0x398613fc	0.0002557336
7	0x3c93bee3	0.018035358
8	0xbb62cc6b	-0.0034606706
9	0xbc8fb862	-0.017543975

sequential_54/dense_255/MatMul f4 [10, 64]
0	0xbe666b5d	-0.22501893
1	0xbe2393e0	-0.15974379
2	0x3d93ad91	0.072108395
3	0x3d5d1dce	0.053983502
4	0x3e216ee2	0.15764955
5	0xbd9d2231	-0.07672537
6	0x3e603d04	0.21898276
7	0x3e900d5f	0.281352
8	0x3d6464bc	0.05576013
9	0x3e6ae87d	0.2294025
10	0xbdeb7940	-0.11497736
11	0xbd49f1a2	-0.049302705
12	0x3e45cedc	0.19317192
13	0xbe59a789	-0.21255316
14	0xbda7b1e0	-0.08188224
15	0x3dbefb59	0.093252845
16	0xbe0cd96e	-0.13754818
17	0xbe332659	-0.17495097
18	0xbe6660e4	-0.22497898
19	0xbd8321eb	-0.06402954
20	0x3d762fd8	0.06010422
21	0x3dd8f5f5	0.105937876
22	0xbb1a142a	-0.0023510554
23	0xbe64886b	-0.22317664
24	0x3e274382	0.16334346
25	0xbe6619de	-0.22470805
26	0x3d195ee6	0.037444018
27	0x3e2a46ac	0.16628522
28	0x3e39fde7	0.18163262
29	0x3e39c195	0.18140252
30	0xbe1a5312	-0.15070751
31	0xbe7fefe3	-0.24993853
32	0xbd8a6980	-0.06758404
33	0xbd305d71	-0.043057863
34	0xbe51cd98	-0.20488584
35	0x3d149607	0.03627589
36	0xbe8746d4	-0.26421225
37	0x3e58d68d	0.21175595
38	0x3debc881	0.115128525
39	0x3e01737e	0.12641713
40	0xbe80d980	-0.2516594
41	0x3e8550ef	0.2603831
42	0xbcdc69a5	-0.026905844
43	0xbe612c46	-0.21989545
44	0xbe02592c	-0.12729329
45	0xbe43a7dc	-0.19107002
46	0x3e75675c	0.2396521
47	0x3e10b2eb	0.14130752
48	0xbe84435c	-0.2583264
49	0x3e0851f9	0.1331252
50	0xbe4055f9	-0.18782796
51	0xbe3e2885	-0.18570144
52	0xbe087842	-0.13327125
53	0x3978931e	0.00023705928
54	0x3e908374	0.2822529
55	0x3dca4a1a	0.09877415
56	0x3e70fcf8	0.23534
57	0x3d11f595	0.035634596
58	0xbe47df55	-0.19518788
59	0xbc4cdbc6	-0.01250357
60	0x3d8ca285	0.06866936
61	0xbe40f4ab	-0.18843333
62	0xbbbc33d2	-0.005743482
63	0x3e4effe3	0.202148
64	0x3e04ca52	0.12967804
65	0xbd95c03b	-0.07312056
66	0x3cbd93bc	0.023141734
67	0xbdfe2a0b	-0.12410363
68	0xbdfed172	-0.12442292
69	0xbe9b513c	-0.30335414
70	0xbcb655d6	-0.022257727
71	0xbda33694	-0.07969394
72	0x3d695963	0.05697001
73	0x3d9d03e2	0.07666756
74	0x3e3008c3	0.17190842
75	0x3e7c75a4	0.24654251
76	0xbdc1d762	-0.09464909
77	0xbe4eec3b	-0.20207302
78	0x3e48c831	0.19607617
79	0xbe1972aa	-0.14985147
80	0x3e844d49	0.25840214
81	0xbd897983	-0.0671263
82	0x3e326128	0.17419875
83	0xbe5ecd30	-0.2175796
84	0x3e221030	0.15826488
85	0x3cc6ecbb	0.024282804
86	0xbcf2370d	-0.029567266
87	0xbe8f6221	-0.28004554
88	0x3dd7e08b	0.10540875
89	0x3d9db236	0.07700007
90	0xbcba45b9	-0.022738324
91	0x3e667fe5	0.22509725
92	0xbe170c21	-0.1475072
93	0x3e2c5381	0.16828729
94	0x3e61edb2	0.2206333
95	0xbdae2ef5	-0.0850505
96	0x3e773596	0.24141535
97	0x3e899a1f	0.26875398
98	0x3e0c3f7a	0.1369609
99	0x3dbc5ef2	0.09197797
100	0xbe90eb5d	-0.28304568
101	0x3e78f771	0.24313141
102	0xbe258ec0	-0.16167736
103	0x3d0cda30	0.034387767
104	0x3d8003ff	0.06250762
105	0xbdc68374	-0.096930414
106	0xbdfedfe5	-0.12445048
107	0xbe740105	-0.23828514
108	0xbc866a10	-0.016407996
109	0xbe4bd138	-0.1990403
110	0x3ea140ee	0.3149485
111	0xbcd3eb17	-0.025868936
112	0xbe096c20	-0.13420153
113	0x3e96dde4	0.29466164
114	0x3cfa7968	0.03057547
115	0xbe0d0e77	-0.13775049
116	0x3e0366d3	0.12832193
117	0x3e83dfca	0.25756675
118	0xbe2e7c78	-0.17039669
119	0xbe8acfc5	-0.2711164
120	0xbddfdd15	-0.1093084
121	0xbe41b2d7	-0.18915878
122	0xbcd3c0bb	-0.025848737
123	0x3e263d0d	0.16234227
124	0x3d36ab30	0.04459685
125	0xbe38bff1	-0.1804197
126	0x3e255274	0.16144735
127	0x3b1fcaec	0.0024382425
128	0xbdd7108c	-0.10501203
129	0x3dce18ce	0.10063325
130	0x3e7dbc63	0.24778895
131	0xbe305e3f	-0.17223452
132	0xbd964120	-0.0733664
133	0x3e0cac2f	0.13737558
134	0x3e7bea2b	0.24601047
135	0x3dda2af9	0.10652728
136	0xbe711bbf	-0.2354574
137	0xbd93ea15	-0.07222382
138	0xbd836987	-0.06416612
139	0x3db7f0ef	0.08981501
140	0x3e401d8e	0.18761274
141	0x3952058f	0.00020029231
142	0xbdea24c1	-0.114327915
143	0xbe8c8b02	-0.27449805
144	0x3e835bf8	0.25656104
145	0xbe414c3f	-0.18876742
146	0x3da8deb0	0.08245599
147	0x3d7ef29d	0.062243093
148	0x3d144921	0.036202554
149	0xbe2f4874	-0.17117482
150	0xbcc058c1	-0.023479821
151	0xbe8cbded	-0.27488652
152	0x3e8d35b8	0.27580047
153	0x3cd2f166	0.025749873
154	0xbe791d2c	-0.24327534
155	0x3d290b20	0.041270375
156	0x3ddf1f0c	0.108945936
157	0xbe9994b5	-0.29996267
158	0xbdee5159	-0.116366096
159	0x3d78912f	0.060685333
160	0x3e3ce5cc	0.18447036
161	0xbd177d78	-0.03698489
162	0xbe413c27	-0.18870603
163	0x3e8e894f	0.27839133
164	0xbe0b73e5	-0.13618429
165	0x3dfb66a8	0.122754395
166	0xbc8a589d	-0.016887957
167	0xbd93e0a2	-0.0722058
168	0xbd97a4a4	-0.074044496
169	0xbddd9092	-0.1081859
170	0xbe51ad01	-0.20476152
171	0xbe61229b	-0.21985857
172	0xbde94030	-0.11389196
173	0x3e383e02	0.17992404
174	0x3e64aa36	0.22330555
175	0x3d011b3a	0.031520106
176	0x3e0a9c1f	0.13536118
177	0xbc960ef3	-0.018317675
178	0x3e85f19a	0.2616089
179	0xbe09e68d	-0.13466854
180	0x3e60693f	0.21915148
181	0x3dfb3b3d	0.12267158
182	0x3d35aac8	0.044352323
183	0x3e2be815	0.16787751
184	0xbe4ba4a5	-0.19887026
185	0xbe2affe7	-0.16699181
186	0x3e28cbca	0.1648399
187	0xbd148a9f	-0.036265012
188	0xbd06b85b	-0.03289066
189	0x3de33686	0.11094384
190	0xbe2c2109	-0.16809477
191	0xbcbb7b3d	-0.022885913
192	0xbe0e3296	-0.13886485
193	0x3e1f376d	0.15548487
194	0xbbcffad3	-0.0063470392
195	0x3da2eb13	0.07954993
196	0xbe33a24b	-0.17542379
197	0xbe6bd4c9	-0.2303039
198	0xbec710a2	-0.38879877
199	0xbdd1decc	-0.10247573
200	0xbe7e08c8	-0.24808037
201	0x3e562d2b	0.20915668
202	0x39e99ea5	0.00044559423
203	0xbe1311ae	-0.14362213
204	0x3e7ddfa4	0.24792343
205	0x3e229ef7	0.15880953
206	0x3c966be7	0.018361999
207	0xbeb97bd9	-0.362273
208	0x3dc8db5e	0.09807466
209	0x3d7f1404	0.062274948
210	0x3e78d4eb	0.24299972
211	0x3e4d2e6f	0.20037244
212	0xbe86df95	-0.26342455
213	0x3ea3b00b	0.31970248
214	0xbe83fab0	-0.25777197
215	0x3cfbde0b	0.030745527
216	0x3e914c69	0.2837861
217	0xbd895b0b	-0.06706818
218	0xbe151065	-0.14557035
219	0xbe33dbbd	-0.17564292
220	0x3e1637d2	0.14669731
221	0xbe8c651c	-0.2742089
222	0x3e8b7a17	0.27241585
223	0x3e849a46	0.2589895
224	0x3e11650e	0.14198706
225	0xbe4b14c0	-0.19832134
226	0xbd83961d	-0.06425116
227	0xbeb776d8	-0.35832858
228	0xbe85a8ee	-0.26105446
229	0x3da0bbc5	0.07848314
230	0xbdb7a101	-0.08966256
231	0xbd98eb9a	-0.074668124
232	0xbe338085	-0.17529495
233	0xbc54f6a2	-0.012998255
234	0x3c88a95e	0.016682323
235	0x3dd34886	0.10316567
236	0x3e53e66d	0.20693369
237	0x3e2c2670	0.16811538
238	0xbdf9ea22	-0.122028604
239	0x3cc208e3	0.023685878
240	0x3df5731c	0.11984846
241	0xbe3fc5ba	-0.1872777
242	0x3e0d8b6f	0.13822721
243	0x3e4df554	0.20113117
244	0xbe23ed9d	-0.16008611
245	0x3e931033	0.28723297
246	0xbe0325f5	-0.12807448
247	0xbc975b5c	-0.01847618
248	0xbdb83461	-0.089943655
249	0x3e7d38b0	0.24728656
250	0xbe1c58fd	-0.15268321
251	0x3dd53308	0.10410124
252	0x3e2f95b1	0.17146946
253	0xbe02ad84	-0.12761503
254	0x3e00137a	0.1250743
255	0x3d8e935d	0.06961701

sequential_54/dense_256/MatMul f4 [50, 10]
0	0x3e8796db	0.2648228
1	0x3afbdf58	0.0019216342
2	0xbc04caaa	-0.0081049595
3	0xbe62d8a1	-0.2215295
4	0x3d8a8b9d	0.0676491
5	0xbea3716a	-0.31922466
6	0x3e608e6c	0.2192933
7	0xbdb1f722	-0.08689715
8	0x3d8c3425	0.06845883
9	0xbdd4c6cb	-0.10389479
10	0xbd3da0af	-0.046295818
11	0xbe34abad	-0.17643614
12	0xbdbb878c	-0.09156713
13	0x3d178d96	0.03700026
14	0xbd4e7b92	-0.050410815
15	0x3e805599	0.25065306
16	0x3e83165e	0.25603002
17	0x3db68a6e	0.08913122
18	0x3e39f7e7	0.18160973
19	0xbd931ca0	-0.07183194
20	0xbde9c1f9	-0.114139505
21	0xbd045787	-0.032310035
22	0xbe187aee	-0.14890644
23	0xbdb61e40	-0.088924885
24	0xbc93e703	-0.01805449
25	0xbd30c014	-0.04315193
26	0x3e4b8df6	0.19878373
27	0xbe9c4a96	-0.30525655
28	0x3daa2015	0.083069004
29	0x3d98a69b	0.074536525
30	0x3d3a1c8c	0.04543738
31	0xbe6ef29b	-0.23334734
32	0x3c03e3fd	0.008049962
33	0xbd1cf581	-0.03832007
34	0x3e1dc1db	0.15405981
35	0x3e8654c1	0.26236537
36	0x3db33f39	0.08752293
37	0xbd3aff08	-0.045653373
38	0x3e8fdd63	0.28098592
39	0x3deeab59	0.11653776
40	0xbe7b2e31	-0.2452934
41	0xbb7ef452	-0.003890295
42	0x3e982c0c	0.29721105
43	0x3e20e1e1	0.15711166
44	0x3e168112	0.14697674
45	0x3d7d6dd9	0.061872337
46	0xbe94cf55	-0.29064432
47	0xbdafeb11	-0.08589757
48	0xbc86db95	-0.016462127
49	0xbea24291	-0.3169141
50	0xbe8e09ab	-0.2774175
51	0x3e4194c0	0.189044
52	0x3d96f6d6	0.07371299
53	0x3ea5888c	0.3233074
54	0x3e557e5b	0.20848982
55	0xbe3d515a	-0.18488064
56	0x3e23117a	0.15924636
57	0x3d166df8	0.036725968
58	0x3d5a4ad3	0.053294014
59	0x3e1dd219	0.15412177
60	0xbe9224d2	-0.28543717
61	0xbd6cef0b	-0.057845157
62	0x3e81f3d8	0.2538135
63	0xbddadb3d	-0.10686348
64	0xbe1c5763	-0.1526771
65	0xbe865984	-0.2624017
66	0x3e755d4b	0.2396137
67	0xbd83d51e	-0.06437133
68	0x3cf8960f	0.030344991
69	0xbd8ac922	-0.06776644
70	0xbe62e1e4	-0.22156483
71	0xbe7262d0	-0.23670506
72	0x3ebcf932	0.3690887
73	0x3e016e13	0.12639646
74	0x3e55cd11	0.20879008
75	0x3cd4e027	0.02598579
76	0x3e3661e5	0.17810781
77	0xbd92c34f	-0.071661584
78	0xbc9965c8	-0.01872529
79	0xbe894d2f	-0.268167
80	0xbcf301b7	-0.029663904
81	0x3e348de7	0.17632256
82	0x3d5c68df	0.05381095
83	0x3e7457e9	0.2386166
84	0xbe311b13	-0.17295484
85	0xbdcf5acb	-0.10124739
86	0xbe5b05ce	-0.21388933
87	0xbe016960	-0.12637854
88	0xbe4a32ac	-0.19745892
89	0xbd9cd1dd	-0.07657216
90	0x3df3d79b	0.11906358
91	0x3e83b38a	0.25722915
92	0xbe8ffbf6	-0.28121918
93	0x3e630488	0.22169697
94	0x3e91c66e	0.28471702
95	0xbdba4c8f	-0.09096634
96	0x3c89ef60	0.016837776
97	0x3e14dcc9	0.14537348
98	0x3c669b04	0.014075045
99	0x3e8150db	0.25257
100	0xbe012b2a	-0.12614122
101	0xbe57923f	-0.21051882
102	0xbe7b8c41	-0.24565221
103	0xbe60047c	-0.2187671
104	0xbd73724b	-0.05943517
105	0x3d86b01b	0.06576558
106	0xbe2df529	-0.16988052
107	0xbdda4b3b	-0.1065888
108	0x3dd3162e	0.10306965
109	0xba2200a2	-0.0006179904
110	0xbe638f44	-0.2222262
111	0xbd97abbe	-0.07405804
112	0x3da02974	0.078204066
113	0xbe4d94fc	-0.20076364
114	0x3e5ac188	0.21362889
115	0x3e4e51ce	0.20148394
116	0x3e4bb54b	0.19893377
117	0x3e792913	0.24332075
118	0x3e0e81f1	0.13916756
119	0xbea39f31	-0.3195739
120	0xbe3d0e67	-0.18462525
121	0x3c90e520	0.01768738
122	0xbe71f50b	-0.23628633
123	0x3e0e0675	0.1386965
124	0xbe0f4aea	-0.13993421
125	0xbd7bcbf0	-0.061473787
126	0x3e45c624	0.19313866
127	0x3c27624e	0.010216309
128	0x3d76da3e	0.060266726
129	0xbd3d9657	-0.046285953
130	0x3e94d1de	0.29066366
131	0xbdf16110	-0.11786091
132	0xbdb56b1e	-0.088583216
133	0xbd03d059	-0.032181118
134	0x3c6ee708	0.014581449
135	0xbe3b9d40	-0.18321705
136	0x3e2e9d5d	0.17052217
137	0xbe9af754	-0.3026682
138	0x3c0f1af1	0.008734451
139	0x3cfef09b	0.031120589
140	0x3e1e4fca	0.15460125
141	0xbe59cadb	-0.2126879
142	0xbd3c690c	-0.045998618
143	0xbe0d24f4	-0.13783628
144	0x3dabf92e	0.08397137
145	0xbe84db58	-0.25948596
146	0x3b32b3d0	0.002726782
147	0x3e752f30	0.23943782
148	0x3e3219a4	0.17392594
149	0xbd52f624	-0.05150427
150	0xbe4a0341	-0.19727804
151	0xbe8636a9	-0.26213577
152	0xbe58c10a	-0.21167389
153	0xb927d7ca	-0.00016006749
154	0xbe2c3270	-0.16816115
155	0x3e85471f	0.26030824
156	0x3d89d351	0.067297585
157	0x3ea81104	0.32825482
158	0xbe87eb73	-0.2654682
159	0xbde85856	-0.11344974
160	0x3e80b684	0.25139248
161	0x3e18eeb0	0.14934802
162	0xbe84189a	-0.2580002
163	0x3e45f9fd	0.19333644
164	0x3c447df9	0.011992925
165	0xbd8ec84e	-0.06971799
166	0x3e437d84	0.19090849
167	0xbe810323	-0.25197706
168	0x3dd1926d	0.102330066
169	0xbca05ad4	-0.01957456
170	0x3ddb4452	0.107063904
171	0xbe39d75a	-0.18148556
172	0xbd85dcf8	-0.06536287
173	0xbdcf023d	-0.10107849
174	0x3e805acb	0.2506927
175	0x3d5d5bfc	0.0540428
176	0x3dbefb96	0.0932533
177	0xbdb3d98c	-0.08781728
178	0x3e9021b2	0.28150707
179	0x3e7cb5cc	0.24678725
180	0x3d3cf9dc	0.046136722
181	0xbe461413	-0.19343595
182	0x3e81cf23	0.25353345
183	0x3df7af91	0.120940335
184	0xbe85f629	-0.26164368
185	0xbd74b527	-0.059743073
186	0x3e93e731	0.28887323
187	0x3e07bcd3	0.13255624
188	0xbe87f68c	-0.26555288
189	0xbcd130b5	-0.02553592
190	0xbe2392ad	-0.15973921
191	0xbe22017c	-0.15820879
192	0xbe0a0c5a	-0.13481274
193	0xbe728f8f	-0.23687576
194	0xbe03791a	-0.12839165
195	0xbc98073f	-0.018558143
196	0x3dd88a90	0.10573304
197	0x3e96bef4	0.2944256
198	0x3e379334	0.17927247
199	0xbd983cac	-0.07433447
200	0x3e80f755	0.251887
201	0x3e306934	0.17227632
202	0x3e80e325	0.25173298
203	0x3e23366a	0.15938726
204	0xbe636d89	-0.22209753
205	0xbe0d253a	-0.13783732
206	0xbdadad1d	-0.08480284
207	0xbe831659	-0.25602987
208	0x3e0d14c4	0.13777453
209	0xbe1e4453	-0.15455751
210	0x3d7a72cc	0.061144635
211	0xbe4d14f6	-0.20027527
212	0x3dd843e0	0.10559821
213	0x3e727409	0.23677076
214	0xbe764c30	-0.240525
215	0x3e59cfca	0.21270671
216	0xbe3106e5	-0.17287786
217	0xbd05a8f0	-0.032631814
218	0x3da17ad8	0.07884759
219	0xbe76cfd9	-0.24102725
220	0xbe5bf679	-0.2148074
221	0xbdff6e4a	-0.12472208
222	0x3b2ec2b4	0.0026666345
223	0xbe23d6d2	-0.15999916
224	0x3e751f48	0.23937714
225	0xbe59f930	-0.21286464
226	0x3e9ee799	0.3103607
227	0x3ca2ce26	0.01987369
228	0x3c085fe9	0.008323648
229	0xbd9f68cc	-0.0778366
230	0x3c2a1241	0.010380329
231	0xbe02dd5d	-0.12779756
232	0x3e22c985	0.15897186
233	0x3e43b33d	0.19111343
234	0x3db6a9d0	0.08919108
235	0x3e1b70fd	0.1517982
236	0xbe8cac93	-0.27475414
237	0x3d263dae	0.040586166
238	0xbe1fe809	-0.15615858
239	0xbe79b158	-0.24384058
240	0x3e2c1a89	0.16806997
241	0xbd4955e4	-0.049154177
242	0x3e1244aa	0.14284006
243	0xbe8a5b01	-0.27022555
244	0xbd52ff0c	-0.051512763
245	0xbd8213da	-0.06351443
246	0xbc2788c7	-0.010225481
247	0xbe515f18	-0.20446432
248	0xbe8d46ab	-0.27592978
249	0xbec33d35	-0.38132635
250	0x3e99961c	0.29997337
251	0x3d2dd62d	0.042440582
252	0xbca0a8bd	-0.01961171
253	0xbea3dff3	-0.32006797
254	0x3e21a7b2	0.15786627
255	0x3e5b2f1c	0.2140469

sequential_54/dense_257/MatMul f4 [10, 50]
0	0x3e1b13b1	0.1514423
1	0xbd05de48	-0.032682687
2	0x3e5ae3f9	0.21376027
3	0xbddb14f5	-0.106973566
4	0x3e579915	0.2105449
5	0x3e2dbc06	0.16966256
6	0xbdc249c5	-0.09486727
7	0x3e7ff16d	0.2499444
8	0xbde278ec	-0.1105822
9	0x3e1fc63b	0.15602963
10	0x3cdcb9a6	0.026943993
11	0xbe6be0c3	-0.23034959
12	0x3ec49392	0.38393837
13	0x3e1196d1	0.14217688
14	0x3df09a8c	0.117482275
15	0xbe875d69	-0.26438454
16	0xbcc0b781	-0.023525001
17	0xbdbd8d5a	-0.09255476
18	0xbe837d6c	-0.25681627
19	0x3da08e87	0.07839685
20	0xbe82582b	-0.25457892
21	0x3e31aca7	0.17351018
22	0x3e784229	0.24243988
23	0x3e500422	0.20314077
24	0xbda73c39	-0.081657834
25	0xbc9e403b	-0.019317737
26	0x3de27ada	0.11058588
27	0xbe9c9da0	-0.30589008
28	0xbe844969	-0.25837258
29	0xbe488381	-0.19581415
30	0x3e1d0b37	0.1533631
31	0x3d76794b	0.060174268
32	0x3d5df3dc	0.05418764
33	0x3e0aada4	0.13542801
34	0x3d79d272	0.060991712
35	0xbdd2c695	-0.10291783
36	0x3e7c4103	0.24634175
37	0xbe650a37	-0.22367178
38	0xbe730e91	-0.23736025
39	0xbe119dc4	-0.14220339
40	0x3cd48dc8	0.025946513
41	0xbc38e41c	-0.011284854
42	0x3c47e958	0.01220163
43	0xbe1a8bf0	-0.15092444
44	0xbd400550	-0.046880066
45	0x3dac59a4	0.08415535
46	0xbe008a63	-0.1255279
47	0xbe4a2f0f	-0.19744514
48	0x3e339d50	0.17540479
49	0x3d8d2266	0.068913266
50	0xbe4d6d41	-0.20061208
51	0xbd676687	-0.056494262
52	0xbe82d5e6	-0.25553817
53	0xbc6f603f	-0.014610349
54	0xbdade4fb	-0.0849094
55	0xbe7398ca	-0.23788753
56	0x3e1b00b6	0.1513699
57	0x3e6a310b	0.22870271
58	0x3e1ae9cb	0.15128247
59	0xbcfbe677	-0.030749543
60	0x3be37145	0.006940993
61	0xbe979e56	-0.29612988
62	0x3e936570	0.28788328
63	0xbe860bc3	-0.26180848
64	0x3e23bd3c	0.15990156
65	0x3df9b10e	0.121919736
66	0xbea42eff	-0.32067105
67	0x3e28cbf8	0.16484058
68	0x3e94f708	0.2909472
69	0x3e822bcc	0.2542404
70	0xbdeb928f	-0.11502563
71	0xbe988d97	-0.29795524
72	0x3e89c437	0.26907513
73	0x3da2b2a1	0.07944227
74	0x3c0e6d39	0.008693033
75	0x3e18cc4d	0.14921685
76	0xbe256244	-0.16150767
77	0x3e702fd1	0.2345574
78	0xbd3296e3	-0.043600928
79	0xbdedfd3e	-0.11620568
80	0xbe50651f	-0.20351075
81	0xbe854474	-0.26028788
82	0xbe3e02f7	-0.18555818
83	0xbdfa0496	-0.12207906
84	0xbdb9cf04	-0.09072688
85	0x3d5da904	0.054116264
86	0xbddbd0fe	-0.107332215
87	0xbe400246	-0.18750867
88	0xbdf7d555	-0.12101237
89	0x3c179290	0.009251252
90	0xbe1f10ec	-0.15533799
91	0xbe4da0b6	-0.20080838
92	0x3e94cb73	0.2906147
93	0x3ca7dc02	0.02049065
94	0xbd7daec5	-0.06193425
95	0xbd905151	-0.0704676
96	0xbe62d026	-0.22149715
97	0x3d15b0a4	0.03654541
98	0x3cf8b0db	0.030357769
99	0xbe80d780	-0.25164413
100	0x3da67eee	0.08129679
101	0x3e603ae4	0.21897465
102	0xbe38ee76	-0.18059716
103	0x3d9dcd47	0.07705169
104	0xbeabea8e	-0.3357739
105	0xbd2bc9fc	-0.041940674
106	0xbe4372a7	-0.19086705
107	0xbe0ff209	-0.14057173
108	0x3e3505ab	0.17677943
109	0x3c45d592	0.012074845
110	0xbe98bea7	-0.29832956
111	0x3e6f3e84	0.23363692
112	0x3e4c3b88	0.19944584
113	0xbe79810f	-0.24365638
114	0xbb19fcd3	-0.0023496642
115	0xbd08c6e3	-0.0333928
116	0xbe8a5dc5	-0.27024665
117	0xbdd2c654	-0.10291734
118	0x3d718a49	0.05896977
119	0x3d959223	0.07303264
120	0x3e8f39f9	0.27973917
121	0xbd032c1a	-0.03202448
122	0xbe53d258	-0.20685709
123	0xbe5f5642	-0.21810248
124	0xbd8e5e16	-0.06951539
125	0x3e3be8f6	0.18350586
126	0xbe8432f2	-0.25820118
127	0x3cadcb3b	0.021215072
128	0xbe12ee36	-0.14348683
129	0x3eb43361	0.3519545
130	0xbdcd4ad4	-0.10024038
131	0x3daaaaba	0.08333345
132	0xbdca7534	-0.09885636
133	0xbdd110cc	-0.10208282
134	0xbe895329	-0.2682126
135	0x3e62b00c	0.22137469
136	0x3c149a80	0.009070039
137	0x3aee244e	0.0018168779
138	0xbe010223	-0.12598471
139	0x3dd44a03	0.10365679
140	0xbea2e525	-0.31815448
141	0xbe9d9c85	-0.30783477
142	0xbe9bcb7d	-0.30428687
143	0x3e0b156b	0.13582389
144	0xbe2589f5	-0.16165908
145	0x3eb1b610	0.34709215
146	0x3daa41ec	0.08313355
147	0xbeb8d954	-0.36103308
148	0xbcaaed46	-0.020865094
149	0xbe9de97c	-0.30842197
150	0xbd8d6a40	-0.06905031
151	0x3d522f10	0.051314414
152	0xbdf99e37	-0.1218838
153	0xbe86458c	-0.26224935
154	0xbe128a72	-0.14310625
155	0xbe5b8f66	-0.21441421
156	0x3e01e379	0.1268443
157	0x3e631f68	0.2217995
158	0xbda6ed81	-0.08150769
159	0xbdca5651	-0.09879745
160	0x3d7f5889	0.062340293
161	0x3d69e197	0.057099905
162	0xbd773b66	-0.06035938
163	0x3e312b18	0.17301595
164	0xbe15775c	-0.14596313
165	0x3eacaed5	0.33727136
166	0xbe83eeda	-0.25768167
167	0x3e71fab8	0.23630798
168	0x3e8a6e8f	0.27037475
169	0xbdc7cd52	-0.097559586
170	0x3e8a2e74	0.26988566
171	0xbd2d6e63	-0.0423416
172	0xbcf46176	-0.02983163
173	0x3d5682fe	0.052371018
174	0x3d757356	0.059924446
175	0x3dea503a	0.11441083
176	0x3d80809b	0.062745295
177	0x3c719d0a	0.014746914
178	0xbe196121	-0.14978458
179	0x3e825130	0.25452566
180	0x3abbc24d	0.0014324874
181	0xbe0987c5	-0.13430698
182	0xbe43b808	-0.19113171
183	0xbe845d42	-0.258524
184	0xbdd59e8a	-0.104306296
185	0x3e92fa94	0.287068
186	0xbe1ff562	-0.1562095
187	0xbe2ec536	-0.17067418
188	0x3e0f9010	0.14019799
189	0xbe4f82c5	-0.20264728
190	0x3d58c9fe	0.05292701
191	0x3e01f59d	0.1269135
192	0xbea1af09	-0.31578854
193	0x3dbd96de	0.09257291
194	0xbeac43d6	-0.33645505
195	0x3e54bffe	0.20776364
196	0xbea9de3b	-0.3317736
197	0x3d8fab91	0.070151456
198	0xbc717653	-0.014737683
199	0xbdb83d5b	-0.089960776
200	0x3e99ee18	0.30064464
201	0x3e9813ec	0.297027
202	0xbc42abd5	-0.011881788
203	0xbe9e28b2	-0.30890423
204	0x3eb0c7e6	0.3452751
205	0x3cae9852	0.021312866
206	0xbe81bd29	-0.2533963
207	0xbe654553	-0.22389726
208	0xbe3f3b2d	-0.18674918
209	0x3e9421fe	0.28932184
210	0x3e6db46b	0.23213355
211	0x3e11def5	0.14245208
212	0xbd92c689	-0.07166774
213	0x3e5e5530	0.21712184
214	0xbe7790be	-0.24176309
215	0x3e67fe25	0.22655542
216	0x3e3e8800	0.18606567
217	0x3e520729	0.20510544
218	0xbd8b9b07	-0.068166785
219	0xbd421b5c	-0.047389373
220	0x3d056ae2	0.032572635
221	0xbe394bde	-0.18095347
222	0xbe14a987	-0.14517795
223	0x3c9c865b	0.019107034
224	0x3e3b0ea2	0.182673
225	0xbddb348e	-0.107033834
226	0x3ea67920	0.32514286
227	0x3e7a3326	0.24433574
228	0x3e1437b8	0.1447438
229	0xbdfb45ae	-0.1226915
230	0xbe3e654c	-0.18593329
231	0xbe5fb3bf	-0.21845911
232	0xbe3f073e	-0.18655106
233	0xbd34c91c	-0.044137105
234	0x3e554d1e	0.20830199
235	0x3ea5e750	0.3240304
236	0x3e74c721	0.23904087
237	0x3e6ae650	0.2293942
238	0x3da2e265	0.079533376
239	0x3e0810e2	0.1328769
240	0xbda7a987	-0.08186632
241	0x3dd9bf18	0.10632151
242	0xbe00cc12	-0.12577847
243	0xbd84485e	-0.064591154
244	0xbddec989	-0.108782835
245	0x3e2f3efc	0.1711387
246	0x3dcac140	0.09900141
247	0xbe2c5989	-0.1683103
248	0x3dd36a0d	0.10322962
249	0x3e7d4d56	0.24736533
250	0x3e46cfca	0.19415203
251	0x3e8392f9	0.2569807
252	0xbe555053	-0.20831423
253	0xbe3a1ae1	-0.18174316
254	0xbb806d9a	-0.0039193155
255	0xbc82d99a	-0.015972901
