TFLite_trained_models/FC 10 x 10_Iris.tflite (tflite, 8444 bytes, 22 tensors)

sequential_55/dense_258/BiasAdd/ReadVariableOp f4 [10]
0.0020808622 0.0032035122 0.0030976704 0.0030627602 0.0028030085 -0.009209763 -0.00088787795 0.012943289
0.0031622532 0.0077675665
00000000: 135f 083b 04f2 513b 4902 4b3b 97b8 483b
00000010: aeb2 373b 8ce4 16bc 7bc0 68ba 1710 543c
00000020: ce3d 4f3b 1287 fe3b

sequential_55/dense_259/BiasAdd/ReadVariableOp f4 [10]
0.0034657675 0.005101304 -0.00796952 0.023376105 0.004764498 0.0007033088 0.00980899 -0.0012868737
0.0059843925 0.0041078087
00000000: ee21 633b d728 a73b 9792 02bc 3f7f bf3c
00000010: 821f 9c3b 415e 383a e3b5 203c 51ac a8ba
00000020: b918 c43b cc9a 863b

sequential_55/dense_260/BiasAdd/ReadVariableOp f4 [10]
-0.0059470623 -0.007805661 0.005619775 -0.014994067 0.005353089 -0.0059630196 -0.0059894747 -0.012455552
-0.0075721135 -0.012226521
00000000: 93df c2bb a1c6 ffbb 1726 b83b ada9 75bc
00000010: f768 af3b 6f65 c3bb 5b43 c4bb 5f12 4cbc
00000020: 7e1f f8bb bf51 48bc

sequential_55/dense_261/BiasAdd/ReadVariableOp f4 [10]
0.0010280085 0.012056474 0.019763155 -0.011766629 0.014942288 -0.008443886 0.007632071 0.0027978374
-0.0055571566 -0.0049633808
00000000: 3ebe 863a 8488 453c 57e6 a13c d2c8 40bc
00000010: 80d0 743c 3a58 0abc 7416 fa3b ec5b 373b
00000020: cf18 b6bb dba3 a2bb

sequential_55/dense_262/BiasAdd/ReadVariableOp f4 [10]
-0.009374318 0.0009147364 0.00547892 -0.017011443 0.018388744 -0.026801528 -0.0007594791 -0.013814268
-0.004387204 0.0104632685
00000000: bd96 19bc ecca 6f3a 8388 b33b 955b 8bbc
00000010: fea3 963c e18e dbbc c817 47ba 3d55 62bc
00000020: 89c2 8fbb 216e 2b3c

sequential_55/dense_263/BiasAdd/ReadVariableOp f4 [10]
-0.013274522 0.012533781 -0.017870385 0.02011546 0.021089386 -0.0034595982 -0.01911684 0.0063611404
0.001510343 -0.008720575
00000000: 617d 59bc 7d5a 4d3c ea64 92bc 2dc9 a43c
00000010: a6c3 ac3c 6dba 62bb eb9a 9cbc 1d71 d03b
00000020: b4f6 c53a bee0 0ebc

sequential_55/dense_264/BiasAdd/ReadVariableOp f4 [10]
-0.0047723087 -0.01963091 -0.0023353382 -0.00065245474 -0.01808598 0.004992431 -0.009337107 -0.00301313
-0.009357717 -0.024325384
00000000: 0761 9cbb 01d1 a0bc 790c 19bb 7f09 2bba
00000010: 0d29 94bc 8c97 a33b aafa 18bc ef77 45bb
00000020: 1c51 19bc 0746 c7bc

sequential_55/dense_265/BiasAdd/ReadVariableOp f4 [10]
0.01865292 0.016884156 -0.008751282 0.015391544 0.0069509037 -0.014655034 0.013149211 0.0017284459
0.008786765 -0.003976109
00000000: 02ce 983c a450 8a3c 8961 0fbc d12c 7c3c
00000010: 68c4 e33b ab1b 70bc ca6f 573c 058d e23a
00000020: 5df6 0f3c 054a 82bb

sequential_55/dense_266/BiasAdd/ReadVariableOp f4 [10]
-0.003178852 -0.02397823 -0.023459572 0.001980034 0.01608982 -0.004750452 0.0019875043 -0.008471567
-0.01933242 -0.0017850768
00000000: 4954 50bb fe6d c4bc 4a2e c0bc 75c3 013b
00000010: ccce 833c aea9 9bbb ca40 023b 54cc 0abc
00000020: 065f 9ebc 3df9 e9ba

sequential_55/dense_267/BiasAdd/ReadVariableOp f4 [10]
0.004723613 0.0062835286 0.0031401021 0.0027839586 -0.0261366 -0.024842253 -0.0021734084 -0.008757581
-0.0120658865 -0.00021632394
00000000: 8ac8 9a3b 0fe6 cd3b 2cca 4d3b 1373 363b
00000010: 6c1c d6bc fb81 cbbc be6f 0ebb f57b 0fbc
00000020: ffaf 45bc 04d5 62b9

sequential_55/dense_268/BiasAdd/ReadVariableOp f4 [3]
0.02634888 -0.006394332 -0.014419355
00000000: 9bd9 d73c 8b87 d1bb 293f 6cbc

sequential_55/dense_258/MatMul f4 [10, 4]
-0.4881605 -0.0135029005 -0.20129482 -0.55023044 -0.23612435 0.59708107 -0.60894525 0.43787804
-0.036263198 0.19412397 0.5481263 0.02143806 -0.18632632 0.25773844 0.011316652 -0.021127323
0.46412706 -0.31996417 -0.5147692 -0.022191804 0.63594073 0.18252487 0.28260723 0.2733846
-0.35048798 0.4721074 0.38931867 0.27385527 -0.6214578 0.47402337 -0.558193 0.002899202
-0.23382223 0.13519861 0.4630697 0.4286478 0.028648954 0.6213096 -0.23370503 0.58207536
00000000: 2cf0 f9be 453b 5dbc 3b20 4ebe e7db 0cbf
00000010: 95ca 71be 4eda 183f d6e3 1bbf 8d31 e03e
00000020: b888 14bd 6fc8 463e 0152 0c3f df9e af3c
00000030: 54cc 3ebe 4bf6 833e 7b69 393c 3513 adbc
00000040: 10a2 ed3e 58d2 a3be eac7 03bf 96cb b5bc
00000050: 03cd 223f cde7 3a3e e5b1 903e 11f9 8b3e
00000060: 2973 b3be 10b8 f13e c754 c73e c236 8c3e
00000070: dc17 1fbf 31b3 f23e bde5 0ebf 8a00 3e3b
00000080: 186f 6fbe 8171 0a3e 7917 ed3e b977 db3e
00000090: 36b1 ea3c 250e 1f3f 5f50 6fbe e402 153f

sequential_55/dense_259/MatMul f4 [10, 10]
-0.5088394 0.2963534 -0.24638884 0.36585417 0.08683242 -0.43507707 0.20193358 0.2127187
0.53747183 -0.2759614 0.29733524 0.38308218 -0.496924 -0.24799031 -0.4465707 0.3292747
-0.4570757 0.07950793 -0.23358253 0.03925445 -0.038830254 -0.36245623 0.120824724 0.39352453
0.015140325 0.38969478 0.5468999 0.0056362115 -0.11613067 -0.47607774 -0.30247653 -0.30690223
-0.15233368 0.22685295 -0.3582251 -0.24292658 -0.50025856 0.41560295 -0.29254693 0.30685875
-0.53026545 0.16848205 0.37544274 -0.20667966 -0.06601485 0.1843041 -0.11561331 -0.4222125
-0.073387325 -0.20684852 0.21715647 0.063538484 -0.11634251 -0.3387209 -0.12093992 -0.2798519
0.035633914 0.2859227 0.3336965 -0.31298423 -0.008671468 -0.4488371 -0.23217154 0.31538868
0.37063506 -0.34608257 0.22034402 -0.30509725 -0.2779146 -0.19519678 -0.14018384 -0.52116096
-0.39536083 -0.50738686 -0.28774783 -0.14372483 -0.37065947 0.01842272 -0.27269787 0.1788649
0.44934696 0.099263735 0.48998997 0.46462706 0.39189792 -0.28073707 0.49215773 0.54246217
0.16089496 0.53249425 0.05603317 -0.16381522 -0.39827666 0.38071805 -0.31095454 -0.2718255
-0.026296938 -0.26976132 0.18523899 0.27536246
00000000: 4d43 02bf a2bb 973e 5b4d 7cbe 3d51 bb3e
00000010: 32d5 b13d 6cc2 debe adc7 4e3e eed2 593e
00000020: c197 093f d04a 8dbe 533c 983e 5923 c43e
00000030: d36c febe 2cf1 7dbe eaa4 e4be b296 a83e
00000040: d305 eabe 0ed5 a23d 4230 6fbe 46c9 203d
00000050: 790c 1fbd dd93 b9be f472 f73d 0c7c c93e
00000060: 200f 783c 1386 c73e a201 0c3f f8af b83b
00000070: ebd5 edbd 76c0 f3be 34de 9abe 4a22 9dbe
00000080: 5cfd 1bbe 244c 683e 4869 b7be bfc1 78be
00000090: f210 00bf e9c9 d43e b6c8 95be 971c 9d3e
000000a0: 7abf 07bf 8f86 2c3e 083a c03e d5a3 53be
000000b0: cb32 87bd 37ba 3c3e acc6 ecbd 3d2c d8be
000000c0: 184c 96bd 19d0 53be 445e 5e3e 7720 823d
000000d0: fb44 eebd d36c adbe 59af f7bd c048 8fbe
000000e0: def4 113d 7664 923e 45da aa3e 783f a0be
000000f0: c612 0ebc facd e5be 60be 6dbe a07a a13e
00000100: e1c3 bd3e bc31 b1be dda1 613e b535 9cbe
00000110: d34a 8ebe aae1 47be 5a8c 0fbe ce6a 05bf
00000120: bc6c cabe 1be4 01bf af53 93be 9a2c 13be
00000130: 14c7 bdbe 3eeb 963c 0e9f 8bbe 5c28 373e
00000140: ce10 e63e c94a cb3d f7df fa3e 99e3 ed3e
00000150: d8a6 c83e c5bc 8fbe 19fc fb3e cdde 0a3f
00000160: a6c1 243e 8b51 083f 0a83 653d 2dbf 27be
00000170: ebea cbbe 7aed c23e 6f35 9fbe b62c 8bbe
00000180: ad6c d7bc 281e 8abe 4aaf 3d3e 4ffc 8c3e

sequential_55/dense_260/MatMul f4 [10, 10]
-0.058265425 -0.025036426 0.42890573 -0.532929 -0.09737105 0.39132363 0.38542637 0.06550687
-0.494758 0.48320943 0.16474183 -0.009875597 0.52330506 0.51803994 0.12560748 -0.107887514
0.14731978 -0.31667525 0.26780066 -0.25549415 0.19608893 0.09627296 -0.02538702 -0.12390024
-0.32564017 0.13128385 0.14425029 -0.501255 0.28160387 -0.42859837 -0.50852376 0.20878528
-0.10525349 -0.4003843 -0.0015935217 -0.23702997 -0.454336 0.5393561 0.082982644 0.10096289
0.013640669 -0.48586482 0.48709399 0.25249255 0.33890715 -0.42118642 0.18277203 0.33898723
0.20609847 -0.51302236 -0.16141778 -0.17516197 0.038680144 -0.28525335 -0.54258865 0.059531298
-0.37054414 0.28070405 -0.4540801 -0.48075783 0.16624679 0.24199076 -0.5017312 0.29739237
-0.29340652 0.22908674 0.4839477 -0.45548248 -0.253856 0.14779085 0.4683201 -0.12964578
0.012002653 -0.45412412 0.21232603 -0.36092448 -0.074038856 -0.50838745 -0.03954785 0.23604336
0.14848296 0.46418312 -0.049155876 0.4032431 0.18556127 0.38259614 -0.06874772 -0.29553813
-0.211337 0.3638934 -0.5101387 -0.017480072 0.30203587 -0.18574528 -0.38461855 -0.1862729
0.12343791 0.19331022 -0.2081069 -0.39065725
00000000: baa7 6ebd 3119 cdbc 8899 db3e 096e 08bf
00000010: 796a c7bd 925b c83e 9b56 c53e 7728 863d
00000020: ec50 fdbe 3a67 f73e 15b2 283e 42cd 21bc
00000030: 52f7 053f 449e 043f 3f9f 003e 21f4 dcbd
00000040: ffda 163e 4223 a2be 2b1d 893e 21d0 82be
00000050: 89cb 483e c22a c53d 71f8 cfbc 69bf fdbd
00000060: 4fba a6be 466f 063e 59b6 133e 3f52 00bf
00000070: 622e 903e 3f71 dbbe 9d2e 02bf cfcb 553e
00000080: 248f d7bd 2cff ccbe b7dd d0ba fcb7 72be
00000090: ba9e e8be 3e13 0a3f cef2 a93d a2c5 ce3d
000000a0: 1d7d 5f3c 46c3 f8be 6264 f93e b446 813e
000000b0: 3d85 ad3e bfa5 d7be 9728 3b3e bc8f ad3e
000000c0: 7a0b 533e 6f55 03bf b44a 25be a95d 33be
000000d0: 126f 1e3d ba0c 92be 17e7 0abf 17d7 733d
000000e0: f6b7 bdbe 71b8 8f3e 307d e8be e425 f6be
000000f0: 993c 2a3e 6dcc 773e 7571 00bf d043 983e
00000100: 6139 96be b795 6a3e fec7 f73e 0035 e9be
00000110: 6af9 81be 7c56 173e a7c7 ef3e ddc1 04be
00000120: c7a6 443c f582 e8be ff6b 593e 18cb b8be
00000130: afa1 97bd ae25 02bf edfc 21bd 5ab5 713e
00000140: eb0b 183e 69a9 ed3e ac57 49bd e175 ce3e
00000150: c603 3e3e a4e3 c33e 9bcb 8cbd c650 97be
00000160: ba68 58be 3c50 ba3e 7398 02bf 5e32 8fbc
00000170: 72a4 9a3e 0334 3ebe b9ec c4be 53be 3ebe
00000180: 04cd fc3d 1df3 453e fa19 55be 3a04 c8be

sequential_55/dense_261/MatMul f4 [10, 10]
0.15739979 0.15819491 0.13841097 -0.26479733 0.30586022 0.06867804 -0.07921401 -0.36519232
-0.26465732 -0.2701709 0.14348654 -0.447614 0.430083 0.46691838 -0.043593552 0.3551419
0.45465285 -0.4954316 -0.29503238 0.35544148 0.15285763 -0.24204147 -0.31055868 -0.17334859
-0.3836942 -0.21178824 0.03516838 -0.15598801 0.3334545 -0.32833594 -0.39102888 0.35496834
-0.4407027 -0.18048754 -0.05628479 -0.055249598 -0.409928 0.4111159 0.46854696 0.31806082
-0.00012928902 0.45245373 -0.3012006 0.039810907 -0.40526763 0.1451131 0.48710042 -0.36508942
0.4927177 0.34495923 0.52759403 0.54116654 -0.27661666 0.15683301 -0.43161753 0.42602912
0.2651771 0.49438277 0.34912506 0.025786938 0.4719615 0.103798635 -0.4824457 -0.2005885
0.22547357 0.035335157 0.23338135 0.105821095 0.37380472 0.5224462 0.48776528 -0.11385543
0.21335 -0.2400778 0.408863 -0.20503691 0.3909029 0.1848214 -0.428304 -0.08588968
0.41369107 0.2682985 -0.0010739923 0.2812589 0.011069468 0.39277208 0.35101983 -0.5446064
0.23204042 -0.17889585 0.2401152 -0.13932876 -0.53600955 -0.39286816 0.188233 0.31718132
0.17487377 -0.018063694 -0.5326155 0.505129
00000000: 692d 213e d9fd 213e 9bbb 0d3e 8493 87be
00000010: b699 9c3e 12a7 8c3d f43a a2bd 7dfa babe
00000020: 2a81 87be d753 8abe 23ee 123e aa2d e5be
00000030: d733 dc3e ed0f ef3e 278f 32bd 29d5 b53e
00000040: 42c8 e83e 36a9 fdbe 7c0e 97be 6dfc b53e
00000050: b686 1c3e b8d9 77be 8c01 9fbe 4b82 31be
00000060: 9173 c4be 04df 58be b80c 103d 52bb 1fbe
00000070: 8cba aa3e a61b a8be f034 c8be 69be b53e
00000080: c9a3 e1be bad1 38be e18a 66bd 674d 62bd
00000090: 15e2 d1be c97d d23e 63e5 ef3e ded8 a23e
000000a0: c291 07b9 04a8 e73e f736 9abe c310 233d
000000b0: 3d7f cfbe 8798 143e 3a65 f93e 00ed babe
000000c0: 7f45 fc3e 7f9e b03e 6710 073f e489 0a3f
000000d0: b3a0 8dbe d598 203e f9fc dcbe 7d20 da3e
000000e0: 4bc5 873e bd1f fd3e 85c0 b23e 213f d33c
000000f0: f0a4 f13e 6194 d43d 1f03 f7be 1267 4dbe
00000100: 8be2 663e 99bb 103d 85fb 6e3e bbb8 d83d
00000110: 5563 bf3e 09bf 053f 5fbc f93e 092d e9bd
00000120: 6c78 5a3e f4d6 75be 7e56 d13e 32f5 51be
00000130: 6d24 c83e d241 3d3e a94a dbbe eee6 afbd
00000140: 51cf d33e 6c5e 893e 34c5 8cba 2b01 903e
00000150: b75c 353c 6c19 c93e dfb8 b33e 536b 0bbf
00000160: 019c 6d3e 7930 37be c2e0 753e 33ac 0ebe
00000170: ec37 09bf 0426 c9be 27c0 403e 9765 a23e
00000180: 1c12 333e 50fa 93bc 7d59 08bf 2250 013f

sequential_55/dense_262/MatMul f4 [10, 10]
-0.133124 -0.47314993 -0.3477826 0.2525092 -0.43907827 0.21010025 -0.0022987046 -0.07483758
0.031440053 0.38970843 0.08234836 0.06305933 -0.0907331 -0.47006768 -0.35642797 -0.16168703
0.4614873 -0.1533243 -0.19060609 0.32670072 -0.39435026 -0.09438689 0.1192151 -0.08756516
0.41121054 -0.2667993 0.33175546 -0.5287365 0.25833195 -0.3252071 0.19624962 -0.44681057
-0.44311678 0.40490097 0.31913006 0.11438873 -0.27614424 -0.35097992 0.090385936 0.054782223
-0.3139358 -0.24244216 0.20928802 0.19270378 0.4178647 0.40863305 0.45805368 0.1469756
-0.43748757 -0.22049485 -0.49736533 0.27121454 0.5337118 0.40991718 -0.10398089 -0.19872189
0.26617235 0.27478498 0.24521697 -0.34207296 0.50801563 0.40338913 0.19682619 0.49225584
0.30006567 0.1785905 -0.54978144 -0.53590584 0.5135726 0.115671925 -0.20744906 0.37716046
-0.21993129 -0.41698027 0.41644508 0.55832225 0.23758604 -0.1385715 0.06304435 -0.29024625
0.5186522 -0.17025706 0.20826004 -0.08137646 0.10856075 0.3108509 -0.23251216 0.16562198
0.33436927 0.0727805 0.48238936 -0.5147656 -0.4232898 -0.5345839 -0.39182684 -0.41045752
-0.48519415 0.113733895 -0.029821912 -0.3310885
00000000: a851 08be b540 f2be 9010 b2be e348 813e
00000010: dece e0be 8524 573e dda5 16bb 7244 99bd
00000020: 49c7 003d dd87 c73e 42a6 a83d 4025 813d
00000030: 47d2 b9bd b6ac f0be ba7d b6be 4991 25be
00000040: 1048 ec3e 0c01 1dbe 3e2e 43be 5145 a73e
00000050: 47e8 c9be ea4d c1bd 0c27 f43d 5d55 b3bd
00000060: 308a d23e eb99 88be dadb a93e 465b 07bf
00000070: 1644 843e 8c81 a6be a9f5 483e 5bc4 e4be
00000080: 34e0 e2be 2e4f cf3e 0465 a33e a344 ea3d
00000090: c762 8dbe a4b3 b3be 431c b93d 5363 603d
000000a0: 31bc a0be c242 78be 994f 563e 2454 453e
000000b0: 5df2 d53e 5a38 d13e 0386 ea3e c680 163e
000000c0: 5ffe dfbe 67c9 61be aba6 febe a2dc 8a3e
000000d0: 56a1 083f aae0 d13e eff3 d4bd c07d 4bbe
000000e0: be47 883e 9eb0 8c3e 281a 7b3e 3024 afbe
000000f0: 500d 023f 0589 ce3e ce8c 493e f508 fc3e
00000100: 35a2 993e 6ee0 363e 7abe 0cbf 2031 09bf
00000110: 7e79 033f 67e5 ec3d 876d 54be 2d1b c13e
00000120: ab35 61be 707e d5be 4a38 d53e 35ee 0e3f
00000130: c149 733e b0e5 0dbe 651d 813d 289b 94be
00000140: 64c6 043f de57 2ebe 1f42 553e b4a8 a6bd
00000150: 1955 de3d d927 9f3e ab17 6ebe cf98 293e
00000160: 7332 ab3e f10d 953d bdfb f63e aec7 03bf
00000170: 71b9 d8be 7eda 08bf 879d c8be 7d27 d2be
00000180: 5e6b f8be 51ed e83d 154d f4bc 6f84 a9be

sequential_55/dense_263/MatMul f4 [10, 10]
-0.45532563 -0.33450657 0.15681726 -0.19528824 0.36922383 -0.40986958 -0.14842588 -0.24719979
-0.41038978 -0.45357773 -0.48438275 0.29634523 0.014239586 -0.31964603 -0.33951026 -0.24680562
0.25183558 0.025961835 0.28129813 -0.3689523 0.23892045 0.2844385 -0.07719328 -0.11619262
-0.24273562 0.4592732 0.24096714 0.48714605 0.21981321 -0.035825614 -0.4892134 -0.40543273
0.032430843 -0.3551894 -0.21887736 -0.24922882 -0.14525007 -0.5458794 0.37090132 -0.005058656
-0.036352966 0.41477644 0.40913498 -0.19229874 0.06608622 -0.03466894 0.47477236 -0.034240447
-0.4803221 0.25388405 0.35256767 0.4956765 -0.40054908 0.2536216 0.46869215 0.5342034
0.3336412 -0.5163578 0.01886106 0.54976726 0.35941383 -0.086496994 -0.1892549 0.070758045
-0.33134404 0.09926452 -0.03340841 -0.14620697 0.12244417 0.5019482 0.20342925 -0.3777777
-0.06355516 0.42679298 0.32843554 0.030331165 0.20658901 0.21735114 -0.37622026 -0.37296727
-0.37397856 -0.45605037 -0.06109262 -0.17968483 -0.17824103 -0.042598687 -0.47583452 -0.122173585
-0.32897893 0.05296246 0.3463069 -0.092569865 0.24554802 -0.04089892 -0.41236064 -0.25122377
0.38205883 0.5288506 0.43672293 -0.5133921
00000000: 7120 e9be 7244 abbe b494 203e a4f9 47be
00000010: e80a bd3e 6dda d1be f4fc 17be f121 7dbe
00000020: 9c1e d2be 573b e8be 0401 f8be 90ba 973e
00000030: 274d 693c a5a8 a3be 4ad4 adbe 9dba 7cbe
00000040: 98f0 803e eaad d43c 4f06 903e 51e7 bcbe
00000050: 90a7 743e eca1 913e 8317 9ebd 65f6 edbd
00000060: b08f 78be db25 eb3e 17c0 763e 356b f93e
00000070: b716 613e e1bd 12bd 2e7a fabe e194 cfbe
00000080: 34d6 043d 63db b5be 6321 60be d735 7fbe
00000090: 6fbc 14be c1be 0bbf c7e6 bd3e 15c3 a5bb
000000a0: d9e6 14bd 945d d43e 247a d13e f6e9 44be
000000b0: 3658 873d 0501 0ebd 5d15 f33e b63f 0cbd
000000c0: c7ec f5be 17fd 813e c083 b43e 4fc9 fd3e
000000d0: c514 cdbe b1da 813e 6bf8 ef3e 8ec1 083f
000000e0: 05d3 aa3e 0630 04bf 8282 9a3c 8cbd 0c3f
000000f0: 1705 b83e 5625 b1bd 09cc 41be 98e9 903d
00000100: eda5 a9be 324b cb3d 42d7 08bd 48b7 15be
00000110: 02c4 fa3d ad7f 003f c24f 503e 146c c1be
00000120: 3529 82bd 9c84 da3e b428 a83e 1079 f83c
00000130: 128c 533e 4c91 5e3e f19f c0be 91f5 bebe
00000140: 1e7a bfbe 6f7f e9be 413c 7abd 4dff 37be
00000150: d184 36be f67b 2ebd 95a0 f3be 2536 fabd
00000160: ed6f a8be 2aef 583d 234f b13e 4595 bdbd
00000170: f170 7b3e a085 27bd ef20 d3be 67a0 80be
00000180: 379d c33e c162 073f 269a df3e aa6d 03bf

sequential_55/dense_264/MatMul f4 [10, 10]
0.14619862 0.449633 -0.21693183 -0.09212925 0.46166965 -0.018603664 -0.44353744 0.4679589
0.09483866 0.46613365 0.15023091 0.2053264 0.5264468 -0.5050503 -0.12413246 0.17551777
0.4830532 -0.31569207 0.24853447 0.11302632 0.19616054 0.39874163 0.35828555 -0.0056886827
0.46212393 -0.44379923 0.10395833 -0.36820328 -0.26809177 -0.06226237 0.36504394 -0.42143354
-0.53683025 -0.29838765 -0.4645234 0.26089197 0.2839318 -0.30832797 0.5089836 -0.28164014
0.4847166 -0.44874313 0.08588278 -0.058795065 -0.3058638 0.014800204 0.4098366 -0.46675685
0.49556184 -0.41731754 0.35380602 0.2943633 0.50453573 -0.017695265 -0.38939545 -0.3524362
0.23810999 0.31026682 0.31331894 -0.49687085 0.12925893 -0.07015956 0.033796087 0.032474183
-0.48425233 -0.10986549 -0.0073280605 0.4548951 -0.44148943 0.41498905 0.34768343 0.2184681
-0.08553831 -0.008340044 0.2438515 0.46136186 -0.42123696 -0.14796811 -0.3218816 0.4171574
0.35189915 -0.3073485 0.24711797 -0.169445 -0.0686432 -0.045497555 0.41453046 -0.38282412
-0.12450781 0.093790404 -0.29577035 -0.50584334 0.23585272 0.11723243 0.082947426 -0.4453449
-0.13559306 -0.07125939 0.03764657 0.46874163
00000000: 17b5 153e 4c36 e63e 6123 5ebe 43ae bcbd
00000010: f75f ec3e b666 98bc 5717 e3be 4f98 ef3e
00000020: c53a c23d 12a9 ee3e 22d6 193e 1541 523e
00000030: 38c5 063f fa4a 01bf 2939 febd eeba 333e
00000040: c052 f73e 64a2 a1be d27f 7e3e 587a e73d
00000050: 4fde 483e dd27 cc3e 3471 b73e 2168 babb
00000060: 829b ec3e a739 e3be 1be8 d43d 2485 bcbe
00000070: 5343 89be d406 7fbd 0ae7 ba3e 23c6 d7be
00000080: b56d 09bf 44c6 98be 03d6 edbe a293 853e
00000090: 825f 913e 2add 9dbe c04c 023f 2333 90be
000000a0: c62c f83e a9c1 e5be 50e3 af3d 18d3 70bd
000000b0: 2e9a 9cbe 8e7c 723c 1ad6 d13e c1fa eebe
000000c0: 48ba fd3e a5aa d5be 1026 b53e c9b6 963e
000000d0: 4129 013f a9f5 90bc d75e c7be 8572 b4be
000000e0: 1bd3 733e 4bdb 9e3e 576b a03e db65 febe
000000f0: 745c 043e d1af 8fbd c46d 0a3d a603 053d
00000100: ecef f7be 2801 e1bd 3a20 f0bb 03e8 e83e
00000110: e70a e2be 7279 d43e 9003 b23e 1ab6 5f3e
00000120: b62e afbd aea4 08bc 35b4 793e 9f37 ec3e
00000130: 5fac d7be f484 17be aacd a4be a895 d53e
00000140: 202c b43e c85c 9dbe 7e0c 7d3e fd82 2dbe
00000150: ce94 8cbd a55b 3abd 563d d43e 8601 c4be
00000160: f3fd febd 2f15 c03d 366f 97be f37e 01bf
00000170: 6083 713e 8e17 f03d 57e0 a93d 3f04 e4be
00000180: e8d8 0abe 71f0 91bd 4a33 1a3d e7fe ef3e

sequential_55/dense_265/MatMul f4 [10, 10]
-0.12112822 -0.022606734 0.44154254 -0.33195612 0.4319949 -0.4084219 -0.47518322 -0.4360803
-0.34275103 0.16814584 -0.35342956 -0.2548779 0.09806126 0.015495013 -0.45135462 -0.15951303
-0.3042379 0.24476281 0.15259407 -0.05909499 0.22513972 -0.05654938 -0.327619 0.15113738
0.4499262 -0.49254513 0.45525312 -0.29214457 0.42385265 0.52026474 0.13975553 -0.41431454
-0.013188942 0.083258465 0.33377016 0.22558364 -0.0902232 0.085952364 -0.060136348 0.04946668
0.30123132 0.24283135 -0.27825105 0.5005776 -0.1527731 0.1798629 -0.1892386 -0.29663903
-0.53624445 0.1005788 -0.21909375 0.4372959 0.3033429 -0.37362993 0.17367703 -0.07986509
-0.45655572 -0.101179175 -0.43628415 -0.4032767 -0.5386051 0.076174736 0.015915072 -0.43575558
0.2975564 0.36763126 -0.22859484 -0.4801767 -0.2990238 -0.19309352 0.53558254 -0.46658754
0.52599883 -0.25474232 0.0402942 0.121177696 -0.47142363 0.40104502 0.113928124 0.20266171
0.38314608 -0.44471487 -0.38535646 -0.5319079 0.18596612 -0.1942898 -0.42550653 -0.26087236
0.26942372 -0.20933892 0.19770534 0.28979757 -0.43501619 -0.016027085 0.42335296 0.2479201
0.080808505 -0.5046043 0.36527494 0.51246667
00000000: 1212 f8bd c231 b9bc dd11 e23e 27f6 a9be
00000010: 6f2e dd3e ad1c d1be 374b f3be eb45 dfbe
00000020: 107d afbe 6c2e 2c3e b8f4 b4be 5b7f 82be
00000030: 58d4 c83d ccde 7d3c f417 e7be 6257 23be
00000040: 12c5 9bbe 1aa3 7a3e 9f41 1c3e 970d 72bd
00000050: 078b 663e 53a0 67bd adbd a7be c2c3 1a3e
00000060: ba5c e63e e02e fcbe f016 e93e f993 95be
00000070: 3703 d93e 1230 053f 131c 0f3e 0921 d4be
00000080: 6f16 58bc 6a83 aa3d ece3 aa3e 66ff 663e
00000090: f1c6 b8bd cb07 b03d 8851 76bd 939d 4a3d
000000a0: fe3a 9a3e c8a8 783e ec76 8ebe db25 003f
000000b0: 8d70 1cbe fb2d 383e c3c7 41be 12e1 97be
000000c0: 5147 09bf 42fc cd3d 1d5a 60be 40e5 df3e
000000d0: c34f 9b3e 6c4c bfbe 64d8 313e 4f90 a3bd
000000e0: acc1 e9be 0737 cfbd a360 dfbe 497a cebe
000000f0: 06e2 09bf 8001 9c3d 5360 823c 5b1b dfbe
00000100: 5059 983e 2a3a bc3e c414 6abe b8d9 f5be
00000110: a619 99be 4fba 45be f01b 093f 90e4 eebe
00000120: dca7 063f 966d 82be 880b 253d 032c f83d
00000130: 705e f1be c655 cd3e 2653 e93d 8d86 4f3e
00000140: b92b c43e abb1 e3be 714d c5be 1e2b 08bf
00000150: e76d 3e3e e8f3 46be fedb d9be 1091 85be
00000160: e8f1 893e f15c 56be 4573 4a3e 5960 943e
00000170: 71ba debe 3c4b 83bc b8c1 d83e c4de 7d3e
00000180: ee7e a53d bf2d 01bf 5105 bb3e 0431 033f

sequential_55/dense_266/MatMul f4 [10, 10]
-0.17394045 -0.46658662 0.35887152 -0.067651816 -0.039772533 0.06371441 -0.38218394 -0.069427066
-0.028794115 0.45092034 -0.14936239 0.13483705 0.4159774 -0.26165712 0.3896324 -0.12651952
-0.43174437 -0.15752712 0.39785683 -0.2654645 -0.16693443 -0.42634627 -0.20133023 0.11375933
-0.29510492 0.53133136 0.043565918 0.36634713 -0.35627413 -0.019743327 0.31972393 -0.50901985
-0.33301616 0.0717159 0.47788364 -0.3262949 -0.1636131 0.021302817 0.14082725 0.5338872
-0.11658818 0.48438317 -0.47576168 0.14392658 0.4794553 -0.31058568 0.34765902 0.09405568
0.2532956 -0.21834056 -0.36557606 -0.021845628 0.38082275 -0.10048449 -0.39749083 0.39490908
-0.41729486 -0.25162315 0.117384866 -0.09860064 0.04213557 0.5123055 -0.3851389 -0.18934074
-0.098134905 0.36046234 -0.11546026 0.019936252 -0.0304532 0.44735166 0.07403793 -0.2592516
0.31148374 -0.20832676 -0.47073555 0.17351568 -0.17454892 -0.28879276 -0.3918862 -0.14234109
-0.41853458 0.16012196 0.2738528 -0.032261517 0.23522164 0.020697454 -0.121620215 -0.37869075
0.21426651 0.37324288 0.37459978 -0.27087116 -0.06752654 0.27492857 -0.45770413 0.015962204
-0.48976773 -0.4798702 -0.26465055 -0.16627182
00000000: 721d 32be 71e4 eebe 02be b73e 098d 8abd
00000010: 86e8 22bd b37c 823d 9dad c3be c72f 8ebd
00000020: a3e1 ebbc 08df e63e 74f2 18be b912 0a3e
00000030: fdfa d43e ecf7 85be e67d c73e 558e 01be
00000040: 990d ddbe ca4e 21be e4b3 cb3e f7ea 87be
00000050: dcf0 2abe 0f4a dabe 8329 4ebe a7fa e83d
00000060: fe17 97be 5505 083f 2d72 323d da91 bb3e
00000070: 9069 b6be c2bc a1bc dbb2 a33e 204f 02bf
00000080: 1881 aabe c9df 923d 2aad f43e 2010 a7be
00000090: 318a 27be 3f83 ae3c 0535 103e d5ac 083f
000000a0: c9c5 eebd 1201 f83e 0997 f3be 7d61 133e
000000b0: 2a7b f53e 1605 9fbe 5d00 b23e 44a0 c03d
000000c0: f6af 813e ab94 5fbe c92c bbbe 9af5 b2bc
000000d0: 33fb c23e d0ca cdbd eb83 cbbe 8631 ca3e
000000e0: aca7 d5be c0d4 80be 7a67 f03d 22ef c9bd
000000f0: 5996 2c3d 7426 033f ed30 c5be 8ae2 41be
00000100: f4fa c8bd 858e b83e 6e76 ecbd 5a51 a33c
00000110: fd78 f9bc 470b e53e 33a1 973d a0bc 84be
00000120: cc7a 9f3e 9c53 55be 4004 f1be 18ae 313e
00000130: f4bc 32be a5dc 93be 4fa5 c8be ddc1 11be
00000140: 2a4a d6be 03f7 233e 6f36 8c3e a724 04bd
00000150: f1dd 703e b58d a93c 0514 f9bd c1e3 c1be
00000160: ae68 5b3e b119 bf3e 8bcb bf3e a0af 8abe
00000170: 5b4b 8abd 70c3 8c3e 3258 eabe 2bc3 823c
00000180: d6c2 fabe 8cb1 f5be 4780 87be 2943 2abe

sequential_55/dense_267/MatMul f4 [10, 10]
0.10178994 -0.2796805 -0.5301341 0.2861058 0.3289099 -0.016741248 0.1784426 -0.45515975
0.15346503 -0.48038924 -0.028531212 -0.21999018 0.20946504 -0.48814207 -0.48676854 0.36083785
0.34624493 0.22846264 -0.16123751 -0.46972558 0.26702777 0.42432112 -0.27204058 -0.06808419
0.31105897 0.01415224 -0.20524277 -0.017918289 -0.20619744 0.26196998 0.50534403 -0.24854422
-0.5018025 -0.3738923 -0.030625207 0.15797651 0.42928028 0.26022488 -0.4117634 0.20175256
0.14382747 0.4597492 0.21132003 0.15680769 -0.37848204 -0.0104162535 0.21090816 0.10907962
-0.033803698 0.4193064 0.2500723 -0.2355494 0.50859636 -0.4896249 -0.47689342 0.13953374
-0.14408498 0.33188635 0.28057042 -0.29723155 0.122975625 -0.113332525 0.5039985 -0.4031855
-0.5370542 -0.13784145 -0.44854826 -0.34611592 0.22622298 0.36641723 -0.39983147 0.07298183
-0.18046433 0.18474616 -0.268175 -0.31741667 -0.2789291 -0.35375112 -0.4784545 -0.39391822
-0.50221205 0.049372617 0.1995849 0.37875533 0.17961504 0.0023372262 0.17363055 -0.5049238
0.23515065 -0.18156232 0.02898297 -0.24801372 -0.49421522 -0.5164399 -0.046852473 -0.29573157
-0.22429127 -0.5256836 -0.51599276 0.45312834
00000000: 3e77 d03d 4832 8fbe deb6 07bf 767c 923e
00000010: e166 a83e f124 89bc a8b9 363e b30a e9be
00000020: f025 1d3e 94f5 f5be 4aba e9bc 1b45 61be
00000030: 017e 563e c2ed f9be ba39 f9be bdbf b83e
00000040: 0447 b13e 1cf2 693e 721b 25be df7f f0be
00000050: ddb7 883e 9e40 d93e e748 8bbe b96f 8bbd
00000060: 1f43 9f3e ccde 673c 292b 52be 60c9 92bc
00000070: 6c25 53be ee20 863e 3a5e 013f 6082 7ebe
00000080: 2176 00bf d06e bfbe b7e1 fabc 98c4 213e
00000090: a0ca db3e 323c 853e a7d2 d2be 3998 4e3e
000000a0: 8247 133e 3f64 eb3e 4764 583e 3292 203e
000000b0: 66c8 c1be efa8 2abc 4ff8 573e 2365 df3d
000000c0: bf75 0abd 54af d63e 7a09 803e dd33 71be
000000d0: 5f33 023f 1db0 fabe 602b f4be efe1 0e3e
000000e0: 038b 13be 02ed a93e eda6 8f3e bc2e 98be
000000f0: a5da fb3d e21a e8bd 0c06 013f 546e cebe
00000100: 627c 09bf 4f26 0dbe 1ea8 e5be 1b36 b1be
00000110: ffa6 673e 0a9b bb3e b6b6 ccbe 7f77 953d
00000120: a4cb 38be 192e 3d3e 3c4e 89be 7084 a2be
00000130: cccf 8ebe de1e b5be fdf7 f4be a6af c9be
00000140: f890 00bf f13a 4a3d fc5f 4c3e 38ec c13e
00000150: 01ed 373e 262c 193b 35cc 313e b042 01bf
00000160: 55cb 703e 79eb 39be b26d ed3c 4ff7 7dbe
00000170: c709 fdbe 6835 04bf 61e8 3fbd 216a 97be
00000180: 9cac 65be 3393 06bf 1a18 04bf 7000 e83e

sequential_55/dense_268/MatMul f4 [3, 10]
0.015341861 0.2611462 0.25967073 -0.3766459 -0.5190625 -0.6167382 0.1645959 -0.6223931
-0.35580227 0.11087816 0.31982663 -0.36707163 -0.43689996 -0.57407635 0.54103345 0.32140666
-0.41403574 -0.4438588 0.64033234 -0.16966633 -0.30970338 0.27308032 0.37410164 -0.32538438
0.27680716 0.59787637 0.53631514 -0.60463274 -0.12591073 0.23308031
00000000: 6e5c 7b3c f4b4 853e 90f3 843e bbd7 c0be
00000010: 48e1 04bf 8ee2 1dbf d48b 283e 2755 1fbf
00000020: b72b b6be 1714 e33d 51c0 a33e d0f0 bbbe
00000030: 5ab1 dfbe abf6 12bf 2b81 0a3f 6a8f a43e
00000040: 7efc d3be 7641 e3be d2ec 233f 03bd 2dbe
00000050: 7191 9ebe 2fd1 8b3e 408a bf3e c898 a6be
00000060: abb9 8d3e 6d0e 193f f34b 093f 36c9 1abf
00000070: beee 00be 9bac 6e3e
